models/best.pt (torch, 272618 bytes, 5 tensors)

fc.0.weight f4 [256, 5]
00000000: 3506 d13e 3e6e 41bd fb5b c8be 65d2 90be
00000010: bf05 743e ed6c bbbe 4fc0 6e3d cf86 fbbd
00000020: 2d68 5abe f36f bebd 68d0 dabd af4e 90bd
00000030: 02b8 dcbe 3f51 9cbe 1d50 2b3b 9cd9 12bf
00000040: 4a70 a0be 274e 2c3c 72a3 6d3e 50a1 183c
00000050: 5905 663d 8ba8 56be 7bed c2be 9567 62bd
00000060: 73b9 17be 215a a0bb 4885 a6be 48d0 b33e
00000070: c444 b93e 3ce5 1abe 2f9d 703c 6f0e dabe
00000080: a85f 523e d27a 87be 7952 a13d ef33 d6be
00000090: 3f0b 993e 0185 a1bd 81e4 8f3e d83a ccbe
000000a0: 050e 293d a1cd 09be 09c8 633e 5e46 cb3e
000000b0: b1b4 4fbc 2b56 5f3e f509 d0be c88f c1be
000000c0: abe5 403e b72c 563e 3a21 ac3d 8954 af3e
000000d0: ebdb 0e3e 0fa0 423d df8e 953e 6edf b0bc
000000e0: 1f9f 59bd 64c5 c9bd 28e8 2fbd 77c9 c6be
000000f0: 5c4b 8e3e 3b50 303e bb8f a53e cf88 83be
00000100: 33f8 ec3d 3e40 283e 9fba 723e b0c5 a03e
00000110: 418b 86bb 2488 cebd cb09 613e d50f 19be
00000120: 7999 cdbe 8ed6 553d 9f67 ce3c 4385 8d3d
00000130: 7332 9ebe 2152 0cbe 427d 953d a9d4 e8bc
00000140: 44f4 3b3e d405 dfbd 0680 4fbe 9855 db3e
00000150: f8c8 183e 1d9d bbbb 0810 27be 1b00 87be
00000160: e393 9a3e 41c8 863e da19 ce3e 8010 38be
00000170: 30f2 3ebd 1b1e b6bd 6332 943d c540 243d
00000180: c111 70bd 9612 83be a9f7 b8be 359a 3f3e
00000190: 49e6 193f 08f8 693e 8a71 b33e 50ca 97be
000001a0: a4f7 a53e 12c4 90be 14a9 6dbd 618c d43d
000001b0: 4172 a4be 0fdb e43d fa06 343f 027f a3bd
000001c0: 9c99 603e 834d 273e 3e0a 44be 5c8f 40be
000001d0: 4e05 8b3e 366e 543e b6b2 133e 2ed6 8dbe
000001e0: 3040 a0be e29b a7be a281 cfbd c5eb bfbe
000001f0: 320b 5ebe f4c7 983d 8681 dabc 37ce d23d
00000200: 3e45 323d 774b 873e f5cb 84be 95da a33e
00000210: 930a d6bb 4087 a13c a9ef aabe 8425 c43e
00000220: 4fec ab3e df0c 05bd 1d6d c5bd 7a95 56bd
00000230: 25f4 0b3f b8a3 333e f491 1abd 669b 9f3e
00000240: e293 92be a30e d9be be4e 6c3d 2faa d7be
00000250: f789 9dbe 17ca 77be d79c 1b3f 759f 66be
00000260: 8b7c cf3e 955f 6c3e 6f9e 25be 9b31 123f
00000270: 5bba 593d 8c74 7d3e 95cd acbd c937 d43e
00000280: 27c9 073f 37a1 cb3e cf65 3c3e eeb3 b2bb
00000290: 9e3e d8bc ee3e 183f a812 65be a12f 0b3e
000002a0: f056 abbe 16f9 403e 5011 f1bc 3ad7 e6bc
000002b0: 7689 523e 48db 84be 256e aebd 3c99 153e
000002c0: bcdc 17bd 56f9 a03e 9559 e8be f71a c1be
000002d0: 5d1b 09bd d3a3 bd3e 3e45 d1be 4648 c0be
000002e0: 6426 17be 173a aabd 6fa7 563d f2df b4be
000002f0: 184f b93e 7b5b 533e e850 b43e 3081 ce3e
00000300: b56b 833e ea6e 4dbd 9578 7abe 71ed 01be
00000310: e4f2 15be 4b8d 86be 1a80 79bd 8a21 a4be
00000320: bb88 babd f77d 1fbe 914c e7bd ccc0 dabe
00000330: 7903 81be 06ac 4d3e a444 8fbc 6844 cfbe
00000340: 4782 a2be e12e 92be e0a5 063e 4645 143e
00000350: 5e98 c7be 15ef d93e 155c dd3c 4628 513c
00000360: 6562 72be 761d a2be 4ba8 843e bde4 843e
00000370: 8732 443f 07c6 6e3d 90bc 613d cf55 113c
00000380: 999f c13e d477 f3bd e3cb 87be b942 963e
00000390: f8e4 9c3e c10c ac3e c146 a6be aea1 75be
000003a0: 4dc8 6fbd ade0 a0be 8b3b 743e 5471 293e
000003b0: de49 a3bd a2c3 17bb 181c 77be 96dc d73e
000003c0: 72c5 213e 136b b03e 0cfd fb3c 029e e33d
000003d0: 6a6c 7cbc 1bcd c93e 2e4f a0be 22ef 9abe
000003e0: ed2f d03d 5d81 813e e901 96be dbd3 3d3e
000003f0: 56d3 d2bd 14ec b2be 02f6 553e c1b1 e1be
0.40825048 -0.047224276 -0.39132676 -0.28285518 0.23830317 -0.3660654 0.05828887 -0.12281572
-0.21328802 -0.09298696 -0.106842816 -0.07046258 -0.43109137 -0.30530736 0.002614028 -0.57363296
-0.3133567 0.01051668 0.2320688 0.009315804 0.056157444 -0.20962732 -0.38071808 -0.055274565
-0.14816837 -0.0048935567 -0.3252356 0.35119843 0.36185277 -0.15126508 0.014685913 -0.42589137
0.20544302 -0.26460892 0.078770585 -0.41836497 0.29891393 -0.078866966 0.28104022 -0.39888644
0.041273136 -0.13457347 0.22244276 0.39702123 -0.0126773575 0.21810214 -0.40632597 -0.3780501
0.18837611 0.20915495 0.08404775 0.34244183 0.1395108 0.047515925 0.29210564 -0.021590915
-0.053130265 -0.098521024 -0.04294601 -0.3882558 0.2779187 0.17218105 0.3233622 -0.25690314
0.11570778 0.16430756 0.23704003 0.31400824 -0.004105956 -0.100845605 0.21976392 -0.14947446
-0.40156153 0.05220657 0.025195895 0.06910183 -0.30897865 -0.13703205 0.07299282 -0.028421717
0.18354899 -0.108897835 -0.20263681 0.4283874 0.14920413 -0.0057255165 -0.16314709 -0.26367268
0.30190954 0.26324657 0.40254098 -0.17975044 -0.046617687 -0.08892461 0.07236173 0.04010083
-0.05861068 -0.25600117 -0.3612645 0.18711169 0.6011701 0.22848523 0.3504756 -0.2964654
0.32415497 -0.2827459 -0.058022574 0.10378338 -0.3211842 0.111745946 0.70323145 -0.07983209
0.21933597 0.16338162 -0.19144532 -0.18804687 0.27152485 0.20745167 0.14423642 -0.2770247
-0.3129897 -0.32736117 -0.10132147 -0.37484565 -0.21683958 0.07460013 -0.02667309 0.102932386
0.043523066 0.26424763 -0.25936857 0.32002702 -0.0065320223 0.019717813 -0.3338597 0.38309872
0.33578727 -0.032482978 -0.09639952 -0.052388646 0.5466941 0.17542922 -0.037736848 0.31173247
-0.2862845 -0.4239398 0.057692282 -0.42122027 -0.3076932 -0.24198185 0.60786194 -0.22521766
0.40524706 0.23083337 -0.16173719 0.5710694 0.053156238 0.2475149 -0.08437649 0.4144881
0.5304131 0.39771435 0.18398212 -0.005453578 -0.026397046 0.59471023 -0.22370398 0.13592388
-0.33464766 0.18845019 -0.0294272 -0.0281788 0.2056025 -0.25948548 -0.08517102 0.14609236
-0.037075743 0.31440228 -0.45380846 -0.37715885 -0.03347336 0.3703905 -0.4087314 -0.3755514
-0.14760739 -0.08311861 0.05240577 -0.35327107 0.36193156 0.20640366 0.35217977 0.40332937
0.2566811 -0.050154604 -0.24460061 -0.12688233 -0.14643437 -0.26279673 -0.060913183 -0.32056838
-0.091081105 -0.15575396 -0.11293901 -0.42725217 -0.25197962 0.20085153 -0.017488785 -0.40481877
-0.3174002 -0.2855139 0.13149214 0.1447955 -0.38983434 0.42565218 0.027021447 0.01276595
-0.23670347 -0.31663102 0.25909647 0.25955763 0.766396 0.058294322 0.055111468 0.008870556
0.37817076 -0.1188809 -0.2652274 0.2934778 0.3064344 0.3360348 -0.32475856 -0.23987457
-0.05854063 -0.31421414 0.23850839 0.16547137 -0.079730734 -0.0023157378 -0.2413181 0.4216048
0.15797976 0.3445669 0.03076031 0.11114122 -0.015406707 0.39414296 -0.3131041 -0.3026057
0.10165391 0.2529401 -0.29298332 0.18537848 -0.102942154 -0.34945738 0.20894626 -0.44080928

fc.0.bias f4 [256]
00000000: e435 d3be 2ac0 83bd e7f7 c0be dccc 1f3e
00000010: 0450 86be 1f44 123e 27dc d33e 9d7c 113e
00000020: bcde 94be 85cd b73d 3174 403e c0f9 a63d
00000030: b038 e73e f3fd 82be c07d 433e 9def 223e
00000040: 1723 053e 244c 893d a1c9 83be 7895 a1be
00000050: 3004 a53e 6830 0dbf de05 4a3e 0fd9 2b3e
00000060: 2155 af3e f0a9 cb3e ffe7 e73d e8a5 0b3f
00000070: 4928 313e 0157 27bc 8013 9d3e 740c 49bd
00000080: fabc 94be 870e 0c3e ddd7 843e d0a3 d5be
00000090: 1941 87be 0be1 d9be e59a 14bb b1d3 44be
000000a0: 29cc ba3e 1a7a c3be 83c9 633e 3922 d43d
000000b0: c811 dbbd fcb8 9b3e 1460 6d3d 5b37 d1be
000000c0: 3571 85be 86b3 febd fb13 1d3f 05a6 88be
000000d0: 5884 3fbc dbdd 14bf d835 23bf f640 0f3e
000000e0: 3e8c a43e c208 d8be 82f6 c93e 3350 733e
000000f0: 261a 1db8 2d09 d53d f685 28be 530f 09be
00000100: 5ca5 af3e 9d3e 6c3e 142c ac3e 8cc4 213e
00000110: 157f 8cbe 986f 093e 04d7 58be 3952 a1be
00000120: 7698 a7bd 4c4e a3be 046f 5f3e a0a5 233d
00000130: b9d7 733e 033f 113f 26ea bcbe c307 183c
00000140: fbe7 17be 576c 81bd c553 673e a76b 01be
00000150: 43b3 8b3e 2523 bb3e 04f3 d53e 334d a3bd
00000160: 6ae6 54bd 600a efbd 424c a0be 257e eabe
00000170: 05c9 88be 08d3 f33e fd10 453e 39c0 cdbe
00000180: e4a1 b13c d97c df3e d0ab 32bc 1f09 62be
00000190: 1c59 5b3e fb73 19be 00cc 7b3e c8b1 8a3e
000001a0: 3eca a03d af1f 0e3e c70d b83e 8526 5a3f
000001b0: 38b1 533e eb5a 9e3d 74aa 9d3e 32f4 cabb
000001c0: b093 b9be 3c29 293e c270 44bd 6b66 a7ba
000001d0: 252f a4bd 8916 963e 15cd 5fbe 1ddd 7f3e
000001e0: caf7 32be 2574 423e 30df 7e3d c02a bf3e
000001f0: 9b9b 963e 9ee1 8abe 7dd9 53be 0072 27be
00000200: f903 24be f003 4f3e edae 37bf d41f 1fbe
00000210: 1f41 093d b62a 633e 9392 fc3d 25d4 b03e
00000220: 4bdc b7be 58e5 5abe b83e e33d 872b d23e
00000230: 4b9b 54be 23e9 28be e6af 9fbe ba42 a23e
00000240: 8ac2 4b3e a60a 413f 243b acbd 010f 7f3f
00000250: 1bcf 8c3c 87a7 bdbe 1fa6 20bf adc2 61be
00000260: d8fa e1bd 1727 4ebc 5bc3 673e 7a40 bbbd
00000270: ef5d 24be 829f 4e3c 8a46 c03e 221c 763e
00000280: b88d 983d 6023 8fbe 5bb5 c33e 4638 f13d
00000290: cb02 8b3d 783f babd 5938 96be 36d8 fb3d
000002a0: 019d 30be 6967 fd3e d2eb 0abe f0e3 e63e
000002b0: b493 023d 51fd 8cbe bc94 48bf 0483 503d
000002c0: 8146 a7be 69ad 6c3e 9e5e be3d 0d83 523f
000002d0: ca71 b93d 7295 a53d 1f2e 423e ba2e 81be
000002e0: 3f5f 3f3f 83b1 8f3e 44c9 d8bd a48b 92be
000002f0: 950d 6d3e 078d 1fbe eee8 ddbd f67c febe
00000300: 7e00 5bbe 6f32 a3be df1f c03e 4ac6 683d
00000310: 53b0 813e 33bc 66be 36f7 59be 214f 113d
00000320: 3d55 91be f1d7 1cbe e66b 13bf b3f9 b83e
00000330: 39a2 4cbe 8724 013d 07b4 c1bd f258 9dbe
00000340: 0287 b83e 2eaf cd3e 8fa4 8a3c b2dd b73d
00000350: b58f 243e a500 553e 25cf a93d 8c8b d43e
00000360: c045 5c3e 097c 393e e0bf a2be 34eb 8cbe
00000370: b01e f73e 06a7 f1bd 638c 55be c4f5 d3bd
00000380: 58a0 d73e bd4f 433e eb2d b13e fe3c 683f
00000390: 2758 313e 3c1d 9cbe 7fdb 3abe b0c2 053d
000003a0: b60a 7bbe 930c 01bf 2534 16be aa2e ad3c
000003b0: 2bf9 a3be d937 d0bd 6919 753e dfdb 7cbe
000003c0: c99d 4cbd 0ad9 723e 51cc be3d a9f4 dcbe
000003d0: 6f64 673e 4f84 85be 52f7 ae3e e553 e0be
000003e0: 77ae 313e c0f0 7abe 5054 d3be dada dabc
000003f0: 04a7 ee3d 0058 263f 20af b4be d4f2 cbbe
-0.41252053 -0.06433137 -0.37689134 0.15605491 -0.26232922 0.14283799 0.413789 0.14207692
-0.29076183 0.089747466 0.18794324 0.08153105 0.45160437 -0.25584373 0.19090939 0.15911718
0.13001667 0.06703976 -0.25739768 -0.31559348 0.32229757 -0.5515199 0.197288 0.1678202
0.34244636 0.3977809 0.113235466 0.5455003 0.17300524 -0.010213614 0.3067894 -0.04908414
-0.29050428 0.13677417 0.2594594 -0.41726542 -0.26416853 -0.42554507 -0.0022675332 -0.19221379
0.36483887 -0.38179094 0.2224484 0.1035809 -0.10696751 0.3041457 0.057952955 -0.40862545
-0.26062933 -0.12436585 0.6135861 -0.26689163 -0.011689268 -0.58151025 -0.63754034 0.13989624
0.32138246 -0.42194182 0.39445883 0.23761062 -3.745607e-05 0.10402141 -0.16457352 -0.13384752
0.34305847 0.2307076 0.3362738 0.15797633 -0.27440706 0.13421476 -0.21175772 -0.31508043
-0.081833765 -0.31895673 0.21819693 0.039952874 0.2381276 0.56736773 -0.3689739 0.009279194
-0.14834587 -0.06319492 0.2259055 -0.12638722 0.27285203 0.3655025 0.4178697 -0.07973709
-0.051977552 -0.11671901 -0.3130818 -0.45799366 -0.26715866 0.47621942 0.19244762 -0.40185717
0.02168364 0.4364994 -0.010905221 -0.22073792 0.21420711 -0.1498565 0.24589539 0.2708876
0.07851075 0.13879274 0.3594801 0.85215026 0.20673072 0.07732185 0.30794108 -0.006193661
-0.3624549 0.16519636 -0.047959097 -0.0012771612 -0.080168046 0.29314068 -0.21855576 0.24986692
-0.17477337 0.18989618 0.062224567 0.37337303 0.29415593 -0.27125257 -0.20688434 -0.16352081
-0.1601714 0.20216346 -0.7175129 -0.15539485 0.03350937 0.22184262 0.12332644 0.34536853
-0.35910258 -0.2137655 0.11095947 0.41048834 -0.20762365 -0.16495185 -0.31188887 0.31691533
0.1989843 0.75406873 -0.08409718 0.9963227 0.0171886 -0.37041876 -0.6275348 -0.22046919
-0.11034173 -0.012582562 0.22633116 -0.09143157 -0.16051458 0.012611272 0.37553817 0.2403417
0.07448906 -0.27956676 0.382243 0.117783114 0.06787642 -0.09094137 -0.29339865 0.12297098
-0.17247392 0.49492958 -0.13566521 0.45095778 0.031879142 -0.27537015 -0.7835195 0.050906196
-0.32670978 0.23113026 0.092953905 0.8223122 0.09054907 0.08085145 0.18962906 -0.25230962
0.7475471 0.28065118 -0.10585263 -0.28622162 0.23149712 -0.15581141 -0.108354434 -0.49704713
-0.21386907 -0.31874415 0.37524316 0.05682973 0.25329837 -0.2253273 -0.2128571 0.035475854
-0.28385344 -0.1531675 -0.57586515 0.36128005 -0.19983758 0.031528976 -0.094581656 -0.30731922
0.36040503 0.40172714 0.01692417 0.08977832 0.16070445 0.20801027 0.08291463 0.41512716
0.21510983 0.18113722 -0.31787014 -0.27523196 0.482656 -0.11799435 -0.20854335 -0.103496104
0.4211452 0.19073386 0.34605345 0.90718067 0.17318784 -0.30491054 -0.18247794 0.03265637
-0.24515805 -0.5040981 -0.14668329 0.021140415 -0.32026038 -0.10166902 0.23935474 -0.24693249
-0.049955163 0.23715606 0.09316314 -0.4315541 0.22596906 -0.26077506 0.34173065 -0.43814006
0.1735171 -0.24505901 -0.41275263 -0.026715685 0.116529495 0.6497803 -0.3528986 -0.398337

fc.2.weight f4 [256, 256]
00000000: fef2 71bb 08da 4fbd 65e0 25bd 13e2 673d
00000010: 41be cbbc 657d 65bb 83cb 11bc b65b d33c
00000020: ec62 70bc b816 343d afd4 80bd 84f1 853d
00000030: 0409 f0bb 4d10 923c 04a1 f93c dfac 4abc
00000040: f7b4 723d c6fb aebc b6f2 1d3d d84d 033c
00000050: 71d5 263b 768a 563d c73d ae3b 9e01 7dbd
00000060: 774f 98ba 575d b53c b418 b5bc 71d1 113d
00000070: e6cd 44bd 10a8 223c 3567 c3bb eee3 233d
00000080: a611 49bd 82df 263b 7d04 19ba 700e a5bc
00000090: 00b3 553d 3fc4 dabc 7d30 623d 00ff ddbb
000000a0: 8f3c ce3c b680 1cbd 17dc 13bc ca94 ee3b
000000b0: a134 ef3c 4391 933a faa5 593d 41bf f7bc
000000c0: 3e31 83bc 7de0 26bb d951 a13b e957 583a
000000d0: a24f ed3c 9021 633c c04d 64bd 2a2c 08bd
000000e0: 9b23 853d 754d bf3c 7b52 693c 73b0 33bd
000000f0: ec72 15bd f0c6 7e3b 9a27 273d 289b ccbb
00000100: 7464 0cbd bbeb cbbc f05f 4d3d 3662 58bc
00000110: 7580 e03c 887f 93bc 9f7e e8bb 6dac 303d
00000120: 6815 3f3d 8e09 423d 9503 053d 33a2 da3b
00000130: 91d7 72bd 2473 043c b5ab 68bd 6fc5 e8bc
00000140: 2db7 afbc 1ad6 3abd 6dc7 a83c a3b0 cebc
00000150: 5200 5cbd 3d08 003c dd81 2ebd f122 c4bc
00000160: f417 36bd 234d 243c dff8 353d 237a 13bc
00000170: a0e4 31bc bb12 bdbc 2090 aabc 1a3d 183d
00000180: c48e 35bd f6ec 83bc f45a 6cbd 9bfa 523d
00000190: 16f7 babc 8707 78bc c07d 94bc e0ec 473d
000001a0: 1a2f 55bd 13d6 793d 3a0b 91bc 7dad 153d
000001b0: 2b8e 97bb a9de 4d3d 147b b23c af9c 22bc
000001c0: 2cfb af3c 33a2 4a3d 91fa 3b3d e620 83bd
000001d0: 90d1 333c ee89 b13b 8654 9d3c c446 86bd
000001e0: b59b 303d ecc4 cbbc 86ff c63c c878 6dbd
000001f0: d023 303c b564 25bb 2dfc 3cbd 7320 5abc
00000200: f2d2 23bd 1ca6 c5bc 8bd0 1cbc 7e20 d4bc
00000210: 0843 803c 06c6 3f3d 7e8a 30bc ba10 23bd
00000220: 0bfe e1bc 6695 9bbc a5f6 81bd b7c4 573d
00000230: 1265 533d 277c fb3c a02f 32bd 6e91 01bb
00000240: 0b7b 3e3c 9b5b e5bc ee0c a6bc bae2 18bd
00000250: 5695 15bb 98e8 d03c 891f b5bc eb1a e1bc
00000260: 927e 1b3d 6323 a4bc 9816 14bd 4f8a 12bd
00000270: ad58 bfbc e816 613d c951 4a3d d078 123c
00000280: 8d91 dfbc 4dc5 3a3d 39a1 1c3d 96f4 4f3c
00000290: 9c12 fbbc c731 953c cdc1 10bd 998d 333d
000002a0: 4e3b c03b 15eb 18bd 68d5 9d3c 362c 003d
000002b0: beb8 f2bb 24f1 5c3d a56c 9bbc aef4 253c
000002c0: 713f 23bd e8c9 b4bb 17ab 493d 34eb 65bd
000002d0: 8188 3abd 3182 313d 2400 803d dc5f 253d
000002e0: 9e7f b43c 925e 513d ad1b 863c 7979 b6bc
000002f0: d236 443d 6734 aeb8 0f13 0cbd 0c8a 1dbd
00000300: da54 24bd 5f45 623d e542 25bd aed5 7ebd
00000310: f6e3 45bb 8db1 743d 1fac 3d3d c786 19bc
00000320: c3db 3dbd fd48 2fbd 0a10 e03c 9695 443d
00000330: 4548 04bd 0191 34bc bd0c 5c3d 4f02 513b
00000340: 4554 0a3c fd6e 833b 2479 7bbd 5a21 e6bc
00000350: 2b2d df3c b36d 67bb 2320 5fbd 393e 84bc
00000360: 934a 213d f425 54bd 0da0 4ebd 8e6c 403d
00000370: abee 67bd ccdc 49bd c2a2 8bbc 0ba6 e63c
00000380: c467 cdbc e486 db3b 4a70 543d aa4c 3ebd
00000390: f851 973c 7bf4 653d 564e 29bd 979a ecbc
000003a0: 6109 b43c 8647 64bd 1209 5b3c 6064 aabc
000003b0: 7454 66bd 06a1 e73a cebd 203d b738 19bd
000003c0: f57b 3ebb 2e4a 22bd 32da d33c 3aab bebc
000003d0: 7690 b6bc 041d 5d3d 52ef 9dbc 9b8d 40bd
000003e0: 742f 45bc cfe3 3b3d fc31 fc3a 9581 d83b
000003f0: f511 59bd 73b0 80bd 1a50 33bb 34f1 613d
-0.0036918516 -0.05074504 -0.040497202 0.056612086 -0.024870994 -0.0035017368 -0.008898619 0.025800567
-0.014672022 0.04396698 -0.06290566 0.06540206 -0.0073252935 0.017830038 0.030472286 -0.012370317
0.059254613 -0.02136029 0.038561545 0.008014165 0.002545681 0.05237814 0.005317423 -0.06176912
-0.0011620362 0.022139234 -0.022106506 0.03560013 -0.048047923 0.009927765 -0.005963231 0.040012293
-0.049089096 0.002546281 -0.00058371556 -0.020148486 0.05217266 -0.026704906 0.055222023 -0.006774783
0.025175361 -0.038208686 -0.0090246415 0.0072809206 0.0291999 0.0011258501 0.053136803 -0.030242564
-0.016014691 -0.0025463395 0.004923087 0.0008252846 0.028968636 0.013862982 -0.05573821 -0.033245243
0.06500932 0.023352364 0.014240856 -0.043869447 -0.03648655 0.00388759 0.04080925 -0.006244082
-0.034275487 -0.024892678 0.05014032 -0.013207009 0.027405003 -0.018005148 -0.0070951725 0.043133188
0.046651274 0.047372393 0.03247412 0.0066721677 -0.05928761 0.008084092 -0.056804378 -0.028414456
-0.02144965 -0.04561434 0.020602906 -0.025230711 -0.053711243 0.007814464 -0.042604316 -0.023942443
-0.044456437 0.010028156 0.044426795 -0.009001288 -0.010857731 -0.02308022 -0.020820677 0.037167646
-0.044325605 -0.016104203 -0.057703927 0.051508527 -0.022822898 -0.015138513 -0.018126369 0.048809886
-0.052046873 0.060995173 -0.017705549 0.036542404 -0.004625102 0.050261173 0.021787204 -0.009925052
0.021482073 0.04947109 0.045893256 -0.06402759 0.010975257 0.005418054 0.019205343 -0.06556466
0.043117244 -0.024874173 0.024291765 -0.057976514 0.010750726 -0.0025237028 -0.04613893 -0.013313401
-0.039996095 -0.024127059 -0.009571205 -0.0258944 0.015656963 0.04681971 -0.010775207 -0.039810874
-0.027586957 -0.018992137 -0.06345872 0.052677836 0.05161006 0.030698849 -0.04350245 -0.001977052
0.011626015 -0.027997782 -0.020269837 -0.0373256 -0.0022824607 0.025501534 -0.022109764 -0.027478656
0.037962504 -0.020036405 -0.03615436 -0.035776433 -0.023357714 0.054953486 0.049394403 0.008939937
-0.027291084 0.045598317 0.03823969 0.012692591 -0.030648522 0.018212212 -0.035341073 0.04383621
0.0058664447 -0.037333567 0.0192668 0.031292163 -0.007407277 0.053940907 -0.018972704 0.010129137
-0.039855424 -0.005517233 0.04923543 -0.05613251 -0.045540337 0.04333705 0.06250027 0.04037462
0.022033509 0.05111558 0.016370619 -0.02227472 0.047903843 -8.306727e-05 -0.034197863 -0.03846173
-0.040119983 0.05524194 -0.040347 -0.0622155 -0.003019569 0.059739638 0.046306726 -0.009370512
-0.04635216 -0.042794216 0.027351398 0.04799422 -0.032295484 -0.0110209 0.053723086 0.0031892245
0.008442943 0.0040110336 -0.061394826 -0.028092075 0.027243217 -0.0035313189 -0.054474007 -0.016142951
0.03937776 -0.051794007 -0.050445605 0.046978526 -0.056624096 -0.049282834 -0.017045382 0.028155347
-0.025073893 0.00669943 0.0518649 -0.04645983 0.018471703 0.056141358 -0.041334473 -0.028882308
0.021977128 -0.055732273 0.013368862 -0.020799816 -0.056232885 0.001767189 0.03924351 -0.037407603
-0.0029065583 -0.039621525 0.02586088 -0.023275007 -0.022285681 0.05398275 -0.019279156 -0.047010045
-0.0120352395 0.045871552 0.0019240971 0.0066072443 -0.05299564 -0.06283655 -0.0027360977 0.05516167

fc.2.bias f4 [256]
00000000: f823 213b 0724 60bc eb66 6b3c 6b76 36bd
00000010: f252 353d 2b9c 4abd f861 4dbd 2d6c f6bc
00000020: a082 113d aeb7 0cbd d4cd eb3c 1e72 003d
00000030: d3c1 3fbd 4a67 80bd 6504 323b a958 a2bc
00000040: ce93 89bd 2758 33bd 2cfe b7bc 8e37 7ebc
00000050: aa83 e63c 193d 8c3c 13fa deb9 7bfa 37bd
00000060: 88a3 263d 5a46 183d 74f5 46bd b1e5 313c
00000070: 0861 223d 98a3 77bd 6110 28bd 48be 933b
00000080: a0be 8ebc 3124 f5bc 8bce dfbc a020 5e3b
00000090: fc07 713d 9383 b53c 2428 7c3d 46b5 063e
000000a0: a14c 373d c6dc a43c 5441 0abd 1b59 163d
000000b0: 8af4 db3b ac64 88bd 0c85 193d a111 273d
000000c0: 5ed7 2c3b 69c1 33bc 641a 6dbd 086a 3a3d
000000d0: c526 1dbd 2b2b f63c 8843 8fbc 58b9 17bd
000000e0: 787c 563c bcc7 313e 5297 c9bc cecd 37bc
000000f0: aaa6 7b3c 51e1 b23c 8a7c 983c 1449 34bc
00000100: 6689 f03d 23f7 1b3e 92c9 dd3d 9232 15bd
00000110: bd9e 813c b0c2 0f3c 1c22 253d 5974 91bd
00000120: e56f 46bc 66e2 8b3d a323 173d e293 18bd
00000130: 13e7 1abd b756 323d ad0c 013e 0f53 9cbb
00000140: fa8c e43c 1f20 67bd 9c36 5ebd 146f 6abd
00000150: 5ce6 54bc 0213 8fbc 1a1a 91bc 1bbc 3b3d
00000160: a195 2d3a b04f 1b3d a4eb 1bbd c9a5 c53c
00000170: 5da0 a53d b036 353c db0e 043e a0f7 4dbd
00000180: 7b03 b03c 2a77 343d cc7f 753d 634e b73c
00000190: 8618 053c f90b bd3c f532 10bd 9e74 30bd
000001a0: 44b7 75bd e851 09bd f15c 1fbd 27dd 013e
000001b0: 2239 213d 1d51 92bc a1bc 593d 9200 0dbd
000001c0: 498f d83c c4e1 c93b 6a10 27bb 6801 42b9
000001d0: d867 473c bb8a 3cbc 46a0 073b 3635 0e3d
000001e0: afd6 203b 97fc 24bd f24f 1c3d 50ec 8dbc
000001f0: fd31 4bbc eb13 46bd ef79 abbc a2c4 413c
00000200: 36bc b3bc fc34 69bd 0c00 82bc 6e03 5b3c
00000210: 299c bf3b 2324 d63c 0b16 d43d 76b3 20bd
00000220: 6e1b 213d 2006 833e 694b 923d 6a26 baba
00000230: db36 91bd ebf9 babb 7d66 1c3d 8bdc 3cbd
00000240: 1309 70bc ba03 1fbd 4e75 1f3d 9c00 e2bb
00000250: 721c 633c 9368 033d f80e 58bd b451 9dbc
00000260: 828a c2bc ddb7 013c 2251 b53c 1061 553d
00000270: 2a9e e4bc b517 39bd 1ae7 62bd 4bbe 223d
00000280: 82d9 243e 7c3c 11bd 43a2 8c3c 2c2f 713d
00000290: 00e6 5ebd 527d 603d 248d aabb 0e5b 4c3d
000002a0: ba2c c0bc fa74 673d 5bd5 51bd 5db6 6d3d
000002b0: 8a88 02bd 462c 223d fa90 983c dd2e 1e3d
000002c0: 2826 e43c eda3 e5bc e29f d7bc 6714 8c3e
000002d0: 3299 2cbd 96dc b03d 17b2 2f3d 13de 91bd
000002e0: b103 8f3b 2f44 0abd 86b9 12b9 35ad 41bd
000002f0: 2ebb 17bd 1831 64bd 1c1b 193c b7c9 53bc
00000300: 9161 81bd ea55 7d3d 7400 f8bc 7687 9a3c
00000310: 2c67 ecbc 510d b93d bc5c 7fba 65ad 183c
00000320: a7cb f13c 91a5 533d 76d8 25bc cc81 43bd
00000330: 2180 ef3c 054d d5bc aee0 8b3c 53b7 65bd
00000340: 4cd7 c3bb 7bea ccbc 78ef 1cbd 4b76 93bc
00000350: 6b0d 693e b6f3 deb9 6da1 8d3c 87c7 15bd
00000360: c124 86bc bbdf 91bd 2828 2d3c ea22 48bd
00000370: c919 bdbc f7c1 d73d e564 cd3c aed5 0d3d
00000380: 5b9c 253d 5502 07bb 6c0e 5fbd e58a 693e
00000390: 790d 3abd f67c 85bd d642 9c3c 3a26 f63c
000003a0: f45c d23b 7319 d5bc 9255 7c3d 68d8 f83c
000003b0: 6746 0cbd 23cb 82bd 4367 9cbc 1acc e73d
000003c0: 9269 303d e380 513d fe0f 693e 64b7 6bbd
000003d0: 818f 7dbc 12bb 383a f732 83bc 1393 fcbc
000003e0: 81a9 8cba 3fc2 5e3c 56f2 193d 260a 2e3c
000003f0: 12b4 243d cc34 723c 6e29 79bd d56f 85bc
0.002458809 -0.013680465 0.014367799 -0.044546526 0.044268556 -0.04946534 -0.05014226 -0.03008088
0.035524964 -0.034354858 0.02878467 0.03135883 -0.046815705 -0.06269701 0.0027163264 -0.019817667
-0.06717645 -0.04378524 -0.022460066 -0.015516175 0.028138954 0.017118977 -0.0004252946 -0.04491661
0.0406833 0.037176467 -0.048573926 0.010857985 0.039643317 -0.06045875 -0.041031245 0.0045087673
-0.017424881 -0.029924484 -0.027320167 0.0033893958 0.058845505 0.022157466 0.06156172 0.13155088
0.044750813 0.020124804 -0.033753708 0.03670607 0.006712501 -0.06659827 0.0374804 0.040788297
0.0026373486 -0.010971406 -0.057886496 0.045511276 -0.03836705 0.030049881 -0.017488256 -0.037041992
0.013091199 0.17361349 -0.024608288 -0.011218501 0.01535956 0.021835955 0.018614072 -0.011003751
0.11744957 0.15230994 0.10829462 -0.03642518 0.015822763 0.008774444 0.040315732 -0.0710227
-0.012111639 0.068302915 0.03689922 -0.037250407 -0.037818026 0.04353973 0.12602492 -0.0047706435
0.027899254 -0.056427117 -0.0542513 -0.05723484 -0.012994375 -0.017465118 -0.017712642 0.04583369
0.0006621723 0.037917793 -0.03806652 0.024126904 0.080872275 0.011060402 0.12896292 -0.05028498
0.021486035 0.044058956 0.05993633 0.022376245 0.008123523 0.023076998 -0.035204846 -0.043079965
-0.05998923 -0.033525378 -0.038906995 0.12682019 0.039361127 -0.017860943 0.053158406 -0.034424372
0.026435511 0.0061609466 -0.0025491961 -0.00018501806 0.012170754 -0.011507685 0.0020694896 0.034718715
0.0024542024 -0.04027995 0.03816218 -0.017324597 -0.012402055 -0.04835884 -0.020932166 0.011826666
-0.021940332 -0.056935295 -0.015869163 0.013367517 0.005847473 0.026140278 0.10355767 -0.039233647
0.0393328 0.2559061 0.071432896 -0.0014202122 -0.07090541 -0.005706062 0.038183678 -0.046108764
-0.014650601 -0.038821913 0.03893023 -0.0068970453 0.013861762 0.03208215 -0.05274865 -0.019203998
-0.023747686 0.007917372 0.022133414 0.05209452 -0.02790745 -0.045188624 -0.055396177 0.03973226
0.16098598 -0.035458073 0.017167216 0.058882877 -0.054418564 0.054807015 -0.0052048136 0.049891524
-0.023458827 0.056508042 -0.051228862 0.058035243 -0.031868495 0.039593004 0.018623818 0.03861891
0.027850226 -0.028032267 -0.026321355 0.27359316 -0.042138286 0.086358234 0.04289445 -0.071224354
0.0043644537 -0.03375643 -0.00013992758 -0.047284324 -0.037043743 -0.055710882 0.009344842 -0.012926511
-0.063174374 0.061849512 -0.030273654 0.018863421 -0.02885779 0.09035743 -0.00097412965 0.009318684
0.029516054 0.05167157 -0.010122409 -0.047731206 0.029235901 -0.026037702 0.017074909 -0.056083035
-0.005976593 -0.025014153 -0.038314313 -0.018000742 0.22759025 -0.00042524718 0.017288888 -0.036567237
-0.016374948 -0.07122751 0.010568656 -0.04886142 -0.023083584 0.10535043 0.025072524 0.03462761
0.040432315 -0.0020600755 -0.054457113 0.2280689 -0.045423005 -0.06517975 0.019074839 0.030047525
0.0064197723 -0.026013112 0.061605044 0.030376628 -0.03424683 -0.063864015 -0.019092208 0.11318226
0.04306943 0.051148307 0.22760007 -0.05754794 -0.0154761085 0.00070469186 -0.016015513 -0.03083185
-0.0010731668 0.013596117 0.037584625 0.010622537 0.04021079 0.014783096 -0.060830526 -0.016288677

fc.4.weight f4 [1, 256]
00000000: 328c aa3b 018d ae3c 55ab c93c ce3c a5bb
00000010: 5b93 ca3b 2271 d4bc 3395 9439 63d6 a8bc
00000020: 7802 eb3b 8d0f c43c 2280 53bc 5b81 09bd
00000030: 70cf 6e3d dc60 0bbd 0070 07bc 800e 143d
00000040: a33b 87bc 9769 b73a a546 02bd 6057 2abd
00000050: dc8d 703c 4dc4 38bd 7c79 3a3a 010a 01bd
00000060: af19 a13c 1288 a83c 2f59 52bd a7b4 05bc
00000070: 219a 693d 2346 b2bc e7ff 0c3d 3503 0fbd
00000080: fefb 013d ffdc 0439 0894 5f3d c1e0 f63b
00000090: 7ffb 40bc 8ecf ebbc dc6c 77bc 0433 303c
000000a0: 7e33 093d 65b1 113d 0c6a 62bc b4d2 073d
000000b0: de7d 82bb f6bc 35bc 0a4f 133d 6668 25bb
000000c0: 4574 aabc dca3 2abd 085d 993c ad42 08bc
000000d0: 0b47 ea3c 5430 21bc 9f2c 573b a2e1 2e3d
000000e0: b55a f4bb 38bd 8b3d 8de7 ad3c cda1 d6bc
000000f0: c8b8 5e3c ea97 7cbd 7cdf 8a3c 6899 c33b
00000100: fc36 e9bb 390f 583b 7182 0d3d fc5e 1e3c
00000110: f793 2b3d 6809 31bc 9709 49bb 2664 993d
00000120: 8ea7 b1ba 4d9a 433c 9497 e1bc 93fc 89bc
00000130: 8679 e8bc dbb5 1dbd 0cc1 323d 690c 8d3c
00000140: 8149 8abb 0a45 ff3c a388 2bbd f248 b93c
00000150: 582d 0f3c 3e39 983c 6635 4b3d 96d0 bebc
00000160: ef3d 2dbb ceef 5e3d aae3 993c 72df 193d
00000170: b213 463d dba9 81bc 965e cd3c a839 34bb
00000180: e5c8 993b 0ccd e13b ba67 3bbd bfb4 ee3c
00000190: ec24 1ebd 5ec6 5d3b a6b3 f6ba e7af c23c
000001a0: a0fb b43c 8b77 eebb 2fca 2cbd 8a48 a03c
000001b0: 763b 25bd debf 183d ff64 08bd ed1a dbbb
000001c0: 1e23 053c 9177 d13b 2aeb f13b c9b2 26bc
000001d0: f597 f43b a129 fb3a fcf2 adbc 8f27 99bb
000001e0: 6fec 30bc 4b55 293c f1b6 2cbd 24d3 10bd
000001f0: 3757 2c3a c018 4abd 9685 5dbc 4cc5 1dbb
00000200: fd38 9bba c754 69bd a9e7 a43c d138 8f3c
00000210: 434e 453d 987e 8dbc 98a4 1b3d ab3e 89b9
00000220: 530a 1d3d b584 d13c e70e 913d 1b6f 143d
00000230: 2366 92bd 9264 103d b961 2cbc 8d86 423b
00000240: 584f 47bd 8fb0 333d a6cf 0aba f2ae 10ba
00000250: df0d f4bb 9666 0fbd 651a 39b9 e3a7 1fbb
00000260: 58f2 2fbd f8f7 943c 4e7a 493c 81ac 04bd
00000270: 1f1a 2e3d df1f e7bc 9817 09bd c0a8 793c
00000280: 07fa ca3c 2280 a6bc 1987 6fb9 fc86 a63c
00000290: 54bc 2e3c d59b fe3c 5dae 74bd 874e e3b8
000002a0: 5b1f c1ba d688 0f39 97b3 54bd 878f c8bc
000002b0: e38a cb3b 1c28 76bc ad75 c9bc e920 84bc
000002c0: 6784 a5bc f578 2e3d 98af 39bc 0496 0d3d
000002d0: 9598 3eba 193e 00bc a16d 94bd b325 a23a
000002e0: 1d6c 2dbd 89db 36bd 1129 4f3c 5cb5 c0bc
000002f0: e92c 87bb 7a34 8abc 940d 54bb b901 063d
00000300: b1c5 293d 384b cb3c 990c 4dbb 6e58 27bd
00000310: 43bf 95bb 747a c33b 70ad 503d 4441 19bd
00000320: 94da a83c a4b0 55bd 351b 41bd e515 cc3b
00000330: 6008 6e3b f5d9 34bd 745a e53c 293c 8bbc
00000340: 9de2 203c dd3f abbc 8424 233d fdaa e13a
00000350: c9ad 053c 12fb 05bc 132c 6c3b 6eb4 f23c
00000360: 1dd8 1c3d dc04 cfbc 41ba 97bc f1cb 853b
00000370: 5216 f2b8 372c e83c 8df6 72bc af52 0dbc
00000380: 60c0 abba 6ebe 4039 41b7 5e3d 43d1 443d
00000390: 33e9 ed3c bf2c da3c 7a9a 863c e506 3abd
000003a0: cd80 1c3d 9208 dc3c f2d8 8dbc 7ee9 bfbb
000003b0: 728e 59bd 16d7 c539 5006 433b 2adb 1a3d
000003c0: 4d78 883c 46d3 57bd e257 3c3d bfc9 8fbc
000003d0: 12af fd3c 9fdb 323d b0ae 343d e7ff 083d
000003e0: ab7d 1b3d 3fab 3c3c 27c9 57bc 3b92 51bd
000003f0: ed44 cc3c fbad 0f3d 8d35 81bc 3ec5 443c
0.005204701 0.02130747 0.02461783 -0.005042649 0.006182117 -0.025932852 0.00028339922 -0.02061004
0.007171925 0.023933196 -0.012908967 -0.03357063 0.058303297 -0.03402792 -0.008266449 0.03614664
-0.01650793 0.001399326 -0.031805653 -0.041587234 0.014682259 -0.045109082 0.00071134395 -0.03150368
0.019665567 0.020572696 -0.051354583 -0.008160747 0.057031754 -0.02176196 0.034423735 -0.034915168
0.03173446 0.00012670828 0.054584533 0.007534117 -0.011778711 -0.028785493 -0.015101638 0.010754351
0.033496372 0.035569567 -0.013819229 0.033159927 -0.0039822897 -0.011092415 0.03596405 -0.0025239228
-0.020807395 -0.041660175 0.018721119 -0.008316678 0.028598329 -0.0098381825 0.0032832993 0.04269565
-0.007457102 0.068232 0.021228576 -0.0262002 0.01359386 -0.061668314 0.016952269 0.005969215
-0.0071171504 0.0032968058 0.034548227 0.009666201 0.041889157 -0.010805465 -0.0030675882 0.07489805
-0.0013553964 0.011938644 -0.027538098 -0.01684407 -0.02837826 -0.03850351 0.043641135 0.017217832
-0.004220188 0.03116085 -0.041878354 0.02261779 0.008738838 0.018581983 0.04961147 -0.02329282
-0.002643462 0.054427914 0.018785316 0.03756661 0.048358627 -0.015828064 0.025069516 -0.0027500186
0.004693138 0.0068908986 -0.04575322 0.02913892 -0.03860943 0.003384016 -0.001882185 0.023765517
0.02209264 -0.007277434 -0.042185005 0.01956584 -0.04033991 0.037292354 -0.033299442 -0.0066865594
0.008126048 0.0063924273 0.00738277 -0.010174462 0.0074644038 0.0019162187 -0.021234028 -0.004673905
-0.010798558 0.010335277 -0.042166654 -0.03535761 0.00065742753 -0.04934001 -0.013520619 -0.0024073897
-0.0011842545 -0.056965616 0.020129995 0.017483147 0.04817034 -0.017272279 0.037998766 -0.00026177368
0.038339924 0.025575975 0.070829205 0.03623877 -0.07148387 0.03525216 -0.010521346 0.002968225
-0.048659652 0.04386955 -0.0005295224 -0.0005519233 -0.0074479426 -0.035009943 -0.00017652808 -0.0024361543
-0.042955726 0.018184647 0.012297226 -0.032391075 0.04250538 -0.02821344 -0.033469766 0.015237987
0.024777425 -0.02032477 -0.00022843144 0.020328037 0.010665018 0.031080166 -0.0597366 -0.0001083883
-0.0014734076 0.00013688518 -0.051929083 -0.024482502 0.006211625 -0.015024211 -0.024592245 -0.016128974
-0.020204736 0.042595822 -0.011333369 0.034566894 -0.00072706613 -0.007827305 -0.072474726 0.0012370854
-0.042339433 -0.04464296 0.012644068 -0.023523979 -0.0041252268 -0.016870726 -0.0032356726 0.032716487
0.0414483 0.02481614 -0.0031288026 -0.040855817 -0.0045699193 0.0059655253 0.050946653 -0.037415758
0.020612039 -0.05217041 -0.047145087 0.006228196 0.003632091 -0.044153173 0.027997233 -0.01699646
0.009819654 -0.020904476 0.039829746 0.0017217096 0.008159109 -0.008177536 0.0036037012 0.029627051
0.03829204 -0.025270872 -0.01852143 0.0040831496 -0.00011543617 0.028341396 -0.01482929 -0.00862567
-0.0013103597 0.00018381487 0.054373983 0.04805113 0.029041862 0.026632665 0.016431082 -0.04541673
0.03820877 0.026859555 -0.017315362 -0.005856692 -0.053114362 0.0003773502 0.0029758401 0.037806667
0.016658926 -0.05269172 0.04598225 -0.017552255 0.03096727 0.04366648 0.044111907 0.033447172
0.037961643 0.011515438 -0.013170517 -0.051164847 0.02493521 0.03507803 -0.015772605 0.012009917
