models/model_test2.pt (torch, 273072 bytes, 5 tensors)

fc.0.weight f4 [256, 5]
00000000: 650f d13e c676 41bd d764 c8be a1d8 90be
00000010: 3f10 743e 2175 bbbe cfca 6e3d a391 fbbd
00000020: b171 5abe 2778 bebd ecd9 dabd eb54 90bd
00000030: 86c1 dcbe 2358 9cbe a957 2b3b 5166 13bf
00000040: 1eee a2be 8989 cc3b 2427 693e 4909 2f3b
00000050: 850f 663d 0fb2 56be 03f6 c2be 6d71 62bd
00000060: 03c0 17be 48af cfbb d7a6 a6be a849 b33e
00000070: ceaa b63e 8abc 19be 8896 983c b38e d9be
00000080: b6a7 533e 30ee 84be cce0 a03d 106f dabe
00000090: f9fe 953e 0e56 a7bd 4307 933e c41d d0be
000000a0: d982 1f3d 4ce9 0abe ef68 623e 5bd5 c83e
000000b0: e305 54bc 0360 5f3e 2513 d0be 5098 c1be
000000c0: 33ee 403e e735 563e 2f2a a93d ff09 af3e
000000d0: 4274 0d3e 2563 303d b195 953e fae6 b0bc
000000e0: a3a8 59bd 40ce c9bd b4ef 2fbd ffd1 c6be
000000f0: ba90 913e 78ab 333e e5e1 a43e 1558 85be
00000100: 6690 f23d 1159 253e 3347 733e fbd9 a03e
00000110: 49b3 0fbc c774 cbbd a313 613e 6516 19be
00000120: 55a2 cdbe bedf 553d 7b70 ce3c 7f8b 8d3d
00000130: 5739 9ebe 5d58 0cbe d283 953d d5de e8bc
00000140: 78fc 3b3e f049 e0bd 2426 50be a810 db3e
00000150: 5432 183e 51a5 bbbb 4017 27be 0306 87be
00000160: c79a 9a3e 29ce 863e b622 ce3e 6018 38be
00000170: 64fa 3ebd fb25 b6bd f338 943d fd47 243d
00000180: 411c 70bd 2a18 83be ddff b8be 69a2 3f3e
00000190: c451 193f 22ac 683e 8590 b23e be8e 99be
000001a0: 7edd a53e 3110 92be cb49 6fbd 7c5f d23d
000001b0: 591b a7be 208f e63d 5075 333f 2f0a a5bd
000001c0: 7715 5f3e b0fc 213e 7e8c 43be aae2 3dbe
000001d0: 3fd6 8c3e d65c 573e 3666 123e 5f2a 8cbe
000001e0: 1447 a0be 1aa3 a7be d28a cfbd f9f3 bfbe
000001f0: b614 5ebe 367b 943d 2f5b f4bc 7dee ca3d
00000200: f01c 1e3d d968 863e 19e7 86be a4e2 a03e
00000210: 1f74 2dbc c95c a03c 3b45 aebe 7d5f c73e
00000220: 3d3e ac3e e81a 01bd 8134 bebd d525 59bd
00000230: 5051 0b3f f149 2e3e 5eff 2fbd d838 9c3e
00000240: e430 95be 2718 d9be ea58 6c3d b3b3 d7be
00000250: db90 9dbe ebd4 77be 64fa 1a3f 2d6f 67be
00000260: e0ca ce3e 8550 673e 093e 25be f064 113f
00000270: 09b8 563d 0c3c 7c3e 2388 b7bd 088b d43e
00000280: cb33 073f b52b cb3e 2b09 3b3e b889 29bc
00000290: 3fbf d6bc 858f 173f 61e0 64be d259 0a3e
000002a0: e90e adbe e77e 423e 5df6 d6bc c9f0 e3bc
000002b0: 6bd8 533e 012b 82be 3824 b0bd c792 1a3e
000002c0: 651f 15bd 7266 a13e e643 e6be 4162 c1be
000002d0: 4521 09bd 735d bd3e 029d d1be ce50 c0be
000002e0: 1dca 17be a341 aabd f3b0 563d d2e7 b4be
000002f0: 4c57 b93e ab64 533e 9367 b73e 993e cf3e
00000300: ecd4 843e 0086 42bd 50dd 79be 05f3 01be
00000310: 74f9 15be 3393 86be ee8a 79bd c228 a4be
00000320: ef90 babd db84 1fbe bd56 e7bd 50ca dabe
00000330: 0d09 81be e2b4 4d3e e04a 8fbc 984d cfbe
00000340: 7f89 a2be 1d35 92be 35bc 093e 4e5c 173e
00000350: ec18 c6be 99f8 d93e 20e9 f53c 7631 513c
00000360: e56c 72be ae24 a2be 33ae 843e a5ea 843e
00000370: 9f9c 433f 5636 6d3d 699c 5d3d 0229 7e3b
00000380: 2f13 c23e bf19 ebbd d73a 88be ab1e 953e
00000390: 3151 9a3e c2fe ab3e f94d a6be 82ac 75be
000003a0: cdd2 6fbd 91e7 a0be 0b46 743e 12d1 243e
000003b0: aca1 9fbd 28dc 713a 6367 74be 4656 d93e
000003c0: 7e9c 1f3e fbf1 af3e 7bf7 f03c 6868 d93d
000003d0: 081f 7abc f7d5 c93e 1256 a0be 06f6 9abe
000003e0: 1d39 d03d f186 813e 842f 96be 7bc2 3d3e
000003f0: bd0c d8bd 6060 acbe ccdd 523e 03e8 e2be
0.40832058 -0.04723241 -0.39139435 -0.28290275 0.23834322 -0.366128 0.058298882 -0.122836374
-0.21332432 -0.09300261 -0.106860965 -0.07047447 -0.43116397 -0.30535993 0.0026144779 -0.57578
-0.31822294 0.0062419814 0.22768837 0.0026708415 0.056167144 -0.20966361 -0.38078317 -0.055283953
-0.1481934 -0.006338034 -0.32549164 0.35017133 0.3567719 -0.15013328 0.018626466 -0.42491683
0.20669445 -0.25962973 0.078553766 -0.4266286 0.2929609 -0.081707105 0.28716478 -0.4064771
0.038943145 -0.13565558 0.22110341 0.39225277 -0.012940857 0.2181397 -0.40639606 -0.37811518
0.18840866 0.20919 0.08259999 0.34187314 0.1381388 0.0430633 0.29215768 -0.021594513
-0.05313934 -0.09853792 -0.042953208 -0.3883209 0.2843073 0.17545879 0.32203594 -0.26043764
0.11843948 0.16147257 0.23757629 0.31416306 -0.008770772 -0.09934383 0.21980147 -0.14949949
-0.40162912 0.05221533 0.02520012 0.069113724 -0.30903122 -0.13705583 0.07300533 -0.028426567
0.18358028 -0.109516025 -0.2032705 0.42786145 0.14862949 -0.0057264944 -0.16317463 -0.26371774
0.3019621 0.26329163 0.40260857 -0.17978048 -0.04662551 -0.08893963 0.07237425 0.040107716
-0.058620695 -0.25604373 -0.36132708 0.18714298 0.5989039 0.22721913 0.34875885 -0.29991716
0.32395548 -0.28527978 -0.058419984 0.102721184 -0.32638052 0.11257768 0.7010088 -0.08058583
0.21785532 0.15819049 -0.19096562 -0.18543497 0.27507207 0.21031508 0.14296803 -0.27376077
-0.31304228 -0.32741624 -0.101339 -0.37490824 -0.21687588 0.07250063 -0.029828636 0.09908769
0.038601816 0.26251867 -0.2634819 0.31422913 -0.010586767 0.019575493 -0.34037194 0.3894004
0.33641234 -0.0315198 -0.09287358 -0.053014595 0.5442095 0.17020394 -0.042968147 0.30512118
-0.29138863 -0.4240124 0.057701983 -0.42129287 -0.30774578 -0.24202316 0.60538316 -0.22601004
0.40389156 0.2258931 -0.16136946 0.56794643 0.052421603 0.24632281 -0.08961513 0.41512322
0.52813405 0.39681783 0.18265216 -0.010347776 -0.02621424 0.5920337 -0.22351219 0.13510826
-0.33800438 0.18993722 -0.026240522 -0.027824776 0.20688026 -0.25423434 -0.08600658 0.15095054
-0.036406893 0.31523472 -0.44973677 -0.37770274 -0.033478994 0.3698536 -0.409401 -0.3756165
-0.14823194 -0.083133005 0.052414846 -0.35333115 0.36199415 0.2064387 0.35821208 0.40477446
0.25943696 -0.047491074 -0.2440083 -0.12690361 -0.1464594 -0.2628418 -0.06092351 -0.32062346
-0.09109675 -0.15578024 -0.11295841 -0.42732477 -0.25202218 0.20088533 -0.017491758 -0.40488887
-0.31745526 -0.28556147 0.13450702 0.14781305 -0.3869089 0.42572477 0.03001839 0.01276814
-0.23674352 -0.3166861 0.25914153 0.2596027 0.7641086 0.057913147 0.054104242 0.0038781767
0.3790526 -0.1147952 -0.2660739 0.2912496 0.3014007 0.33592802 -0.32481363 -0.23991588
-0.058550645 -0.3142667 0.23854844 0.16095379 -0.07794508 0.0009226226 -0.23867564 0.42448634
0.15587041 0.34364304 0.029414883 0.10615617 -0.0152661875 0.39421055 -0.31315666 -0.30265826
0.101671435 0.25298265 -0.29333127 0.1853122 -0.10549305 -0.33667278 0.20592421 -0.44317636

fc.0.bias f4 [256]
00000000: 143f d3be dcc5 83bd 6f00 c1be 3cb7 203e
00000010: ec55 86be 3382 113e 38b9 d43e d791 0b3e
00000020: 9b78 95be 148b b53d f43c 3f3e 4bee b53d
00000030: d448 e83e 1139 83be 4ea5 493e 0a76 2a3e
00000040: a59c f83d 3615 923d 89cf 83be 5c9c a1be
00000050: 8bda a33e 4067 0dbf 1f95 483e c722 2f3e
00000060: a6b0 b23e d167 ca3e 8759 dd3d 1deb 0b3f
00000070: 2bef 293e 395e 27bc ef53 9c3e e1fc 4ebd
00000080: 378e 95be eed5 0b3e 5f96 853e 5b63 d4be
00000090: 9595 87be 8fea d9be 3527 3aba 39dc 44be
000000a0: 0d07 be3e a282 c3be 974a 693e 5222 d53d
000000b0: c04d ddbd c23e 9b3e a5c0 853d 8fee cfbe
000000c0: dd39 86be aebe febd 62e7 1c3f d138 88be
000000d0: 5f45 f9bb a00b 15bf 7e32 23bf 51e9 0d3e
000000e0: f4d3 a73e 3fd2 d6be e4ae cd3e a0fa 733e
000000f0: 0a21 1db8 eb77 d73d b9ff 26be a03d 0abe
00000100: 01bf ae3e bd38 6b3e af5c b03e 3ded 213e
00000110: 5273 8ebe 82d3 0c3e bdc9 5bbe 6ff8 a1be
00000120: 6d83 b1bd eaa8 a3be ba6d 663e 2981 1b3d
00000130: 6d63 6b3e 3bb0 123f 5af2 bcbe 3125 f23b
00000140: 95ff 17be 1edd 73bd e204 653e 476a 0bbe
00000150: da3c 8c3e a96c ba3e 5596 d93e 6b54 a3bd
00000160: db2c 3abd 2a63 eabd 2653 a0be 6e67 ebbe
00000170: 1acf 89be 7e8c f43e 90cd 4b3e 07a6 cfbe
00000180: 19e5 e53c 6a0d e33e c6ef aebb f712 62be
00000190: b7ea 5a3e 746c 1cbe f9d6 813e d70f 8c3e
000001a0: 1d54 9c3d be2b 113e f071 bb3e 3dd7 593f
000001b0: 3242 553e 348b ab3d 1a30 a13e e85e 93bb
000001c0: fc4d b9be dd73 313e 4a79 44bd 6566 80b9
000001d0: 5d36 a4bd 069c 983e 5a5e 5abe fb30 773e
000001e0: 9f8c 33be 0ffc 403e 4b5d 823d 3341 bd3e
000001f0: 8f5e 963e 86e7 8abe b943 52be 80f0 31be
00000200: 076f 23be e41a 4c3e 8d3f 37bf 472d 22be
00000210: 73fb 0d3d fa9d 6a3e 164a 053e 4542 b43e
00000220: b2e3 b7be 5dfb 5abe 295e d03d 8ec1 d43e
00000230: 7ba4 54be 5bf0 28be e576 a0be 0faf a43e
00000240: e8ee 493e b770 413f b042 acbd e64c 7f3f
00000250: ca9f ca3c 0a9b bebe d235 20bf 85cc 61be
00000260: b004 e2bd f32f 4ebc accd 6e3e 502e bebd
00000270: 5ec0 25be b55f 993c b0cd be3e b942 7b3e
00000280: b35c 9d3d 29d0 93be 2aaf c73e 2fd2 ea3d
00000290: 3314 993d ac47 babd 4685 96be a4d8 043e
000002a0: 0fba 2ebe 8417 f93e c7d0 0fbe 0c5b e63e
000002b0: 2270 1d3d 8d03 8dbe daf3 48bf 9ecf 553d
000002c0: b94d a7be 8a6f 6b3e 8815 cb3d 5e77 523f
000002d0: 3528 bf3d 8e05 a83d e977 453e 5637 81be
000002e0: 301a 3f3f 2431 8a3e c8d2 d8bd aad2 91be
000002f0: d287 6b3e eb93 1fbe 72f2 ddbd 502a 02bf
00000300: 455e 59be 3dce a2be 0d48 c33e 2b7e 653d
00000310: 3669 843e f7f9 66be fb0c 61be 294f 043d
00000320: 82a9 91be 62aa 1abe 9d80 11bf cfbe b73e
00000330: 5c8d 58be 717a f43c 9202 c8bd f8a9 9bbe
00000340: 65d6 ba3e 1747 d13e a3e2 013c d91f b33d
00000350: d273 193e 9b7f 5a3e c612 b83d 2d3f d43e
00000360: 8438 573e 39df 373e 0649 a3be 588e 8bbe
00000370: d1b6 f73e 86b1 f1bd 7849 55be 3bdd e5bd
00000380: 2f4d da3e 8bd2 483e 15f8 b13e 0f76 683f
00000390: de75 313e 9991 9bbe b3e3 3abe 7286 1f3d
000003a0: 8a15 7bbe e811 00bf e575 17be 7e86 a13c
000003b0: c16c a9be 197d dabd 048e 733e e609 78be
000003c0: df23 58bd 53fa 723e 8d5b b13d 2dfe dcbe
000003d0: 6abc 693e 3dd5 84be f89e ae3e b0a0 e0be
000003e0: a1a0 383e 94fb 7abe b3e4 d3be 0da8 e1bc
000003f0: 59dd ea3d 47ba 263f e079 b9be 27d4 cbbe
-0.41259062 -0.06434223 -0.37695643 0.15694898 -0.26237428 0.14209823 0.4154756 0.13629852
-0.29193577 0.08864418 0.18675596 0.088833414 0.45368063 -0.25629476 0.19691965 0.16646591
0.121392526 0.07132952 -0.25744274 -0.31564605 0.32002673 -0.5523567 0.19588135 0.1710311
0.34900397 0.3953233 0.108080916 0.5465563 0.16595142 -0.0102153355 0.30532786 -0.050534133
-0.29210064 0.13655826 0.26091287 -0.41482052 -0.2648131 -0.42561767 -0.0007101179 -0.19224633
0.37114754 -0.38185602 0.2278236 0.10406937 -0.10805845 0.30321318 0.06530885 -0.40611693
-0.2621602 -0.12438713 0.6129056 -0.26605847 -0.0076071466 -0.58220863 -0.6374892 0.13858534
0.32778895 -0.4195728 0.40172493 0.23826075 -3.7462487e-05 0.105209194 -0.16308488 -0.1350007
0.341301 0.22970863 0.34445712 0.15813155 -0.27822357 0.13752559 -0.21463676 -0.31634852
-0.086676456 -0.3196481 0.22502795 0.037964974 0.22987147 0.57300156 -0.3690365 0.0073896875
-0.1484359 -0.059537046 0.22365144 -0.1361476 0.27390176 0.36411026 0.42497507 -0.07975086
-0.045452934 -0.11444695 -0.31313437 -0.45977348 -0.26915818 0.47763437 0.19902635 -0.40556356
0.028063344 0.44346172 -0.005338642 -0.22077547 0.21378599 -0.15275747 0.25359324 0.27355835
0.07633231 0.14176843 0.36610365 0.8509405 0.20826033 0.0837616 0.3148201 -0.0044973977
-0.3619231 0.17329355 -0.047967233 -0.00024490352 -0.080181815 0.29806536 -0.21325055 0.24139778
-0.17534111 0.18846153 0.063654505 0.36963806 0.29369017 -0.27129763 -0.20533647 -0.173769
-0.15960322 0.19932133 -0.71581346 -0.15837584 0.03466363 0.22911826 0.13016543 0.3520681
-0.35915905 -0.2138495 0.101742096 0.4155392 -0.2076587 -0.16497938 -0.3134071 0.3216481
0.19720042 0.75562614 -0.08411157 0.9972671 0.024734396 -0.3722766 -0.62582123 -0.22050674
-0.1103605 -0.012584674 0.23320645 -0.09286177 -0.16186664 0.018722394 0.37266302 0.24537171
0.076836966 -0.2886975 0.39000827 0.114658706 0.07474556 -0.090957016 -0.29398555 0.12973267
-0.17063163 0.48650753 -0.14044486 0.44991338 0.038437016 -0.27541772 -0.7849709 0.052199952
-0.32676485 0.22991768 0.09916216 0.8221339 0.09333841 0.082041845 0.19284023 -0.2523753
0.74649334 0.26990616 -0.10587078 -0.28481036 0.2300103 -0.1558377 -0.108372584 -0.50845814
-0.21227367 -0.31797972 0.38140908 0.056028526 0.2586152 -0.22556292 -0.21977608 0.032302056
-0.28449637 -0.15104058 -0.56836873 0.35887763 -0.21147674 0.02984354 -0.09766115 -0.30403113
0.36491695 0.4087455 0.00792757 0.08746309 0.14985588 0.2133774 0.08987956 0.4145445
0.21017653 0.17956246 -0.3189165 -0.27257037 0.48381665 -0.11801438 -0.20828807 -0.11223837
0.4263701 0.19611566 0.34759584 0.90805143 0.17330119 -0.3038452 -0.18250923 0.038946576
-0.24519935 -0.5002732 -0.14791067 0.019717451 -0.33090785 -0.10668392 0.23784643 -0.24222526
-0.052768584 0.23728304 0.0866004 -0.4316267 0.2282578 -0.25943938 0.3410566 -0.43872595
0.18030025 -0.24510032 -0.4138542 -0.027545953 0.11468 0.65127987 -0.36225796 -0.39810297

fc.2.weight f4 [256, 256]
00000000: 7efd 71bb 38e3 4fbd 9de7 25bd 3fec 673d
00000010: 1dc7 cbbc 3d87 65bb bfd1 11bc e664 d33c
00000020: 6c6d 70bc 981e 343d 43da 80bd 6cf7 853d
00000030: 8413 f0bb 8916 923c d8ab f93c bbb5 4abc
00000040: 77bf 723d 5203 afbc 9af9 1d3d 6c53 033c
00000050: a9dc 263b a693 563d 5345 ae3b c60c 7dbd
00000060: 0756 98ba 3765 b53c 9420 b5bc add7 113d
00000070: 6ed6 44bd 48af 223c bd6f c3bb 26eb 233d
00000080: 821a 49bd bae6 263b 0d0b 19ba a815 a5bc
00000090: 30bc 553d c3cd dabc 553a 623d 8408 debb
000000a0: 6b45 ce3c 9a87 1cbd a7e2 13bc 4a9f ee3b
000000b0: 213f ef3c d397 933a 7eaf 593d 15ca f7bc
000000c0: d236 83bc b5e7 26bb bd58 a13b 6d61 583a
000000d0: 225a ed3c 682b 633c 9857 64bd 1232 08bd
000000e0: 8329 853d a955 bf3c a75c 693c 53b8 33bd
000000f0: 7c79 15bd 18d2 7e3b d22e 273d 04a4 ccbb
00000100: b06a 0cbd 97f4 cbbc cc68 4d3d ba6b 58bc
00000110: 4d8a e03c 1886 93bc cb88 e8bb f9b3 303d
00000120: 9c1d 3f3d 1612 423d 7d09 053d b7ab da3b
00000130: 11e2 72bd 0c79 043c e1b5 68bd 9bcf e8bc
00000140: b9be afbc 4ede 3abd a5ce a83c 7fb9 cebc
00000150: d609 5cbd d10d 003c 6989 2ebd 792b c4bc
00000160: d41f 36bd 5b54 243c bf00 363d b380 13bc
00000170: 80ec 31bc ef1a bdbc ac97 aabc aa43 183d
00000180: a496 35bd def2 83bc 2065 6cbd cb03 533d
00000190: 4aff babc 5b12 78bc 5084 94bc bcf5 473d
000001a0: 4a38 55bd e7e0 793d 7611 91bc 0db4 153d
000001b0: bb94 97bb 85e7 4d3d f482 b23c e7a3 22bc
000001c0: b802 b03c 0fab 4a3d c502 3c3d 7a26 83bd
000001d0: 70d9 333c ce91 b13b 6a5b 9d3c ac4c 86bd
000001e0: 41a3 303d c8cd cbbc 0e08 c73c 4883 6dbd
000001f0: 5c2b 303c ed6b 25bb 6104 3dbd f729 5abc
00000200: 2ada 23bd a4ae c5bc 6fd7 1cbc ae29 d4bc
00000210: 9c48 803c 3ace 3f3d 0a92 30bc f217 23bd
00000220: e307 e2bc 4a9c 9bbc 39fc 81bd 3bce 573d
00000230: 426e 533d fb86 fb3c 8037 32bd 0297 01bb
00000240: 3f83 3e3c 7365 e5bc 2614 a6bc 4ae9 18bd
00000250: e69b 15bb c8f1 d03c 6927 b5bc c324 e1bc
00000260: 7685 1b3d 9b2a a4bc 281d 14bd 8b90 12bd
00000270: e160 bfbc c020 613d a55a 4a3d 0c7f 123c
00000280: 659b dfbc 81cd 3a3d 1da8 1c3d c6fd 4f3c
00000290: 701d fbbc 5738 953c 09c8 10bd 7995 333d
000002a0: d643 c03b a5f1 18bd 4cdc 9d3c ca31 003d
000002b0: 3ec3 f2bb a8fa 5c3d 8973 9bbc e6fb 253c
000002c0: a946 23bd c8d1 b4bb f3b3 493d 60f5 65bd
000002d0: b590 3abd 118a 313d b805 803d 1467 253d
000002e0: 7e87 b43c c267 513d 9521 863c 5981 b6bc
000002f0: 5a3f 443d f33b aeb8 4b19 0cbd f090 1dbd
00000300: 125c 24bd 374f 623d 1d4a 25bd d6e0 7ebd
00000310: 7eec 45bb 48bc 743d 53b4 3d3d 578d 19bc
00000320: f7e3 3dbd 8950 2fbd e219 e03c 1e9e 443d
00000330: 2d4e 04bd e198 34bc 4116 5c3d 7f0b 513b
00000340: 2d5a 0a3c 9174 833b f883 7bbd 862b e6bc
00000350: 0337 df3c df77 67bb fb29 5fbd 2144 84bc
00000360: 7751 213d 242f 54bd e9a8 4ebd 1675 403d
00000370: d7f8 67bd a8e5 49bd fea8 8bbc 37b0 e63c
00000380: a070 cdbc 6890 db3b 7a79 543d de54 3ebd
00000390: 8858 973c a7fe 653d 8e55 29bd c3a4 ecbc
000003a0: 4111 b43c 5e51 64bd 9612 5b3c ec6b aabc
000003b0: a05e 66bd 32ab e73a b2c4 203d 473f 19bd
000003c0: 2984 3ebb 6651 22bd 62e3 d33c 6eb3 bebc
000003d0: 5698 b6bc 8826 5d3d 36f6 9dbc 2396 40bd
000003e0: fc37 45bc 03ec 3b3d d53c fc3a 198b d83b
000003f0: 791b 59bd 07b6 80bd fa57 33bb 0cfb 613d
-0.0036924775 -0.050753802 -0.040504087 0.056621786 -0.024875218 -0.0035023235 -0.008900105 0.025804948
-0.014674526 0.04397449 -0.0629163 0.065413326 -0.007326545 0.017833011 0.03047745 -0.0123724295
0.059264626 -0.021363888 0.038568117 0.008015495 0.0025461114 0.052386902 0.0053183227 -0.06177976
-0.0011622318 0.02214299 -0.022110261 0.035606075 -0.04805606 0.009929486 -0.005964248 0.040019177
-0.049097545 0.0025467114 -0.00058381335 -0.020151928 0.052181423 -0.026709443 0.05523141 -0.0067759175
0.025179585 -0.038215257 -0.009026206 0.0072821723 0.029204907 0.0011260457 0.053145878 -0.030247727
-0.016017351 -0.0025467698 0.0049239085 0.00082542637 0.028973643 0.013865329 -0.0557476 -0.033250876
0.06502058 0.023356276 0.014243281 -0.043876957 -0.03649281 0.003888255 0.040816136 -0.006245138
-0.034281433 -0.024896903 0.05014877 -0.013209278 0.027409697 -0.018008277 -0.007096385 0.043140385
0.046659097 0.04738053 0.03247975 0.006673302 -0.059297625 0.0080855 -0.05681408 -0.028419307
-0.021453248 -0.045622163 0.020606348 -0.025234936 -0.053720318 0.007815794 -0.042611513 -0.02394651
-0.044463947 0.010029878 0.044434305 -0.009002852 -0.010859609 -0.023084132 -0.020824276 0.037173904
-0.044333115 -0.016107019 -0.057713628 0.05151729 -0.02282681 -0.015141095 -0.018129498 0.048818335
-0.052055635 0.0610055 -0.017708521 0.036548663 -0.0046258844 0.050269622 0.021790959 -0.009926773
0.021485671 0.04947954 0.04590108 -0.06403823 0.010977134 0.0054189926 0.019208629 -0.06557593
0.04312444 -0.024878398 0.024295833 -0.057986528 0.010752525 -0.002524133 -0.046146754 -0.013315669
-0.04000298 -0.024131127 -0.009572848 -0.02589878 0.015659623 0.046827532 -0.010777006 -0.039817758
-0.027591651 -0.018995423 -0.06346936 0.05268691 0.051618822 0.030704012 -0.04350996 -0.0019773846
0.011627971 -0.028002476 -0.02027328 -0.037331857 -0.0022828518 0.025505915 -0.022113519 -0.02748335
0.037969075 -0.020039847 -0.036160618 -0.03578238 -0.023361625 0.054962873 0.04940285 0.008941423
-0.027295778 0.04560614 0.038246263 0.012694782 -0.030653685 0.018215341 -0.03534702 0.04384372
0.0058674617 -0.037339825 0.019270085 0.031297483 -0.0074085286 0.053949982 -0.01897599 0.010130858
-0.03986231 -0.005518172 0.04924388 -0.05614221 -0.04554816 0.04334456 0.06251091 0.040381506
0.022037264 0.05112434 0.016373435 -0.022278475 0.04791198 -8.308133e-05 -0.03420381 -0.0384683
-0.040126868 0.055251326 -0.040353883 -0.06222614 -0.0030200775 0.05974987 0.04631455 -0.009372077
-0.046359982 -0.042801414 0.027356092 0.048002355 -0.032301117 -0.011022777 0.05373216 0.0031897721
0.008444351 0.0040116985 -0.061405152 -0.028096925 0.027247911 -0.0035319251 -0.054483395 -0.016145768
0.03938433 -0.05180277 -0.050454054 0.04698666 -0.056633797 -0.049291283 -0.017048355 0.028160198
-0.025078118 0.006700564 0.05187366 -0.046467654 0.018474832 0.05615106 -0.041341357 -0.028887158
0.021980884 -0.05574166 0.01337113 -0.020803414 -0.056242585 0.0017674922 0.039250083 -0.03741386
-0.0029070473 -0.03962841 0.02586526 -0.023278918 -0.022289436 0.053991824 -0.019282442 -0.04701818
-0.0120372735 0.045879375 0.0019244204 0.0066083786 -0.053004716 -0.06284719 -0.002736567 0.055171058

fc.2.bias f4 [256]
00000000: dc2a 213b df2d 60bc 9484 b03c 1f26 43bd
00000010: c476 3f3d 7818 4fbd d46a 4dbd 1339 02bd
00000020: bb0c 183d f34a 07bd cc68 e33c b277 003d
00000030: 07ca 3fbd 5383 83bd 77dc 463b dfb2 3cbc
00000040: b699 89bd 5672 1fbd 0c06 b8bc b642 7ebc
00000050: d68d e63c 63dc 1c3c 45fc ae39 24cd 3abd
00000060: c0aa 263d ea4c 183d fcfd 46bd 91ed 313c
00000070: 89cd 413d 6cae 77bd 9917 28bd ce44 473b
00000080: dcc4 8ebc 052f f5bc 12b7 9bbc 5776 ae3b
00000090: 6b1d 423d 6de2 a83c 263d 7e3d 7957 083e
000000a0: 651d 463d 44b1 dd3c f707 0fbd ccfa 193d
000000b0: fcc5 c63b 945b 8bbd 1469 243d a2e6 1e3d
000000c0: bd7c 8c3a 0b5c 42bc 9024 6dbd 3c72 3a3d
000000d0: a92d 1dbd 2aec a63c 4afa 87bc e8bf 17bd
000000e0: a885 563c bf4a 323e aaab 96bc aed5 37bc
000000f0: 0280 8e3c 4dd5 3b3c 3eb9 c53c b4a2 c6bb
00000100: 3749 e83d 1f41 1e3e 2e61 ec3d f5a2 0dbd
00000110: 51a4 813c 5589 aa3b 5429 253d 9d8d 84bd
00000120: 4b7b 4cbc 22ed 8f3d 332a 173d 9303 17bd
00000130: 27fa 20bd 975e 323d 7d15 013e 263d 37bb
00000140: c693 d83c 3252 45bd 47ab 60bd 4079 6abd
00000150: ab59 34bc 7f22 1fbc 5620 91bc 7e7d 353d
00000160: ee4e 3cba 9456 1b3d 88f2 1bbd d702 d63c
00000170: b722 b23d 85b7 ae3a 6ffa 053e c2ed 50bd
00000180: 070b b03c 7207 4a3d a08a 753d 4356 b73c
00000190: 9691 f63b bd12 c73c 19b4 09bd 7754 15bd
000001a0: aa4f 57bd d057 09bd fe2e 26bd 98a7 083e
000001b0: 1527 1c3d 5957 92bc 8579 573d ce06 0dbd
000001c0: cd98 d83c 9411 0f3c a217 27bb 2439 01bb
000001d0: 6070 473c 5d4d 2dbc 6fe9 543a 46a5 0a3d
000001e0: 88fa 073b 2caa 1dbd fae0 193d c30c 9abc
000001f0: d93a 4bbc 8a03 4dbd 7b81 abbc 33e1 353c
00000200: 615c a5bc 283f 69bd 508a 7abc d197 a13c
00000210: 5da4 bf3b 8398 cc3c 5656 d53d 8c9a 27bd
00000220: 08bc 283d 5cba 833e 3c3b 983d b7e6 f0b9
00000230: 4188 9abd 7bbc 67ba f40c 143d bfe4 3cbd
00000240: 9313 70bc 9e0a 1fbd aaae 263d 355a e4bb
00000250: 4a26 633c fef8 003d ce4d 56bd 2d24 aabc
00000260: 1dda ccbc 3321 213c 3907 e43c 406a 553d
00000270: 8171 b8bc 0bef 56bd f2f0 62bd cd0f 3e3d
00000280: 2c11 263e b47c 15bd 7fa8 8c3c 0784 7b3d
00000290: 86c3 54bd 82bf 643d b094 aabb 305d 553d
000002a0: d4fb babc e7cc 6d3d 8bde 51bd fa7b 643d
000002b0: 7fba cfbc 7e33 223d 8a97 983c c135 1e3d
000002c0: 381b d13c 1780 afbc 36d8 e6bc f944 8c3e
000002d0: 42e9 2dbd 7243 aa3d 16ee 083d f8fe 90bd
000002e0: ed09 8f3b 31a0 19bd fe83 013b 7dc8 6abd
000002f0: 8117 29bd f03a 64bd 5acf fe3b 2d22 33bc
00000300: 2567 81bd 1261 7d3d 480b f8bc 9897 8c3c
00000310: d65c f1bc 779f bb3d e467 7fba f5b3 183c
00000320: 27d6 f13c c1ae 533d 432c 41bc 548a 43bd
00000330: 0b51 fe3c 3713 e3bc eae6 8b3c 519f 6abd
00000340: 2a12 89bb 57f3 ccbc b0ff 02bd 3c24 8abc
00000350: d626 6a3e 8efd deb9 6886 9c3c 17ce 15bd
00000360: a92a 86bc a68a 95bd b42f 2d3c c62b 48bd
00000370: 76cb a8bc 437b da3d 5b21 bf3c d0eb 083d
00000380: 93a3 253d 3d08 07bb 4418 5fbd 718d 6a3e
00000390: 2c94 22bd de82 85bd 8db7 d23c 3876 e83c
000003a0: 2d17 0d3c 2d6c c0bc 7af1 513d a91a f33c
000003b0: a34c 0cbd b4c7 81bd d322 45bc 6976 e83d
000003c0: 4ea4 383d 138a 513d cbfa 6b3e 90c1 6bbd
000003d0: a99a 7dbc 1c15 fa3b 8d6e 18bc f6c6 c4bc
000003e0: cd60 ed3a f3f4 7a3c e6f8 193d b211 2e3c
000003f0: d115 303d d93d 8e3c 0729 76bd bd75 85bc
0.0024592197 -0.0136828115 0.021547593 -0.047643777 0.046744123 -0.050560445 -0.050150707 -0.03179271
0.037121516 -0.03303046 0.027759932 0.03136415 -0.046823528 -0.064215325 0.003034381 -0.011517256
-0.06718771 -0.0389274 -0.02246382 -0.015518835 0.028143805 0.009574029 0.00033375822 -0.045605794
0.040690184 0.037182726 -0.048582062 0.010859863 0.047315154 -0.060469076 -0.04103813 0.0030406
-0.017427854 -0.029929647 -0.019008193 0.005324166 0.047391336 0.02061578 0.062070034 0.13314618
0.048367877 0.027062066 -0.034919705 0.037592694 0.006066082 -0.068045765 0.040139273 0.038794167
0.0010718327 -0.011862765 -0.057896197 0.0455191 -0.038373623 0.020376284 -0.01659884 -0.03704825
0.01309339 0.17411326 -0.018392403 -0.011220379 0.017395023 0.011464429 0.024136182 -0.006061876
0.113420896 0.15454529 0.11541973 -0.034579236 0.015825422 0.0052043595 0.040322617 -0.06472323
-0.012480567 0.07027651 0.03690548 -0.036868643 -0.039301064 0.04354724 0.12605853 -0.0027960031
0.026437651 -0.04817409 -0.054850843 -0.05724454 -0.011007707 -0.009712814 -0.017715614 0.04430913
-0.00071833923 0.037924364 -0.038073093 0.026124401 0.086980276 0.001332984 0.13083814 -0.051007994
0.021489633 0.049323507 0.059946656 0.02238 0.0075246794 0.024300927 -0.03361902 -0.036457505
-0.052566208 -0.03353101 -0.04057216 0.13345182 0.03812321 -0.017863916 0.052606124 -0.034430318
0.026440049 0.008732218 -0.0025496264 -0.0019717896 0.012172788 -0.010577527 0.00081219425 0.033849023
0.0020748693 -0.038492367 0.03756807 -0.018804913 -0.012404167 -0.050052203 -0.020935765 0.011101055
-0.020185651 -0.056944996 -0.015291765 0.019725712 0.005848451 0.024975067 0.10416858 -0.04091887
0.041194946 0.25728118 0.07433173 -0.00045948263 -0.075455196 -0.00088400365 0.036145166 -0.046116587
-0.014653104 -0.038828485 0.040693916 -0.0069687613 0.013864109 0.031487457 -0.052320294 -0.020769203
-0.025006348 0.0098345755 0.027835475 0.05210328 -0.02251506 -0.052474063 -0.055405565 0.046401788
0.16217488 -0.03649588 0.017170189 0.061405208 -0.05194428 0.0558467 -0.005205713 0.052090824
-0.02282516 0.05805674 -0.051237624 0.055782296 -0.025357483 0.039599888 0.018626947 0.038625482
0.025525674 -0.021423383 -0.02817927 0.27396372 -0.04245878 0.083136454 0.03343018 -0.070798814
0.004365197 -0.037506286 0.0019762511 -0.057320107 -0.04128218 -0.05572027 0.007776183 -0.010933441
-0.063185014 0.06186015 -0.030278817 0.01716213 -0.029463213 0.09161275 -0.0009742959 0.009320249
0.029521061 0.05168033 -0.011790338 -0.04773934 0.031044504 -0.027719123 0.017077882 -0.057280842
-0.0041830735 -0.025018377 -0.031982124 -0.016862981 0.22866377 -0.00042532053 0.019107059 -0.036573496
-0.016377764 -0.07301836 0.010570455 -0.04886987 -0.02060483 0.106680416 0.023331335 0.033428013
0.0404392 -0.0020604276 -0.0544665 0.22905518 -0.03969209 -0.065191016 0.02572229 0.028376684
0.008611483 -0.023489082 0.05125568 0.029675798 -0.034252774 -0.063369185 -0.0120322285 0.1135071
0.04507857 0.05115707 0.23044889 -0.057557642 -0.015478768 0.007631911 -0.009303701 -0.024020653
0.0018110514 0.0153171895 0.037590884 0.010624336 0.042989556 0.017363476 -0.06009772 -0.016291494

fc.4.weight f4 [1, 256]
00000000: be93 aa3b 8d94 ae3c ed7c f73c 901f a73a
00000010: 36bc 143c 6894 c7bc c39b 9439 7544 96bc
00000020: 915f 143c 1fba cc3c 3ee7 2abc 4387 09bd
00000030: f0d9 6e3d 0876 05bd 6f31 d3bb 614a 2f3d
00000040: 8b41 87bc f32f ba3b 394c 02bd ec5e 2abd
00000050: 5c98 703c 06d4 10bd 9404 0aba b1af f3bc
00000060: 9320 a13c 4a8f a83c 5f62 52bd 8fba 05bc
00000070: acec 823d 034e b2bc 2306 0d3d 0404 09bd
00000080: 9201 023d e7e2 0439 a859 793d 4667 373c
00000090: d147 8c3a ceac dabc f73a 81bc 9b83 603c
000000a0: 458a 123d 3940 2e3d f227 4abc 6b0b 0d3d
000000b0: c847 da39 1e01 1bbc 3e3d 1d3d bb88 12ba
000000c0: cec0 97bc 6614 23bd 9863 993c 9548 08bc
000000d0: 3751 ea3c d8ae bbb9 8764 9c3b 2ee9 2e3d
000000e0: 3565 f4bb 8862 873d af3f d63c 51ab d6bc
000000f0: 2ca3 6d3c c3ef 4fbd 4004 c43c cbde 213c
00000100: 41cb aebb 3e26 823b 3347 2b3d 7391 3c3c
00000110: 839b 2b3d 6633 15bc 7312 49bb 91de a33d
00000120: 54c6 8cba 1cde 523c 6ca1 e1bc 71e7 87bc
00000130: 8b53 dbbc bfbc 1dbd adc0 2b3d 4986 973c
00000140: c860 42bb 43cf 1b3d 5c82 24bd 2651 b93c
00000150: d33f 413c fecd c93c 423e 4b3d c5d3 b3bc
00000160: dc06 92ba a6f9 5e3d 3aea 993c 6e2e 1e3d
00000170: 1d82 623d 4519 9cbb c74a c03c 623d abba
00000180: 75cf 993b 8529 3a3c ee6f 3bbd 3fbf ee3c
00000190: f4b5 1bbd 3a06 a33b 5d66 2f3b 0f01 f33c
000001a0: a60c e43c 0b82 eebb 3212 23bd 7fd7 de3c
000001b0: bc3e 1dbd 6ec6 183d f2a9 03bd 7124 dbbb
000001c0: 0629 053c 49b6 ea3b aaf5 f13b 32ac 0dbc
000001d0: 75a2 f43b f2c9 823b 5b65 9fbc 8b20 35bb
000001e0: 2aed 47bc deb6 463c 9548 2abd 80df 0bbd
000001f0: c35e 2c3a c15f 42bd 1a8f 5dbc 82b2 98ba
00000200: 799a 1b3a f35e 69bd bb81 a93c 990d b93c
00000210: cb56 453d a601 83bc 0a5c 1f3d 473b 13ba
00000220: 9d0c 323d 4248 d33c 55e2 953d 425f ff3c
00000230: e137 8dbd 871d 203d 1000 fdbb 158f 423b
00000240: e057 47bd 6fb8 333d 53aa 183b a55c 1338
00000250: 5f18 f4bb e5f6 0cbd 18c6 8839 1c2e 49bb
00000260: 0978 28bd 066a ac3c fe71 983c 69b2 04bd
00000270: 2140 403d e651 8abc 801d 09bd de14 ba3c
00000280: d49e bf3c 30eb 94bc 9991 6fb9 6053 b53c
00000290: fd4a 623c a250 0a3d ffb8 74bd c887 e63a
000002a0: 9e65 7f3a a79e 273b c7bc 54bd 51f1 abbc
000002b0: ae73 3d3c f032 76bc 897e c9bc d126 84bc
000002c0: 3177 a2bc 02bf 453d 6a2a 35bc 8bae 133d
000002d0: 45c6 2abb 046b a2bb 6e1b 80bd c282 db3a
000002e0: a973 2dbd 567c 25bd 9c83 6b3c 31d4 30bc
000002f0: d21e 023a 623a 8abc 67a3 0bbb d026 0f3d
00000300: 3dcd 293d 1454 cb3c 7515 4dbb 17fe 21bd
00000310: e715 82bb 9aed e33b a0b6 503d d447 19bd
00000320: cce1 a83c d4b9 55bd d674 3abd c11e cc3b
00000330: 2b66 e23b a534 2ebd 4c64 e53c 41de 76bc
00000340: 263a 3e3c 6947 abbc 8123 393d 573a 463b
00000350: cea7 223c fa00 06bc 1a25 ab3b eebe f23c
00000360: 01df 1c3d 808c c4bc d1c0 97bc d9d1 853b
00000370: 31f5 aa3a 3bd0 f73c aed6 59bc 5124 f0bb
00000380: ecc7 abba f6c6 4039 19c1 5e3d a279 4f3d
00000390: 2fdb 093d 4336 da3c 8bad c03c 7050 34bd
000003a0: 07c6 273d 7acf f63c 53f8 9abb 32c9 aabb
000003b0: f697 59bd 3de0 85b9 2bcf 173c 9357 173d
000003c0: 6196 993c cadc 57bd 3756 3f3d fbcf 8fbc
000003d0: 3aba fd3c fd97 4d3d 90c7 483d d0e2 243d
000003e0: 5edd 243d d4b6 503c abd2 57bc 6b9b 51bd
000003f0: 9282 e13c f4f7 193d c0dd 8cbc c6cd 443c
0.0052056005 0.021311069 0.030210936 0.0012750495 0.009078076 -0.024362758 0.0002834481 -0.01834319
0.009055988 0.024991093 -0.010431109 -0.03357626 0.05831331 -0.032583266 -0.006445102 0.042795543
-0.016510746 0.0056819855 -0.031810973 -0.04159443 0.014684763 -0.03535845 -0.00052649644 -0.029746862
0.019668853 0.020576138 -0.051363345 -0.008162155 0.06392798 -0.021765715 0.03442968 -0.033451095
0.03173978 0.00012673029 0.06087652 0.011194056 0.0010702555 -0.026693728 -0.015775187 0.013703252
0.035776395 0.042541716 -0.012338625 0.034434717 0.0004163368 -0.009460716 0.038388483 -0.00055898324
-0.018524554 -0.039814375 0.018724248 -0.008318086 0.02860318 -0.00035797688 0.004772726 0.042702846
-0.007458354 0.0661059 0.026153414 -0.026204737 0.014504235 -0.050765764 0.023927808 0.009879778
-0.0053342883 0.003971844 0.041815948 0.011509287 0.041896354 -0.009106493 -0.0030681163 0.080014355
-0.0010740259 0.012870338 -0.027542792 -0.016589852 -0.026773235 -0.03851008 0.041931797 0.01849665
-0.0029659737 0.038039457 -0.040163383 0.022621702 0.011795002 0.024634358 0.04961992 -0.021951566
-0.001114096 0.054437302 0.018788446 0.038618498 0.055299867 -0.0047637546 0.023473157 -0.0013064558
0.0046939203 0.011362438 -0.04576104 0.029143928 -0.03801532 0.0049751075 0.0026763894 0.02966359
0.027838062 -0.007278686 -0.039812274 0.027202366 -0.038389906 0.037298612 -0.032144494 -0.0066876938
0.0081274565 0.0071628434 0.0073840218 -0.008647012 0.0074656554 0.003991359 -0.01945751 -0.0027637805
-0.01220254 0.01212856 -0.041573126 -0.034148693 0.00065754 -0.0474546 -0.013522888 -0.0011649879
0.0005935799 -0.056975316 0.020691743 0.022589492 0.048178475 -0.015991997 0.038906135 -0.0005616438
0.04346906 0.025791291 0.0731856 0.031173352 -0.06895424 0.03909066 -0.0077209547 0.0029687334
-0.04866779 0.04387706 0.002329488 3.5133813e-05 -0.0074491943 -0.034415144 0.00026087533 -0.003069765
-0.0411301 0.02104665 0.018609043 -0.032396708 0.046936158 -0.016884755 -0.0334754 0.022715028
0.023391165 -0.018178552 -0.00022847056 0.022134483 0.013811824 0.033768304 -0.05974674 0.0017588073
0.000974262 0.0025576742 -0.051937845 -0.020989092 0.011563225 -0.015026793 -0.02459647 -0.01613179
-0.019832226 0.048277862 -0.011057476 0.03605513 -0.002605812 -0.004956605 -0.06255232 0.0016747343
-0.04234663 -0.04040178 0.01437464 -0.010792778 0.0004963699 -0.016873542 -0.0021307112 0.034949124
0.041455496 0.024820365 -0.0031293307 -0.03954896 -0.003969896 0.0069558145 0.050955415 -0.037422016
0.02061548 -0.052179173 -0.04552158 0.006229252 0.006909152 -0.042530674 0.028001927 -0.015067638
0.011610543 -0.020908074 0.045199875 0.0030247176 0.009927703 -0.008178944 0.0052229287 0.029632058
0.03829861 -0.023992777 -0.01852456 0.0040838537 0.0013043043 0.03025066 -0.0132958125 -0.007328548
-0.0013105846 0.00018384666 0.05438337 0.050653107 0.033656295 0.026637202 0.023520252 -0.044022024
0.040960338 0.03012823 -0.0047293096 -0.0052119726 -0.053123437 -0.00025534807 0.009265701 0.03694875
0.018748464 -0.052700795 0.04671308 -0.017555228 0.030972589 0.050193775 0.049018443 0.040255368
0.040250175 0.012738902 -0.013172786 -0.05117361 0.027528081 0.037589982 -0.017195582 0.012011951
