models/tetris.pt (torch, 272638 bytes, 5 tensors)

fc.0.weight f4 [256, 5]
0	0x3e001d30	0.12511134
1	0x3d1a6672	0.037695356
2	0xbec8c2aa	-0.39211017
3	0x3ec771bb	0.38953957
4	0xbe171484	-0.1475392
5	0xbebba52f	-0.36649463
6	0x3dd6900f	0.10476696
7	0x3d737908	0.059441596
8	0x3e8773e2	0.264556
9	0x3ecd6345	0.401148
10	0x3e37e620	0.1795888
11	0xbe3d9e34	-0.18517381
12	0x3dfbfa3a	0.12303586
13	0x3d8aeb20	0.06783128
14	0x3e90f63a	0.28312856
15	0xbda8720e	-0.08224879
16	0x3cc21617	0.023692174
17	0x3e1eaa1d	0.1549458
18	0xbede4d2c	-0.43418252
19	0x3ec9694e	0.39338154
20	0xbe4778e1	-0.19479705
21	0xbe879291	-0.2647901
22	0xbede26da	-0.43389016
23	0xbdbb0b36	-0.09132998
24	0x3e8ba594	0.27274764
25	0xbe6d7e10	-0.2319262
26	0x3ee46798	0.44610286
27	0xbed54834	-0.4165665
28	0x3e8a5fc1	0.2702618
29	0xbeb18187	-0.34669134
30	0xbe00ca98	-0.12577283
31	0xbda54af2	-0.08070935
32	0xbed59c72	-0.4172092
33	0xbec83dd5	-0.39109674
34	0x3edb1a4a	0.42793494
35	0xbea90e57	-0.33018753
36	0x3e802b54	0.25033057
37	0xbe8e9cd2	-0.2785402
38	0xbed6aa4c	-0.419268
39	0xbdc62b20	-0.09676194
40	0x3ec7c66e	0.39018577
41	0xbe8d0ec8	-0.2755034
42	0x3e35107c	0.1768207
43	0x3eab616f	0.33472773
44	0xbec4c80b	-0.3843387
45	0x3e062380	0.1309948
46	0x3e10c37e	0.14137074
47	0xbe8ec453	-0.27884158
48	0xbe8980f2	-0.2685619
49	0xbd3ba8aa	-0.045815147
50	0x3e315813	0.17318754
51	0xbeae10bc	-0.33997142
52	0x3e64dc57	0.22349678
53	0x3d48babe	0.049006216
54	0x3ea291f7	0.31751987
55	0x3ee8ac0e	0.45443767
56	0x3e84aad5	0.25911584
57	0x3e48ab71	0.1959665
58	0xbdb09618	-0.08622378
59	0xbe839b86	-0.25704592
60	0xbd91e30a	-0.071233824
61	0x3e5c5df2	0.21520212
62	0xbd8fd625	-0.07023267
63	0xbda03324	-0.07822254
64	0xbeb4274b	-0.35186228
65	0x3c99a156	0.018753689
66	0x3e39a18a	0.18128029
67	0xbebe375f	-0.3715162
68	0x3ea04922	0.31305796
69	0xbdd9531e	-0.106115565
70	0x3de37be6	0.11107616
71	0x3db0df53	0.08636346
72	0x3ee2e124	0.44312394
73	0x3e30c46e	0.17262432
74	0xbe9b05a4	-0.3027774
75	0xbe0b82bd	-0.13624091
76	0x3e988dff	0.29795834
77	0x3dc28f08	0.09499937
78	0xbedac40d	-0.427277
79	0x3e0a0f84	0.13482481
80	0xbe520221	-0.20508625
81	0x3ec59fd0	0.3859849
82	0x3e318917	0.17337452
83	0x3e47a424	0.19496208
84	0xbb4a750a	-0.0030892515
85	0x3ea76e62	0.32701403
86	0xbe924c7e	-0.28573984
87	0xbd77a708	-0.060462028
88	0xbe3a0920	-0.18167543
89	0xbe2b61e7	-0.16736566
90	0xbed70356	-0.41994733
91	0x3ed0b79e	0.4076509
92	0x3e446870	0.19180465
93	0x3ecc3dbd	0.39890853
94	0xbeab5abf	-0.3346767
95	0x3ec0e562	0.37675005
96	0xbeb27c58	-0.34860492
97	0x3dbc0cc0	0.09182119
98	0xbd6509eb	-0.05591766
99	0x3c2df44a	0.010617325
100	0x3ba0b78e	0.004904694
101	0x3e34e32f	0.17664789
102	0x3edbe0c7	0.4294493
103	0xbeacad58	-0.33726
104	0xbd9828b6	-0.0742964
105	0xbed0b93d	-0.40766326
106	0xbdf16270	-0.117863536
107	0xbed5e1ec	-0.41773927
108	0xbe3a2d73	-0.181814
109	0xbc6c3909	-0.014417895
110	0xbe6fb4b2	-0.23408774
111	0xbe96259a	-0.29325563
112	0xbe3cf3f4	-0.18452436
113	0x3e847872	0.25873142
114	0x3e8e2f0d	0.27770272
115	0xbe6bf62d	-0.23043127
116	0xbe937777	-0.28802082
117	0xbe0c49c0	-0.13700008
118	0x3dc438da	0.09581156
119	0xbdd3260c	-0.10309991
120	0x3ed84808	0.42242455
121	0xbec715ed	-0.38883916
122	0x3e908448	0.28225923
123	0x3e3219ad	0.17392607
124	0x3e618ebf	0.2202711
125	0x3bf983d3	0.0076145916
126	0xbe2aeadf	-0.16691159
127	0x3eb032c8	0.34413743
128	0xbe36c421	-0.17848255
129	0xbd7722f0	-0.060336053
130	0x3e07baf1	0.13254906
131	0xbe9273c8	-0.2860396
132	0x3e507c0b	0.20359819
133	0x3dc1a5e4	0.09455469
134	0x3e33b041	0.17547704
135	0xbc8416e1	-0.01612419
136	0xbe1309f2	-0.14359263
137	0xbe1751a9	-0.14777245
138	0xbe96f8b1	-0.2948661
139	0x3e302952	0.17203262
140	0xbda7287c	-0.08162019
141	0xbec71abf	-0.38887593
142	0xbd26d401	-0.040729526
143	0x3ddbd51a	0.10734005
144	0xbe08e7c9	-0.13369669
145	0xbe503dc4	-0.20336062
146	0xbd9dd0ad	-0.07705817
147	0x3e4ce0c2	0.20007613
148	0xbe47c0a6	-0.19507083
149	0x3e42b920	0.19015932
150	0xbed41d20	-0.4142847
151	0x3decd5d5	0.11564223
152	0x3e99e7a9	0.30059555
153	0xbd2da7e6	-0.04239645
154	0x3eb90cc4	0.36142552
155	0xbee1e198	-0.44117427
156	0x3dfa57cb	0.122237764
157	0x3e1436a0	0.14473963
158	0xbdf915e7	-0.12162381
159	0x3e114186	0.14185151
160	0x3d3136ce	0.043265156
161	0xbe8e3d3d	-0.27781096
162	0x3e8019b9	0.25019625
163	0xbea7dc77	-0.3278539
164	0xbe456b3c	-0.19279188
165	0x3e8cd5c1	0.2750683
166	0xbecff3f7	-0.40615818
167	0x3e2cef82	0.1688824
168	0xbe6e411f	-0.23267029
169	0x3d5135b7	0.051076617
170	0xbe97ec84	-0.29672635
171	0x3da4e33f	0.08051156
172	0xbecd8ab6	-0.4014489
173	0x3d1f35aa	0.038869537
174	0xbecf7fe2	-0.40527254
175	0xbe7bac3e	-0.24577424
176	0x3e90a49e	0.28250593
177	0xbdc0b585	-0.09409622
178	0x3ddf92d5	0.10916678
179	0xbe54d3e5	-0.20783956
180	0x3eb01d19	0.343972
181	0xbed05946	-0.4069311
182	0xbd215fdd	-0.039398063
183	0x3e524bfe	0.20536801
184	0xbe65e13e	-0.22449204
185	0xbeb40793	-0.3516203
186	0x3eba8e59	0.36436728
187	0xbe69050a	-0.22755828
188	0xbe610171	-0.21973206
189	0x3dc5071c	0.09620497
190	0x3cd470a9	0.025932627
191	0xbdf24658	-0.11829823
192	0x3ed3cc58	0.4136684
193	0x3db0b9de	0.08629201
194	0xbced0a65	-0.02893562
195	0x3e58b164	0.21161419
196	0x3ec3d3fe	0.38247675
197	0x3bc2f443	0.0059495284
198	0x3ebb6f73	0.36608467
199	0xbe8311d9	-0.25599554
200	0x3e591f42	0.2120333
201	0x3e5fd3e6	0.21858177
202	0x3db86376	0.09003346
203	0x3e885ca6	0.26633185
204	0xbc881a3e	-0.016614076
205	0x3ecb5b26	0.39717978
206	0x3ec1fe27	0.37889215
207	0x3e6d42aa	0.23169962
208	0x3ed71544	0.42008412
209	0x3d98058f	0.07422935
210	0xbd9086ab	-0.07056936
211	0xbd72b913	-0.05925853
212	0x3ea50d89	0.3223689
213	0x3e53af65	0.20672376
214	0x3ddea978	0.10872167
215	0x3ddcec8d	0.10787306
216	0xbdbe0fa4	-0.09280327
217	0xbec0aa6e	-0.37630028
218	0xbe71669e	-0.23574302
219	0xbead8e73	-0.33897743
220	0xbe907c97	-0.28220055
221	0xbe037c0a	-0.12840286
222	0x3dd12522	0.10212161
223	0xbd87e6f0	-0.06635845
224	0x3cabf5ab	0.020991167
225	0x3ecab530	0.3959136
226	0xbe79068d	-0.24318905
227	0xbd0fd69a	-0.03511677
228	0x3ec77bb6	0.3896157
229	0xbe058519	-0.13039054
230	0x3e951ed2	0.29125077
231	0xbe9bc7e6	-0.30425948
232	0xbeb67571	-0.35636476
233	0xbe6a8a1a	-0.22904244
234	0xbed77c8d	-0.42087212
235	0x3ec95727	0.39324304
236	0x3da1a7bc	0.07893321
237	0xbebe9c0d	-0.37228432
238	0x3e700552	0.2343953
239	0xbed6a2c0	-0.41921043
240	0xbe8baa22	-0.2727824
241	0x3e45023c	0.19239134
242	0x3c7a4aa9	0.015276589
243	0xbd7f1f16	-0.062285505
244	0xbd346eb0	-0.044050872
245	0xbea7d931	-0.3278289
246	0xbe57a2ad	-0.2105815
247	0xbdb41dc9	-0.087947436
248	0x3d8a307e	0.067475304
249	0x3dfa3781	0.12217618
250	0xbd05a9a6	-0.032632492
251	0x3e88178d	0.26580468
252	0x3ddbc7d2	0.10731472
253	0x3e762a5f	0.24039601
254	0x3ec8b81b	0.3920296
255	0x3a35d793	0.0006936725

fc.0.bias f4 [256]
0	0xbd8b6145	-0.06805662
1	0x3e773877	0.24142633
2	0x3e94e876	0.29083604
3	0xbeea168e	-0.45720333
4	0xbeaa49a4	-0.33259308
5	0xbe9a2416	-0.30105656
6	0xbe270bbd	-0.16313072
7	0xbe511514	-0.20418197
8	0x3e685289	0.22687735
9	0xbea01f8e	-0.31274074
10	0xbdc820b0	-0.0977186
11	0x3eb5506d	0.35412923
12	0x3e08df33	0.13366394
13	0x3da1159b	0.07865449
14	0xbeeca908	-0.4622271
15	0x3e0853ac	0.13313168
16	0x3e1673de	0.14692637
17	0xbea67e05	-0.3251802
18	0x3ee1dfea	0.44116145
19	0xbedadef6	-0.4274823
20	0xbd930531	-0.071787246
21	0xbe0aba67	-0.1354767
22	0x3ea31e61	0.31859115
23	0xbe703003	-0.23455815
24	0xbe87c304	-0.26515973
25	0xbe54422d	-0.20728369
26	0xbdb1fffd	-0.08691404
27	0x3d8b6aea	0.068075016
28	0x3eb74b81	0.35799792
29	0xbda6ec8d	-0.08150587
30	0x3eb4eafc	0.3533553
31	0xbe2a79de	-0.16648051
32	0xbe4bf32f	-0.19916986
33	0x3cdb16e4	0.026744314
34	0xbedab08d	-0.42712823
35	0x3e0c1192	0.13678578
36	0xbd1ec465	-0.038761515
37	0xbdf1a30c	-0.11798677
38	0xbcff55d6	-0.03116886
39	0x3e8379cf	0.2567887
40	0xbe022705	-0.12710197
41	0xbd9cb0f6	-0.0765094
42	0xbe134638	-0.14382255
43	0xbe4360b5	-0.1907986
44	0x3c2e9ae4	0.010657046
45	0xbebcb000	-0.36853027
46	0xbe0a9ee2	-0.13537171
47	0x3e9c528f	0.30531737
48	0x3e72c272	0.23706988
49	0x3e365c27	0.17808591
50	0x3eb178cf	0.34662482
51	0xbe31afc1	-0.17352201
52	0x3db9f502	0.09079935
53	0x3e386961	0.18008949
54	0x3ec077c2	0.37591368
55	0x3ec4a787	0.38409063
56	0xbc79f794	-0.015256781
57	0x3dc405d2	0.09571423
58	0x3e8da97d	0.27668372
59	0xbc0acffb	-0.008472438
60	0xbdcd0b88	-0.10011965
61	0xbd64c834	-0.05585499
62	0xbe3d0f47	-0.18462859
63	0x3eccef45	0.40026298
64	0xbd527879	-0.051384423
65	0xbe4f5356	-0.20246634
66	0x3e9e5c97	0.30930015
67	0x3f000f41	0.50023276
68	0xbe8956b7	-0.2682397
69	0xbd70721c	-0.058702573
70	0x3dd1147e	0.10208987
71	0xbeac6aab	-0.3367513
72	0xbe7c30f6	-0.24628052
73	0xbe470972	-0.19437197
74	0x3ec34a0d	0.38142434
75	0xbdf13f8b	-0.11779698
76	0x3ebe6572	0.37186772
77	0xbea405cc	-0.32035673
78	0x3b9ec1af	0.004844866
79	0x3ec2833f	0.37990758
80	0xbe12ffd7	-0.14355408
81	0xbe8d49f8	-0.27595496
82	0x3eb3c174	0.3510853
83	0x3ebaeec9	0.36510304
84	0xbed0564b	-0.40690836
85	0xbc9561d3	-0.018235123
86	0x3eae7e73	0.34080848
87	0x3dd865e5	0.1056631
88	0x3e670da7	0.22563802
89	0xbe46c2ec	-0.19410294
90	0x3da58f35	0.08083955
91	0xbec05f81	-0.37572864
92	0xbe6674d1	-0.225055
93	0xbd5c9460	-0.05385244
94	0x3e864b0e	0.26229137
95	0x3d0b75e7	0.034047987
96	0xbcef6faf	-0.02922806
97	0xbeac52ef	-0.33657023
98	0x3e83a605	0.257126
99	0x3e4914d8	0.19636858
100	0xbe0a73b7	-0.13520704
101	0x3e9758b9	0.29559878
102	0x3f059d26	0.52192914
103	0x3e2bf5a2	0.1679292
104	0xbd994956	-0.07484691
105	0xbeda95b7	-0.42692348
106	0xbf069aaa	-0.5257975
107	0xbe133769	-0.14376606
108	0xbd9cc96d	-0.076556064
109	0x3efd4542	0.49466902
110	0x3ecb8e0b	0.39756808
111	0x3edc1afe	0.42989343
112	0x3edc59e2	0.43037325
113	0xbcaab05c	-0.020836048
114	0x3e04a049	0.12951769
115	0xbeb2330b	-0.34804568
116	0xbe88fe5a	-0.26756555
117	0x3e3d82bc	0.18506902
118	0x3f0c9096	0.5490812
119	0xbe757b14	-0.23972732
120	0xbe340943	-0.17581658
121	0x3eef41b4	0.46729815
122	0xbbfc42fb	-0.0076984144
123	0xbd1ea45d	-0.038730968
124	0xbe4b1102	-0.19830707
125	0xbea4cb6d	-0.32186452
126	0xbcbe7c0d	-0.023252511
127	0xbeeeb82f	-0.46624896
128	0x3ed0bb39	0.4076784
129	0x3e8c576e	0.27410454
130	0x3e97a6c4	0.2961942
131	0xbdeb2e26	-0.114834115
132	0x3dc76493	0.0973598
133	0x3df50225	0.119633
134	0xbe21cee5	-0.1580158
135	0xbe474054	-0.19458133
136	0x3d853016	0.06503312
137	0xbdcefe83	-0.10107138
138	0x3e7b403d	0.24536224
139	0xbeb93fd4	-0.3618151
140	0xbe1a46a4	-0.1506601
141	0x3e0197ba	0.12655535
142	0x3de17dd4	0.11010328
143	0xbeb75c1e	-0.35812467
144	0xbe1a2209	-0.15052046
145	0x3ec0e3ce	0.376738
146	0xbe57bc87	-0.21068011
147	0x3e2de384	0.16981322
148	0xbecf774b	-0.405207
149	0x3f1143ed	0.5674427
150	0xbe94e4ed	-0.29080907
151	0xbed0cc98	-0.40781093
152	0xbec102b8	-0.37697387
153	0x3e85a34d	0.2610115
154	0x3eabd178	0.3355825
155	0x3d980bb4	0.07424107
156	0xbda95e93	-0.08269992
157	0xbe2610f3	-0.16217403
158	0x3e3efda9	0.18651451
159	0x3ebc64a5	0.36795536
160	0xbeb72f85	-0.35778442
161	0xbbafbe10	-0.0053632334
162	0x3e427d58	0.18993127
163	0xbc47ed44	-0.012202565
164	0x3e02e590	0.12782884
165	0x3f127b83	0.57219714
166	0xbe76bfd0	-0.24096608
167	0x3e62b4be	0.2213926
168	0xbe33dff5	-0.17565902
169	0x3e2518c5	0.1612273
170	0xbe635538	-0.22200477
171	0x3eb3bba9	0.3510411
172	0x3da5d7e7	0.08097821
173	0x3eb4d2b1	0.35316995
174	0x3b234b92	0.002491687
175	0xbcd0d9cb	-0.025494477
176	0xbe8abb27	-0.2709591
177	0x3ec011a0	0.37513447
178	0xbe8f0973	-0.27936897
179	0xbe8254fd	-0.25455466
180	0xbedd09f3	-0.43171653
181	0xbea31d3e	-0.31858248
182	0xbe88be77	-0.26707813
183	0xbeddbe1e	-0.4330911
184	0x3ed30695	0.4121596
185	0x3d6d9dd4	0.058011845
186	0xbe4816ca	-0.19539943
187	0x3e6b0f61	0.22955085
188	0xbea25512	-0.31705528
189	0xbe3c88d1	-0.18411566
190	0xbeb23bf3	-0.34811363
191	0xbe8da561	-0.27665237
192	0xb9d6e4be	-0.00040987687
193	0x3e3b6437	0.18299948
194	0xbe82cb67	-0.2554581
195	0xbedcebde	-0.43148702
196	0x3e8f2c94	0.27963698
197	0x3e7cc7a2	0.24685529
198	0xbe5bc9cf	-0.21463703
199	0xbde6522c	-0.11246142
200	0x3e919779	0.28435877
201	0xbe84e383	-0.25954828
202	0x3eb1931f	0.34682557
203	0xbd105620	-0.035238385
204	0xbe995518	-0.29947734
205	0x3ec03649	0.37541416
206	0xbea676cb	-0.32512507
207	0x3ed12770	0.408504
208	0xbed96a93	-0.42464122
209	0xbebc83e7	-0.36819384
210	0x3ecad86d	0.39618245
211	0x3ea2ad80	0.31772995
212	0xbb8d5f4d	-0.0043143393
213	0x3ebc1304	0.36733258
214	0xbe0ab167	-0.13544236
215	0xbe847a6b	-0.25874647
216	0x3e348d93	0.17632131
217	0xbec8236d	-0.39089528
218	0xbedeb47d	-0.43497077
219	0x3e19366d	0.14962168
220	0xbedb6fd6	-0.42858762
221	0x3e307fb0	0.17236209
222	0xbe71d8f6	-0.2361792
223	0x3d53eb94	0.051738337
224	0x3ee5e046	0.4489767
225	0x3e27ba84	0.16379744
226	0xbe5c7b77	-0.21531473
227	0xbecb5c2e	-0.39718765
228	0x3ed254ab	0.41080222
229	0x3e35fd5d	0.17772432
230	0x3e717f3b	0.23583691
231	0x3ea2532f	0.3170409
232	0x3e8695f0	0.26286268
233	0xbba070cb	-0.0048962585
234	0x3dfed6ba	0.124432996
235	0x3eef8f2d	0.46788922
236	0x3eeff9de	0.4687032
237	0xbdc2d280	-0.09512806
238	0xbe58eb53	-0.21183519
239	0x3edb5765	0.42840114
240	0xbe9197b2	-0.28436047
241	0x3deda3e5	0.11603526
242	0xbefd83eb	-0.49514708
243	0xbeb0f21a	-0.3455971
244	0xbe87a15e	-0.264903
245	0xbeb36ce5	-0.35044017
246	0xbe3fd72f	-0.1873443
247	0xbd0b3cbc	-0.033993468
248	0xbd8693b3	-0.0657114
249	0x3ebebef1	0.37255052
250	0x3e80aa07	0.2512972
251	0x3ec7e9ba	0.39045507
252	0xbed90f94	-0.42394698
253	0x3cebed26	0.028799605
254	0x3eb60436	0.35550088
255	0xbe4d7f1f	-0.20068024

fc.2.weight f4 [256, 256]
0	0xbd6ba2a8	-0.057528168
1	0xbd667f35	-0.056273658
2	0x3d7b1d82	0.061307438
3	0xbc901127	-0.017586304
4	0xbc866198	-0.016403958
5	0xbd124ce8	-0.035717875
6	0x3c31aa60	0.010843843
7	0x3d3d711c	0.046250448
8	0xbd2ec7d3	-0.042671036
9	0xbcd421a0	-0.02589494
10	0x3c8df185	0.01732708
11	0xbbbca4aa	-0.005756934
12	0x3d22b47e	0.039722912
13	0x3ca043dc	0.019563608
14	0xbc85d969	-0.01633902
15	0x3d7866eb	0.060645025
16	0xbd008c08	-0.031383544
17	0xbced5474	-0.028970934
18	0xbcac5c0e	-0.021039989
19	0x3a74c1b9	0.0009336728
20	0x3d746281	0.059664253
21	0x3d3f3d08	0.046689063
22	0xbd23761e	-0.039907567
23	0x3bcc4c60	0.0062346905
24	0x3d476bd6	0.048686825
25	0x3bdfbbaf	0.0068277935
26	0x3c34dc14	0.011038799
27	0xbd11e7bc	-0.03562139
28	0xba5a8748	-0.00083361985
29	0x3d5787c1	0.0526197
30	0xbd2ac01c	-0.041687116
31	0xbb81c363	-0.0039600595
32	0xbb09089f	-0.002090968
33	0xb9d8cbe2	-0.00041350635
34	0x3cb366a8	0.021899536
35	0x3d4a7e6a	0.049436964
36	0x3d33e22b	0.043916862
37	0xbd0381d8	-0.03210625
38	0xbd7482be	-0.059694998
39	0x3d4c1e26	0.04983344
40	0x3b2c71a3	0.002631285
41	0xbcaa25b0	-0.020769924
42	0x3d07de78	0.033171147
43	0xbc86cc80	-0.016454935
44	0xbcc511e9	-0.024056392
45	0xbc409686	-0.011754638
46	0xbd173d18	-0.036923498
47	0xbb74a100	-0.0037327409
48	0xbc4faa1b	-0.012674834
49	0xbd6302a6	-0.055422448
50	0xbd3c0ffb	-0.045913678
51	0x3c100870	0.008791074
52	0x3c877475	0.016535023
53	0x3c238799	0.0099810595
54	0xbbb068df	-0.0053835954
55	0xbc368654	-0.011140425
56	0xbce58f70	-0.028022498
57	0x3782a1bd	1.5572523e-05
58	0xbd13d538	-0.036092013
59	0x3d2d170e	0.042258315
60	0x3d9b0345	0.07568983
61	0x3b552527	0.0032523365
62	0x3cf71b47	0.030164374
63	0x3d0a36ca	0.033743657
64	0x3d52cb9c	0.05146371
65	0xbca0e154	-0.019638695
66	0xbd1fb532	-0.03899116
67	0x3ce161a8	0.027512386
68	0x3be36ac0	0.006940216
69	0x3c25ab20	0.0101116
70	0xbb5c34c0	-0.0033600777
71	0x3d717cd6	0.058956943
72	0x3d19ebb8	0.037578315
73	0x3d187c38	0.03722784
74	0x3cf93d41	0.030424716
75	0x3d0551fc	0.03254889
76	0x3d82bf2c	0.063841194
77	0xbcc6c7a6	-0.024265122
78	0xbd4f3181	-0.05058432
79	0x3d601a21	0.05471242
80	0x3d255c01	0.040370945
81	0x3d44a72b	0.048010986
82	0xbd43d851	-0.047813717
83	0xbb6741f2	-0.003528711
84	0xbd37fc24	-0.044918194
85	0x3b74bf80	0.0037345588
86	0xbd1343c9	-0.035953317
87	0xbd3c26b5	-0.04593535
88	0xbbaf251a	-0.005344999
89	0xbd1e923c	-0.03871368
90	0x3b87a709	0.004139785
91	0x3d11a440	0.03555703
92	0x3b6eeb80	0.0036456287
93	0x3d053d7a	0.03252933
94	0xbc3f1ba0	-0.011664301
95	0xbd717a9f	-0.05895483
96	0x3ccd8ee4	0.02509255
97	0x3cdd7097	0.027031226
98	0x3d09e2d4	0.033663586
99	0xbd3327b2	-0.04373903
100	0x3d00b26a	0.03142015
101	0xbd212b37	-0.039347854
102	0x3b72beb9	0.003703995
103	0xbd6e08d8	-0.058113903
104	0x3d12c5f2	0.035833307
105	0xbd229d93	-0.039701056
106	0xbc95eeaf	-0.01830229
107	0xbd558055	-0.05212434
108	0x3d1be2af	0.03805798
109	0xbd60cd8c	-0.054883525
110	0x3bb38fa0	0.005479768
111	0xbc94d8dc	-0.018169813
112	0xbd7d746d	-0.06187861
113	0xbc108480	-0.008820653
114	0x3ca2a21c	0.01985269
115	0x3cc8f320	0.024529994
116	0xbb88f89b	-0.0041800267
117	0x3d6f39be	0.058404677
118	0x3cdaf5b2	0.026728485
119	0xbccb1639	-0.02479087
120	0xbce4fd37	-0.027952773
121	0xbbde8b18	-0.0067914836
122	0x3c174b19	0.009234213
123	0x3d42250e	0.04739862
124	0x3cec5ea0	0.028853714
125	0x3cc4d61c	0.024027877
126	0x3d04be73	0.03240819
127	0x3d155893	0.036461424
128	0xbd114710	-0.03546816
129	0xbcd700c7	-0.026245488
130	0x3c040932	0.008058833
131	0x3c07b116	0.008281967
132	0xbd07a591	-0.03311688
133	0xbd3e42c7	-0.046450403
134	0xbc88e3dc	-0.016710214
135	0x3ceae821	0.02867514
136	0x3d28ce12	0.04121215
137	0x3d6122f1	0.054964963
138	0x3d009232	0.031389423
139	0xbd3754b8	-0.04475853
140	0xbd062fbc	-0.032760367
141	0xbc2ff708	-0.010740049
142	0xbc0eeab5	-0.008722951
143	0xbca45bcc	-0.020063303
144	0xbc270c93	-0.010195869
145	0xbd5bc3c1	-0.053653482
146	0x3d1a1952	0.037621804
147	0xbcf4b858	-0.029873058
148	0x3c22e331	0.009941862
149	0xbd0cd1e0	-0.03437984
150	0xbcbcc988	-0.023045316
151	0x3c6a62e0	0.0143058
152	0xbd857a70	-0.06517494
153	0x3d3d5868	0.04622689
154	0x3cc697a4	0.02424223
155	0x3d174ba8	0.036937386
156	0x3c4810b8	0.012211017
157	0x3d2979ba	0.041375853
158	0x3d3dd27a	0.046343304
159	0xbce95ee3	-0.028487628
160	0xbcf29fc5	-0.0296172
161	0xbd69d659	-0.057089183
162	0x3c3e3b20	0.011610776
163	0x3d3aa2bb	0.045565348
164	0xbaf8867a	-0.0018960976
165	0x3ca81678	0.020518526
166	0xbd365129	-0.044510994
167	0xbd228110	-0.039673865
168	0x3d66d6ee	0.056357317
169	0x3cb5b635	0.02218161
170	0x3d079f0f	0.033110674
171	0x3c2500f2	0.010071026
172	0xbcef1ccc	-0.029188536
173	0x3d4acb0e	0.049510054
174	0xbc91c6b7	-0.01779495
175	0xbd25ce9e	-0.04048025
176	0xbc976ca7	-0.018484427
177	0x3cfa252c	0.030535303
178	0x3b0e5824	0.0021720016
179	0xbda28507	-0.07935529
180	0x3d02470e	0.031806044
181	0x3cb3f719	0.021968411
182	0x3cb0ab2c	0.021565996
183	0xbc49e40d	-0.012322438
184	0x3c672b01	0.014109374
185	0xbd3433c9	-0.0439947
186	0x3d8f4e40	0.06997347
187	0xbd20109a	-0.039078332
188	0xbd29334f	-0.041308697
189	0x3cdc1598	0.026865765
190	0x3c96b9f2	0.018399213
191	0x3d1df8fc	0.038567528
192	0xbbfe9a72	-0.007769876
193	0xbcf12649	-0.029437201
194	0xbc7b3ed8	-0.015334807
195	0xbb8164f0	-0.0039488003
196	0x3d55e339	0.05221865
197	0x3d65a62a	0.05606667
198	0x3ca6b837	0.020351512
199	0x3c250cd8	0.010073863
200	0xbbff0824	-0.007782953
201	0x3d02f7c2	0.03197456
202	0xbd6f3dfe	-0.05840873
203	0x3d4c27bc	0.04984258
204	0x3d11479d	0.035468686
205	0xb98aad14	-0.00026450364
206	0x3d4619f3	0.04836459
207	0x3d7c4ec1	0.061598543
208	0x3d2887f7	0.04114529
209	0xbd5f12a4	-0.054461136
210	0xbc85eb85	-0.016347656
211	0xbd06612e	-0.03280752
212	0xbd35f86b	-0.044426363
213	0xbd6b3fdc	-0.057433948
214	0x3d265fd2	0.040618725
215	0xbd7415ea	-0.05959121
216	0xbd0f3f85	-0.034972686
217	0xbd0c89d5	-0.034311134
218	0x3d2bf9cd	0.041986275
219	0xbd74cd90	-0.059766352
220	0x3bc12ffd	0.005895613
221	0xbcd7a740	-0.026324868
222	0x3d279395	0.04091223
223	0xbd69c3cb	-0.05707149
224	0xbd429ba2	-0.047511704
225	0x3d21408c	0.039368197
226	0x3a757041	0.00093627354
227	0xbd1f2416	-0.038852774
228	0x3cd7cddb	0.026343277
229	0xbd802d39	-0.062586255
230	0x3d596d96	0.053083025
231	0xbd043582	-0.03227759
232	0x3d76ea8b	0.06028227
233	0x3d0bcdd2	0.034131832
234	0x3cf50284	0.029908426
235	0x3d1dffab	0.038573902
236	0xbd3ddda5	-0.046353955
237	0xbd40310a	-0.046921767
238	0xbc01a049	-0.00791175
239	0x3d5a7f1d	0.05334388
240	0x3d6ffbd0	0.058589756
241	0xbd7973b0	-0.060901344
242	0xba86e7fd	-0.0010292527
243	0x3c834167	0.016022397
244	0x3b4ba547	0.0031073855
245	0x3c89637d	0.016771073
246	0x3d71cdf8	0.059034318
247	0x3d3f1537	0.04665109
248	0x3d518e66	0.051161192
249	0xbd09614b	-0.03354005
250	0x3c368955	0.011141141
251	0xbd2baefc	-0.041914925
252	0xbd20aed0	-0.039229214
253	0x3c0e4158	0.008682571
254	0xbd633e4a	-0.055479325
255	0x3d6b0aaa	0.057383217

fc.2.bias f4 [256]
0	0x3c0ee5ed	0.008721811
1	0xbdf14762	-0.11781193
2	0xbd27f003	-0.041000377
3	0xbdbeaf0d	-0.09310732
4	0xbd7efc05	-0.062252063
5	0xbc071090	-0.008243695
6	0x3dd6d3fd	0.10489652
7	0x3e13cc37	0.1443337
8	0x3d889de8	0.06670743
9	0xbdd0196a	-0.10161097
10	0xbdc796b9	-0.09745545
11	0x3e24ab86	0.16081056
12	0x3cb520b2	0.022110317
13	0x3c96841d	0.018373543
14	0xbc45cec6	-0.012073224
15	0xbcad7c7a	-0.02117752
16	0x3d37c1d4	0.044862583
17	0x3d80018b	0.06250294
18	0x3d10f176	0.035386525
19	0x3d2bf332	0.041979976
20	0xbd8e7326	-0.069555566
21	0x3c50b74d	0.012739015
22	0x3dbc46e5	0.091932096
23	0xbc32db71	-0.010916577
24	0x3e1bcf75	0.15215857
25	0x3cce5e82	0.02519155
26	0x3e10167b	0.14071076
27	0xbd8e8bbe	-0.069602475
28	0x3d85b535	0.06528703
29	0xbd434fa5	-0.047683377
30	0x3d12a7e3	0.03580464
31	0x3d447015	0.047958452
32	0xbc91e38c	-0.017808698
33	0xbd692865	-0.05692329
34	0xbcc18213	-0.023621595
35	0x3d20413b	0.03912471
36	0xbba50514	-0.0050360058
37	0xbd7208d0	-0.059090436
38	0xbc8b613c	-0.017014138
39	0x3d393e42	0.04522539
40	0xbce3ae8b	-0.02779319
41	0x3da89da9	0.08233196
42	0x3d1e11d7	0.038591232
43	0x3e14bd17	0.14525257
44	0x3d217340	0.03941655
45	0x3d425d60	0.04745233
46	0xbd4af315	-0.049548227
47	0xbc850428	-0.016237333
48	0xbd2f36f4	-0.042777017
49	0xbc35ced0	-0.011096671
50	0x3ccded55	0.025137583
51	0x3da75ebe	0.081723675
52	0xbd47df1d	-0.04879676
53	0xbdf31c40	-0.11870623
54	0xbdadf59f	-0.08494114
55	0x3dc100c1	0.09423972
56	0xbd0e6632	-0.03476543
57	0xbd180df4	-0.03712268
58	0x3e26e3ee	0.16297886
59	0x3d185e52	0.037199326
60	0x3c660078	0.014038198
61	0x3d78c89c	0.06073819
62	0xbc1c9a77	-0.009558312
63	0x3d0a96c9	0.033835206
64	0x3c49b390	0.012310877
65	0x3d0d6a53	0.034525227
66	0xbd3d837f	-0.046267983
67	0x3c0d258a	0.008614907
68	0xbd474c14	-0.048656538
69	0x3e48a440	0.19593906
70	0x3d6ea23a	0.05826018
71	0x3dd19fb5	0.1023554
72	0xbbd40c7a	-0.006471214
73	0xba1b7730	-0.0005930541
74	0xbca79a55	-0.020459333
75	0x3ddcd651	0.10783065
76	0x3d333fac	0.043761894
77	0x3d226b39	0.039653037
78	0x3d1da466	0.03848686
79	0xbd318bf0	-0.043346345
80	0x3d3ed283	0.04658748
81	0xbd3bdbfc	-0.04586409
82	0x3defd1a7	0.1170991
83	0x3d9b47bb	0.07582041
84	0xbd453a08	-0.048151046
85	0xbd6f14a6	-0.0583693
86	0x3caf7b2f	0.021421043
87	0x3c81f098	0.015861794
88	0x3c38fd78	0.0112909
89	0x3dbcee46	0.092251346
90	0xbdd3acd1	-0.103356965
91	0xbd178f30	-0.03700179
92	0xbdf44fea	-0.11929305
93	0x3cbbe9bc	0.022938602
94	0x3d91bccf	0.071160905
95	0xbcfcab36	-0.030843358
96	0x3e0152e8	0.12629282
97	0x3ccbfc08	0.024900451
98	0x3dbcd416	0.0922014
99	0xbd01c897	-0.031685438
100	0xbcec0c8e	-0.02881458
101	0x3d23203f	0.039825674
102	0x3d004482	0.031315334
103	0xbd8404c7	-0.06446224
104	0x3d1667a9	0.03671995
105	0xbc89a9cc	-0.016804598
106	0x3e1e059f	0.15431832
107	0xbdb9c000	-0.09069824
108	0x3d48b9e3	0.0490054
109	0x3cb88ef2	0.0225291
110	0xbcccfefc	-0.02502393
111	0xbcac6263	-0.021043008
112	0x3d605fdc	0.05477892
113	0xbd683ed8	-0.056700557
114	0x3df11ed7	0.1177346
115	0x3ca77185	0.020439873
116	0xbbea553b	-0.0071512735
117	0x3da0ee2a	0.07857926
118	0xbc889e5c	-0.016677074
119	0xbc9da439	-0.019243347
120	0xbba1c349	-0.00493661
121	0x3dc1f23a	0.09470029
122	0x3bfcbec5	0.007713171
123	0x3de49b93	0.11162486
124	0xbb069efc	-0.002054154
125	0x3d534448	0.05157879
126	0x3d5026a2	0.050818093
127	0xbd2ffce6	-0.042965792
128	0xbdc06bdb	-0.09395572
129	0xbce2ddd6	-0.02769367
130	0x3d92cf01	0.07168389
131	0xbc481070	-0.01221095
132	0x3ab84329	0.0014058101
133	0x3d25a9d9	0.040445182
134	0xbdece7e2	-0.11567666
135	0xbd744a90	-0.05964142
136	0xbd16c8cb	-0.036812585
137	0x3c83912c	0.016060434
138	0x3d1c415b	0.038148265
139	0x3dc0e0c1	0.094178684
140	0xbd12a4b8	-0.03580162
141	0xbd4b1194	-0.04957731
142	0xbd47845e	-0.04871022
143	0xbd077aed	-0.033076216
144	0xbcb9a43c	-0.02266132
145	0xbd1461aa	-0.036225952
146	0x3d8c3647	0.0684629
147	0x3d8e925f	0.06961512
148	0x3cf28fa4	0.029609509
149	0x3d6e6103	0.058197986
150	0xbc9a0a40	-0.018803716
151	0x3e0f8112	0.1401408
152	0xba60b441	-0.0008571782
153	0x3d311d90	0.043241084
154	0xbc8e9368	-0.017404273
155	0xbd0912cf	-0.033465203
156	0x3d61705c	0.055038795
157	0x3d8efccd	0.06981812
158	0xbd91a7a3	-0.07112052
159	0x3d01c2b0	0.03167981
160	0x3cd0bcde	0.025480684
161	0xbb16d680	-0.0023016036
162	0x3d4d8e3a	0.050184466
163	0x3a222d82	0.0006186591
164	0x3da91996	0.08256833
165	0xbde61e30	-0.112362266
166	0x3dcf4529	0.10120613
167	0x3c89dfe1	0.016830387
168	0x3d5e8b6f	0.054332193
169	0x3d49e95e	0.049294822
170	0x3ce63d8f	0.028105525
171	0xbd3de8a4	-0.04636444
172	0xbcf5c784	-0.030002363
173	0xbd0233c4	-0.03178765
174	0xbc5906f0	-0.013246283
175	0x3d6f763c	0.058462366
176	0xbd9f8512	-0.07789053
177	0xbdb31b6a	-0.08745463
178	0x3c201591	0.009770767
179	0x3c606c93	0.013697761
180	0xbc8d73fe	-0.017267223
181	0xbb44ee80	-0.0030049384
182	0x3d5b4261	0.0535301
183	0x3b1048e0	0.0022016093
184	0xbcade383	-0.02122665
185	0xbdf1f5d4	-0.11814466
186	0xbcba28c8	-0.022724524
187	0x3db035cb	0.0860401
188	0x3bfc6c8c	0.0077033695
189	0xbd48c994	-0.049020365
190	0x3d5bf807	0.053703334
191	0x3dc66114	0.09686485
192	0xbd18a504	-0.037266746
193	0xbd2bd2c1	-0.041949037
194	0xbdde3f00	-0.1085186
195	0x3d27d24b	0.040972035
196	0xbc0a133a	-0.0084274355
197	0x3cba07bc	0.022708766
198	0x3d254500	0.040349007
199	0xbd36670e	-0.044531874
200	0xbd77da6d	-0.06051104
201	0xbc246f20	-0.01003626
202	0xbdda2ba3	-0.10652854
203	0xbd410c2b	-0.047130745
204	0x3ddaa1f9	0.10675425
205	0xbd550fa9	-0.052016888
206	0x3ce00446	0.027345788
207	0x3d75008b	0.05981497
208	0x3d2c7bee	0.042110376
209	0xbc0c62a3	-0.008568439
210	0xbde293a6	-0.11063318
211	0xbd1fdf86	-0.039031528
212	0x3d3a11f7	0.04542729
213	0xbd352bac	-0.044231102
214	0xbdcec1fe	-0.10095595
215	0x3d57ca1b	0.052682977
216	0x3df3bac8	0.1190086
217	0xbd5c80cc	-0.053833768
218	0x3e00afd5	0.12567075
219	0x3b6c70b2	0.0036077914
220	0x3d2453e2	0.04011906
221	0x3dd99fd7	0.1062619
222	0x3caa17f2	0.020763371
223	0x3d293db3	0.041318607
224	0x3a3cd4c9	0.00072033383
225	0x3c12c428	0.0089579
226	0x3d5b3731	0.05351943
227	0xbd91942f	-0.07108342
228	0xbd28f7e8	-0.041252047
229	0x3bee4bdb	0.0072722263
230	0x3d053f0c	0.03253083
231	0x3d765c77	0.060146775
232	0xbbe99580	-0.0071284175
233	0x3cfe6c2c	0.03105744
234	0xbdd4c5ac	-0.103892654
235	0x3ccd6835	0.025074104
236	0x3e1dcc29	0.15409912
237	0xbdcdb5e5	-0.10044459
238	0xbd2eb104	-0.042649284
239	0xbd87c949	-0.06630189
240	0xbd4b185b	-0.049583774
241	0xbdb3bbea	-0.08776076
242	0x3d5e33ca	0.05424861
243	0xbd4d05ca	-0.05005435
244	0xbaee293d	-0.0018170249
245	0xbd2747ba	-0.04083989
246	0x3d831017	0.06399553
247	0xbd2c781a	-0.042106725
248	0xbd5a4d2e	-0.05329626
249	0xbd0b01df	-0.03393733
250	0x3ca7b3ad	0.020471418
251	0x3d40da26	0.047083043
252	0x3d089c8e	0.033352427
253	0xbc20ba6f	-0.009810074
254	0x3dcdd0fd	0.10049627
255	0xbcfdaca7	-0.030966116

fc.4.weight f4 [1, 256]
0	0x3bc0b861	0.0058813547
1	0xbd55ef29	-0.052230034
2	0xbd40b8a3	-0.047051083
3	0xbc5500c0	-0.013000667
4	0x3c5356b2	0.012899088
5	0x3d57c2ec	0.052676126
6	0x3cbd840b	0.023134252
7	0x3d78d8f9	0.060753796
8	0x3c21851e	0.009858398
9	0xbcaed3fc	-0.021341316
10	0xbd61b99b	-0.055108648
11	0x3dc6f704	0.09715083
12	0xba2aa790	-0.0006509954
13	0x3c04602f	0.008079573
14	0xbd200741	-0.039069418
15	0xbb356fab	-0.0027684967
16	0x3d152488	0.036411792
17	0x3ca95258	0.020669147
18	0xbd456d6e	-0.048200063
19	0x3d13fbf2	0.036128946
20	0xbbaa1e87	-0.0051916274
21	0xbcd90dc0	-0.026495814
22	0x3cd28c1e	0.025701579
23	0x3d16d44c	0.036823556
24	0x3ccb6720	0.024829447
25	0x3c7b0b90	0.015322581
26	0x3de47f37	0.11157077
27	0xbd7929d0	-0.06083089
28	0x3d0a7692	0.033804484
29	0x3ba6be3d	0.005088596
30	0x3d048739	0.03235552
31	0x3d134cf5	0.035962064
32	0x3d390e0a	0.045179404
33	0x3c58a485	0.013222818
34	0xbaddd01c	-0.0016922983
35	0xbc4bd7b5	-0.012441565
36	0xbc8d09f6	-0.017216664
37	0x3ccfbd50	0.025358826
38	0x3d52f96c	0.0515074
39	0x3d3c4a12	0.045969076
40	0xbd21400d	-0.039367724
41	0x3d6f3acc	0.058405682
42	0x3cecfa95	0.02892808
43	0x3d80a412	0.06281294
44	0x3d1c2d6a	0.038129248
45	0xbd3753f4	-0.0447578
46	0x3d0abc40	0.033870935
47	0x3d33bf72	0.04388375
48	0x3d4f132a	0.050555386
49	0x3d302262	0.04300154
50	0x3b7200a5	0.0036926654
51	0x3ce84554	0.02835337
52	0xbd246fb3	-0.040145587
53	0xbcc82e46	-0.024436127
54	0xbcdddef9	-0.02708386
55	0x3d206fc6	0.039169095
56	0xbb92f690	-0.004484959
57	0x3d778a3d	0.06043457
58	0x3d614ce1	0.055004958
59	0x3d156b92	0.03647954
60	0x3c8f4f48	0.017493859
61	0x3d0e26aa	0.03470484
62	0x3d870143	0.065920375
63	0x3cfc28ab	0.03078111
64	0xbd2c9d37	-0.04214212
65	0x3d6fe104	0.0585642
66	0xbd44a872	-0.048012204
67	0x3caca204	0.021073349
68	0x3caa299c	0.020771794
69	0x3da01da3	0.07818153
70	0xbcbcc847	-0.023044718
71	0x3c178e87	0.00925029
72	0xba833b4d	-0.001001218
73	0xb9f9fb84	-0.00047680375
74	0xbb7b2839	-0.0038323535
75	0x3c923b84	0.017850645
76	0xbbc5df56	-0.0060385866
77	0x3c530983	0.012880686
78	0x3d335bbe	0.043788664
79	0xbd1e3d7b	-0.03863285
80	0xbd1cda30	-0.038294017
81	0xbca12f42	-0.019675855
82	0x3d25221b	0.04031573
83	0x3cdfe804	0.027332313
84	0x3d18d8ec	0.037316248
85	0xbc726368	-0.014794208
86	0x3ca22e40	0.019797444
87	0xbd6dc345	-0.05804755
88	0xbcf813f8	-0.03028296
89	0x3d6ad1bd	0.05732893
90	0xbc1a45fe	-0.0094161015
91	0xbcb8c677	-0.022555573
92	0xbcc0babb	-0.02352654
93	0x3c545358	0.012959324
94	0x3d6e7e93	0.05822618
95	0xbd259569	-0.04042569
96	0x3d13977e	0.036033146
97	0xbd6894e3	-0.056782614
98	0x3c126d4b	0.00893719
99	0xbd72043e	-0.059086077
100	0xbd8051fd	-0.06265638
101	0xbd2a3af4	-0.04156013
102	0xbd59a1c5	-0.05313279
103	0xbd3efb1f	-0.046626206
104	0x3d9a45af	0.07532822
105	0xbc2bf394	-0.010495085
106	0x3d5b0a76	0.053476773
107	0xbb947b3b	-0.004531292
108	0x3bdf72ba	0.0068190964
109	0x3c55ddd0	0.0130533725
110	0xbd08d253	-0.033403706
111	0xbbf457b5	-0.0074567446
112	0xbcad8134	-0.021179773
113	0xb9319880	-0.00016936846
114	0x3d7b2261	0.061312083
115	0x3c6e4d3e	0.014544783
116	0xbc347f3d	-0.011016664
117	0x3c3df869	0.01159487
118	0xbc565fe0	-0.013084382
119	0x3d04e33c	0.03244327
120	0x3c0f50ae	0.008747263
121	0x3cdccca6	0.026953053
122	0x3c138b12	0.009005325
123	0x3d327088	0.04356435
124	0xbcb82553	-0.022478735
125	0xbcaeb592	-0.021326814
126	0x3ccf22b9	0.025285112
127	0x3d1b5e36	0.037931643
128	0xbd3bce17	-0.04585084
129	0xbcd9a33a	-0.02656709
130	0x3d309785	0.04311325
131	0xbcb84d38	-0.022497758
132	0x3d3bc99b	0.045846563
133	0x3c5842ba	0.013199503
134	0xbcb28aaf	-0.021794645
135	0x3d534362	0.051577933
136	0xbd0f7770	-0.035026014
137	0x3cecf588	0.028925672
138	0x3c0a0bc6	0.008425659
139	0x3c84c9fd	0.016209597
140	0x3c5d5091	0.013507978
141	0x3d589c5e	0.0528835
142	0x3b6b4100	0.0035896897
143	0x3bcfe0b3	0.006343925
144	0xbc1cd57d	-0.009572384
145	0xbd1fca6d	-0.039011408
146	0x3d15bb1c	0.036555395
147	0x3d5c8c0a	0.05384449
148	0xbcae3dcb	-0.0212697
149	0xbd07bca5	-0.03313889
150	0xbcf163a0	-0.02946645
151	0x3d6eb289	0.058275733
152	0x3d0db3de	0.034595363
153	0x3d0460c2	0.032318838
154	0xbb35af01	-0.0027722719
155	0x3cdcb98e	0.026943948
156	0xbce4b48d	-0.027918125
157	0x3d44e8f7	0.048073735
158	0xbd0fe200	-0.03512764
159	0xbd3d6025	-0.04623427
160	0x3ccb7a32	0.02483854
161	0x3c55a680	0.013040185
162	0x3d005a9b	0.031336408
163	0x3d02db58	0.031947464
164	0x3ce6adf2	0.028159115
165	0xbd069b7e	-0.032863133
166	0x3c8d1f13	0.017226731
167	0x3b90c0e9	0.004417528
168	0x3d6e7274	0.05821462
169	0xbd6d5602	-0.05794335
170	0x3d13b097	0.03605708
171	0xbcddf892	-0.027096067
172	0xbc59a8a9	-0.013284841
173	0x3bcda020	0.006275192
174	0xbd57b522	-0.052662976
175	0x3d4eeefb	0.05052088
176	0xbd253fc6	-0.040344022
177	0xbcf8aac8	-0.030354872
178	0x3903344f	0.0001251262
179	0x3d0e63d6	0.03476318
180	0xbd5a2c7a	-0.053265072
181	0xbb100d80	-0.0021980703
182	0x3d26a4b8	0.04068443
183	0xbd6d29ba	-0.05790112
184	0xbd254e6e	-0.040358
185	0xbd65c970	-0.05610031
186	0xbadac2e0	-0.0016690157
187	0x3caf7560	0.021418273
188	0xbc9374bb	-0.017999997
189	0xbd6f0654	-0.058355644
190	0xbc7799c5	-0.015112345
191	0x3d4db18f	0.05021816
192	0xbb053bf8	-0.0020329934
193	0xbd586f3c	-0.052840456
194	0xbcaa0ffb	-0.020759573
195	0x3d270aa6	0.04078164
196	0xbd2886d7	-0.04114422
197	0x3cadfe98	0.021239564
198	0xbd626219	-0.055269334
199	0xbd48ece3	-0.049054038
200	0xbd5674ef	-0.05235761
201	0x3d60ec1c	0.05491267
202	0xbb9ff961	-0.004882023
203	0xbc415f0b	-0.011802445
204	0x3d54971e	0.05190193
205	0xbd627f12	-0.055296965
206	0x3c324f97	0.0108832335
207	0x3bff8987	0.007798377
208	0x3ca072c7	0.01958598
209	0xbd0a4a98	-0.033762544
210	0xbb812e4d	-0.003942287
211	0xbc227d28	-0.009917535
212	0xbceb31d1	-0.028710278
213	0xbd5d01ab	-0.05395667
214	0xbc97bdad	-0.018523062
215	0x3d40137d	0.046893585
216	0x3c6e5a39	0.014547878
217	0x3d30b9f0	0.043146074
218	0x3c0f2015	0.008735676
219	0xbcd76191	-0.02629164
220	0x3d465586	0.048421405
221	0x3c58281b	0.013193156
222	0x3cf502ae	0.029908504
223	0x3cf46996	0.029835504
224	0xbd48f9df	-0.04906642
225	0xbce92beb	-0.028463325
226	0x3d5eb98d	0.054376174
227	0xbd79db45	-0.061000127
228	0xbd226346	-0.039645456
229	0x3cdfd141	0.02732146
230	0xbd66d27c	-0.056353077
231	0x3d431b7e	0.04763364
232	0x3d004fd6	0.031326137
233	0x3ce1daa8	0.027570084
234	0xbd0c4852	-0.034248658
235	0x3d3cab6b	0.046061914
236	0x3ce5608b	0.028000137
237	0xbd6cf38f	-0.057849463
238	0xbb7fa574	-0.003900853
239	0xbd502703	-0.050818454
240	0x3cd8da22	0.026471201
241	0xbc1935c4	-0.009351198
242	0x3d32909f	0.043594953
243	0x3d45910a	0.048234023
244	0xbc98dbbd	-0.018659467
245	0x3d105852	0.03524048
246	0x3d25b7d3	0.04045851
247	0xbd122618	-0.03568086
248	0xbd5ac3ed	-0.053409506
249	0xbc4638c1	-0.012098492
250	0x3c2b976e	0.010473115
251	0x3c314c2c	0.010821383
252	0x3c139f15	0.009010096
253	0xbcb62bbe	-0.022237655
254	0x3caf6958	0.021412537
255	0xbd1f1d7b	-0.038846474
