models/tetris.pt (torch, 272702 bytes, 5 tensors)

fc.0.weight f4 [256, 5]
00000000: 6318 c2be 241c be3e 00e2 2b3e eceb a4bd
00000010: 1471 e0bd e233 bd3e 5801 8c3d be5a d2be
00000020: 1688 ae3e 00e0 e9bb 7bc6 b4be 9c42 093e
00000030: 6792 e3be f4ab c6be f4d4 72be ee5d 8e3e
00000040: 9829 d7be 563e 0bbe 4abd a73e fc63 c9bd
00000050: acf6 c5be 995f babe a33d 51be 5f6d 4fbe
00000060: a02c 8a3d 2441 c93e e884 be3d 2df4 c1be
00000070: aacd 23be ac6f 14be e84e 7ebd a03b 3bbe
00000080: a2f6 a33e 12b7 b43e c4ff 8bbe 50cc 2f3e
00000090: da09 4ebe d8d8 acbe ea15 a73e 6aea e23e
000000a0: 40fa 48be 0a73 33be 08e0 923e c50a bcbe
000000b0: 50bf d2bd a648 b7be 68a6 b73e fbde a6be
000000c0: 30ab ab3e 9808 833e 5ace a6be 681e 81be
000000d0: 2234 61be 8841 cabe d9e7 a2be 5e82 c6be
000000e0: e2f1 27be a04b 173e 78ba d13e d2fb 00be
000000f0: 4c0f b7be 8a6a 43be 04de 8ebd 6c5c f1bd
00000100: bce0 9e3e 7428 35be a8e1 35be 1be1 76be
00000110: 285c fa3d fa64 bc3e c8fa c83e 1495 903e
00000120: 4cb0 82bd d5d2 8dbe 9cc2 863e 60f2 983d
00000130: e04f 113c fa46 3bbe be36 82be 465c 1cbe
00000140: 90b3 f03c 0082 373b 98a3 743e 4064 763e
00000150: 0845 b7bd 1294 75be c0ca 50bc 0368 86be
00000160: eab2 04be 6bd8 79be 8896 84bd 60de 5b3d
00000170: 5075 e8bd a474 653e 2036 54be a4d3 d8be
00000180: 801d 90be 07f1 4abe ae9a 853e 384a 2bbe
00000190: 664d c63e 804d 953e e69e 38be 5c72 1c3e
000001a0: 28ff 32be cf8c e0be bc8a 83bd 1c87 17be
000001b0: b673 c03e b861 05bd 408b 1fbd 6262 a73e
000001c0: 257f c8be 823b 943e 6eb8 b4be d415 643e
000001d0: 4808 62be 825b bf3e 70fa 7a3e 383f bc3e
000001e0: f884 c73e 60f8 29bc 8072 4dbc 2e0d 9ebe
000001f0: 36e5 a13e 104a cfbd 0088 1bb9 9ed0 9a3e
00000200: aab8 c83e 58f5 da3d b85e 0c3e cfb4 87be
00000210: 003a 013b 227e 893e e09f 923d 9b65 68be
00000220: 4afc 83be f893 b5bd 4aa9 c43e 4074 c9bd
00000230: 3867 ce3e 780c a9be 982d 7fbd ffe7 8fbe
00000240: 7d8c a8be cee1 8f3e 9b84 d6be 19b8 74be
00000250: f0a4 8fbc e49f 983e 2896 953e 841e 493e
00000260: 8ec8 dc3e 89e1 56be 9c3d c43e 9ae5 d83e
00000270: 9491 d93e 360c a13e 3657 29be 5c6d 6d3e
00000280: 119e babe 401b 2c3d acaf d6be a06e 7fbc
00000290: 8c27 663e e0ec efbc 287f cfbe dce5 a3bd
000002a0: d426 95be 1ed1 cf3e cd23 b9be e43a c3bd
000002b0: fcd9 88be 2021 4c3e 00b0 35b9 30ac 8fbc
000002c0: 802c d93e e828 dd3d 404c a83c 40d4 babc
000002d0: 7cab bd3e 58e6 3fbe 2486 cb3e 42e9 c8be
000002e0: 4d9e 92be 7881 75be 8031 36bc 28d6 413d
000002f0: 4193 6abe 205c ddbe 1cd2 523e b879 6a3e
00000300: 5071 563e 7c50 933e 7831 83bd e858 113e
00000310: e07a fabd 656e d3be b0c6 623d 78a9 5dbd
00000320: 40c3 603e 3651 bebe 907f 05bd 4c15 1ebe
00000330: 0053 573d 2eca 55be 5cb3 0e3e 7a33 9fbe
00000340: 9066 193d e486 d03e 6207 e13e 8872 8cbe
00000350: bcc6 e23e 7de4 e3be d09c 5d3d 5c25 cdbd
00000360: d80f 9bbe 60c8 2f3d 200c d4bc 50fd 4dbd
00000370: f019 3a3d fb75 cbbe 28af f63d 081a 903e
00000380: cfac 5ebe 900e 3b3e d0b6 713d 04f0 e3be
00000390: 90e3 efbd 7443 98be a8f7 7ebd 3081 f83d
000003a0: 8e62 c93e 3e2d e23e f805 56be f003 94bc
000003b0: 9660 ab3e f8af b43e 5451 52be a511 bcbe
000003c0: 9cd6 d83e 5865 1bbe e8a2 be3e 436b d3be
000003d0: 7a02 d3be 7ab1 b93e 484d 983e c5ba d6be
000003e0: c69c babe d53a 9ebe f8e7 743e 04ac cabe
000003f0: e2ff 0ebe bc8a 683e eeb1 a6be c3e1 e3be
-0.3790923 0.37130845 0.16785431 -0.08052811 -0.10959068 0.36953646 0.06836194 -0.41084856
0.340882 -0.0071372986 -0.3530768 0.13404316 -0.44447634 -0.38803065 -0.23714048 0.27806038
-0.4202392 -0.13597998 0.32761604 -0.09833524 -0.38664758 -0.3640106 -0.20433669 -0.20256566
0.06746793 0.3930751 0.093026936 -0.37881604 -0.15996423 -0.14495724 -0.06208697 -0.18284464
0.32024103 0.35295922 -0.2734357 0.17167783 -0.20120946 -0.3375919 0.32633907 0.4431947
-0.19626713 -0.17524353 0.28686547 -0.36726967 -0.10290396 -0.35797614 0.35869145 -0.32591996
0.33529043 0.25592494 -0.3257931 -0.2521851 -0.21992543 -0.3950312 -0.3181751 -0.38771337
-0.16400865 0.14774942 0.40962577 -0.12596062 -0.35753858 -0.1908361 -0.0697594 -0.11785206
0.31030834 -0.17691213 -0.17761862 -0.24109308 0.12224609 0.3679579 0.3925383 0.28238738
-0.06381282 -0.27699915 0.2632035 0.07468104 0.008869141 -0.18288794 -0.2543239 -0.15269575
0.029382497 0.002800107 0.23890531 0.2406168 -0.089487135 -0.23982266 -0.012743652 -0.2625123
-0.12958875 -0.24398963 -0.06474024 0.05367887 -0.113505006 0.22407776 -0.20723772 -0.4234897
-0.28147507 -0.19818507 0.26094574 -0.16727531 0.38730925 0.2916069 -0.18029365 0.15278
-0.17480147 -0.43857428 -0.06422946 -0.14797634 0.3758828 -0.032563895 -0.03895116 0.32692248
-0.39159504 0.2895165 -0.3529696 0.22273952 -0.22073472 0.37374502 0.24509597 0.36766982
0.38968635 -0.010374159 -0.012539506 -0.3086943 0.31620187 -0.10121548 -0.00014832616 0.30237287
0.39203387 0.10691327 0.13708007 -0.26505134 0.0019718409 0.26854044 0.071594 -0.2269501
-0.2577842 -0.088661134 0.38410407 -0.09836626 0.40313125 -0.33017325 -0.06229934 -0.28106686
-0.32919684 0.28101963 -0.41898045 -0.23898353 -0.017534703 0.29809487 0.29216123 0.19640547
0.4312176 -0.20984472 0.38328254 0.42362672 0.4249388 0.3145463 -0.16537175 0.23186249
-0.3644872 0.042018175 -0.41930902 -0.01559034 0.22476023 -0.029287755 -0.405267 -0.080028266
-0.29131186 0.4058923 -0.36160126 -0.09532717 -0.2672881 0.19934511 -0.0001732707 -0.01753816
0.42416763 0.10798818 0.020544171 -0.022806287 0.37044895 -0.18740213 0.3975078 -0.39240462
-0.286364 -0.2397517 -0.0111202 0.047323376 -0.22907735 -0.43234348 0.20587963 0.22897995
0.20941663 0.28772342 -0.0640592 0.14194071 -0.12230468 -0.41295162 0.055365264 -0.054116696
0.21949482 -0.37171334 -0.032592356 -0.15437812 0.05256939 -0.20877907 0.13935608 -0.3109396
0.037451327 0.40727913 0.43950945 -0.2743113 0.44292247 -0.4451026 0.054104626 -0.10016891
-0.30285525 0.042915702 -0.025884688 -0.050290406 0.045434892 -0.3973845 0.12045127 0.2814486
-0.21745609 0.18267274 0.059012234 -0.44519055 -0.11713326 -0.29738963 -0.062247902 0.121340156
0.39333004 0.44175142 -0.20900714 -0.018068284 0.33472127 0.35290504 -0.20538837 -0.36732212
0.42351234 -0.15175378 0.37233663 -0.41292772 -0.41212827 0.36268216 0.2974646 -0.4193937
-0.36447734 -0.3090426 0.23916614 -0.39584363 -0.13964799 0.22709173 -0.32557625 -0.4450818

fc.0.bias f4 [256]
00000000: 8c7e 86be f427 143e 6c0d 9d3e ea84 d3be
00000010: 9853 533d c071 3fbd 46f1 48be fc57 013e
00000020: 006b 9f3d 9976 b1be 67a0 acbe b0dc ad3e
00000030: da66 60be 42b7 b5be 98b4 8a3d f297 41be
00000040: 9b16 8dbe c261 a53e f015 b33e 9094 e33d
00000050: 9a24 ae3e 47d1 d3be e427 0a3e 5039 b03e
00000060: e09e c1be 80eb 013e 1811 30bd 420b c6be
00000070: 6053 993d f40e c63e 64ed 1cbe a2b1 a93e
00000080: a844 943e 5085 ccbe 1a1a 63be ccf1 7d3e
00000090: e29f 76be 20f4 673d 76d9 abbe 74fa 243e
000000a0: 1b80 99be e08a 983d e462 22be 9254 c23e
000000b0: 8036 423b 1473 ccbd a0c9 5a3e 88bc e5bd
000000c0: 3a43 e4be e096 733d b83a da3d 2259 ad3e
000000d0: 0033 f73d 8675 b6be ba29 983e 8234 2fbe
000000e0: 767c b33e 50e9 57bd 9930 b6be 28bc 5f3e
000000f0: 100e 8b3e aee0 e43e 0cb6 e5bd 7064 063e
00000100: b816 bc3e 7002 e03c 04dd 063e 1ce9 323e
00000110: b3d2 7fbe a0a3 9c3e 987b 143d 58eb ffbd
00000120: db79 97be 6eff 8b3e f07d 673e 268a 2fbe
00000130: 9446 d3bd c082 f1bb 92be a73e 9e5d 7abe
00000140: a8bd bb3d fcdd 533e 7cf4 df3e f03c b1be
00000150: 60bc d0bd f005 fc3c d8d3 03be 4c76 923e
00000160: 0106 b1be fe39 c23e b0b1 213d 8848 b93d
00000170: 704e 8b3e 6404 e03e de5f 8b3e a8ee bebd
00000180: fe77 b03e 36ba dd3e de1e 88be d0e8 3b3d
00000190: a26b 10be 143f 013e 61f6 bfbe 7856 9f3d
000001a0: 486b 423d f09a 80bd c43a e9bd ae93 d83e
000001b0: 1e18 b8be 3089 773d 207a cbbc b0c4 9e3c
000001c0: 5cd2 c13e ce53 863e 7097 ac3e e07b da3e
000001d0: 1abe cbbe ac15 5f3e 6c67 a33e e846 383e
000001e0: ee67 bb3e 64f5 5bbe e01a 393e 581d 71be
000001f0: 8095 7d3b 80fe b9bd 20f7 5f3e 8ea3 babe
00000200: 36ac bb3e f0dc 613e 28a5 6bbd d790 b3be
00000210: ea03 d7be 98ad b6bd 10ab a8bd 02d9 b73e
00000220: 963e 03be 8e65 4cbe 84f8 183e 64f1 ac3e
00000230: aa2d 983e 56a8 8c3e 78af a7be 24b4 ffbd
00000240: 2050 84be 5840 e23e c200 67be 0e92 d0be
00000250: 3591 cfbe 2c8e 01be b803 913d 44d1 8cbe
00000260: 0b0d 67be 8f5b 90be 10dc 4a3e 086d 733e
00000270: a2ac d43e 1ebb c6be 900f c8be 84a3 bf3e
00000280: 20a4 623e 0663 9a3e 78dd 1c3e 0216 babe
00000290: 7061 d13e 2cf1 5d3e 3056 e73d e0ba 26be
000002a0: 8dc8 b5be ce14 bcbe 0c38 8f3e 4ed9 ddbe
000002b0: e8fe 8d3e 30e6 df3d f6a0 a4be 929c 19be
000002c0: 29cf 8bbe 2004 e1bd 046a 19be 583c 5e3e
000002d0: c62e 8f3e 15fe 72be d418 753e 6f9b dabe
000002e0: 48b8 a23d 70ad edbc e81c d8be 3499 bbbd
000002f0: 36a2 a63e b3b4 4dbe 4ecb c4be a8b7 2e3e
00000300: 42fa 17be a441 4e3e 80e7 0fbe 72f0 e1be
00000310: f837 42bd e8b3 e2bd 4434 753e 5450 7b3e
00000320: 00c0 8eb8 10c0 b73e e8ad 53be 24fe 5c3e
00000330: 2a5d c33e 4621 1ebe 2e1e 813e 2a15 acbe
00000340: 48ff a43d f2cc 00be 28e8 b53e 64d7 0f3e
00000350: d862 22bd a8e6 56bd 2cde 43be 78a6 45bd
00000360: e03d 813c f8bc 073e 1407 8b3e 5ce8 863e
00000370: c0f7 8ebc 3879 e0bd 209d 2b3e 64ae d7bd
00000380: 348d bb3e 40b0 533e ebca d6be 0ce4 89bd
00000390: 6fed 81be 9002 febc 6238 883e 0099 303b
000003a0: 92fc dd3e 5838 da3d ee15 843e d0bc eb3d
000003b0: f4cf 873e 1d3c 90be b8b4 79bd befb 93be
000003c0: 5818 10be 74a3 9bbe f099 963e f2c2 a33e
000003d0: a4e7 ecbd 5586 d3be ba16 3abe 02b7 893e
000003e0: d83b 353e 0cf2 2f3e c6a6 b33e a80a debe
000003f0: 4e82 b13e c50d c9be 4446 cb3e d000 df3e
-0.26268423 0.14468366 0.30674303 -0.41312343 0.051593393 -0.04673934 -0.19623289 0.1263122
0.077840805 -0.34660795 -0.33716127 0.33957434 -0.21914235 -0.35491377 0.06772727 -0.18905619
-0.2755631 0.32301146 0.34977674 0.111123204 0.340123 -0.41370603 0.1349178 0.34418726
-0.37816525 0.12687492 -0.042985052 -0.38680464 0.07486606 0.38683283 -0.15324932 0.33143336
0.2895863 -0.3994546 -0.22177926 0.2479927 -0.24084428 0.0566293 -0.33564347 0.16111165
-0.2998055 0.07448363 -0.15858036 0.37955147 0.0029634535 -0.09982887 0.21365976 -0.112176
-0.4458254 0.059470057 0.10655731 0.33857065 0.12070274 -0.35636538 0.29719335 -0.17109874
0.35055894 -0.05271274 -0.35583952 0.2184912 0.27159166 0.44702667 -0.11216363 0.13124251
0.36736083 0.027344912 0.13170248 0.17471737 -0.24982719 0.30593586 0.03625068 -0.1249606
-0.29585156 0.27343315 0.22606635 -0.17142543 -0.10316196 -0.007370323 0.3276258 -0.24449775
0.091670334 0.20690149 0.43741214 -0.34616804 -0.1019218 0.03076455 -0.1287378 0.28605878
-0.34574893 0.3793487 0.039476097 0.09047037 0.2720828 0.4375335 0.27221578 -0.09322864
0.34466547 0.4330613 -0.2658605 0.045876324 -0.14103559 0.12621719 -0.3749266 0.077801645
0.047465593 -0.06279552 -0.11388162 0.4230017 -0.359559 0.060433567 -0.024838507 0.019380897
0.37855804 0.26235813 0.33709288 0.42672634 -0.39793473 0.21785611 0.31914842 0.17995799
0.3660273 -0.21480328 0.18076658 -0.2354635 0.0038693845 -0.09081745 0.21871614 -0.36452907
0.36654824 0.22056937 -0.057530552 -0.35071442 -0.41995174 -0.08919829 -0.082357526 0.3590775
-0.12816843 -0.19960615 0.14938551 0.33777916 0.2972234 0.2747218 -0.3275106 -0.12485531
-0.2584238 0.44189715 -0.22558883 -0.4073643 -0.40540472 -0.1265189 0.070807874 -0.27503407
-0.22563569 -0.28194854 0.1981051 0.23772061 0.41537958 -0.38814634 -0.39074373 0.3742944
0.22132921 0.30153674 0.15318859 -0.36344916 0.4089465 0.21674031 0.11295736 -0.16282225
-0.3550457 -0.36734623 0.27972448 -0.43329853 0.2773354 0.10932577 -0.32154053 -0.15001133
-0.27306488 -0.10987115 -0.14981848 0.21702707 0.27965373 -0.23729737 0.23935252 -0.4269671
0.07945305 -0.029013366 -0.42209554 -0.091600806 0.32545632 -0.20088463 -0.3843636 0.17062247
-0.1484156 0.20142227 -0.14053154 -0.44128758 -0.047416657 -0.11069471 0.23945719 0.24542361
-6.8068504e-05 0.3588872 -0.20671809 0.21581322 0.38157016 -0.1544238 0.25218338 -0.33609897
0.080565035 -0.1257818 0.35528684 0.14047009 -0.039645046 -0.052466065 -0.1912772 -0.04825446
0.015776575 0.1325568 0.27153838 0.2634915 -0.01745212 -0.10960621 0.16759157 -0.10531309
0.36631167 0.20672703 -0.4195169 -0.067329496 -0.2537646 -0.031007081 0.26605517 0.0026946664
0.43356758 0.10655278 0.2579798 0.115106225 0.26525843 -0.28170863 -0.060963362 -0.28903002
-0.14071786 -0.30398142 0.2941432 0.3198467 -0.115676194 -0.41313425 -0.18172732 0.26897436
0.1769861 0.17182177 0.35088176 -0.43367505 0.34669727 -0.39268318 0.39702046 0.43555307

fc.2.weight f4 [256, 256]
00000000: a405 c5bc 6e01 07bd 7219 68bd 54fb 133d
00000010: e030 3bbc ee73 4bbd 80ee 4d3b 9e6a 57bd
00000020: 223b 2f3d 7e37 4bbd 9a08 683d 8c6a 1bbd
00000030: a001 b43c 70b4 493d 84af aebc 5800 643c
00000040: c6a4 62bd 801f a73b 50f8 da3c 4020 38bd
00000050: 56fe 783d f86a 02bc 16db 33bd b4dc 67bd
00000060: d0f6 34bc 38c3 533c e0f9 45bc 0815 d6bc
00000070: 3ab6 5a3d 24e0 a7bc 7a58 2d3d 601d 0c3d
00000080: 3013 e4bc 3c57 8ebc 6013 08bc 6ab2 03bd
00000090: c056 5fbc 0a76 3a3d c69b 2cbd f2ed 32bd
000000a0: a061 913c b873 1d3d c4c5 1bbd 1048 dabb
000000b0: 40ce adba 0cfd 133d 40e5 4e3d f835 ef3c
000000c0: 1048 7b3c e01d 0f3c e467 ce3c 404c 37bb
000000d0: be00 43bd 7e50 0bbd 3071 54bd b429 e53c
000000e0: 22a1 0a3d 709f b13b 10cb d5bb 6050 fb3c
000000f0: 9e26 12bd 6603 603d 3e5a 6dbd 8cbb dd3c
00000100: da73 5dbd 5016 d4bc 9072 753d 7015 383c
00000110: 20f5 863c e268 443d 9eb1 493d 2055 cfbc
00000120: 88ce 4a3d a24b 6cbd 20db 4b3d 8c60 7e3d
00000130: a607 203d 7067 a3bc 7a56 36bd 3830 21bc
00000140: 406c 7d3b 9898 0c3c a269 39bd 6433 c73c
00000150: 0c1e b5bc 3a69 73bd ec2a 493d f6d9 0f3d
00000160: 4456 9b3c 5090 a7bc 8063 bdbb b81d 68bc
00000170: a0f7 d8bc 9874 853c 20ba b3bc 10be 5b3d
00000180: b062 a3bb d6b6 2e3d 48f8 ccbc 502e e5bb
00000190: 102b 4c3d 50e8 a73c f0f2 08bd 88c2 8e3c
000001a0: dc94 5dbd a0e7 c83b c0d5 543c 8aaa 043d
000001b0: 106f 88bb c067 5f3c 8846 1dbd 2012 53bb
000001c0: 54b1 39bd 2aa0 7dbd 3096 6a3c fafe 2bbd
000001d0: 5e1d 03bd f010 913b e02d ebbc ce1c 1f3d
000001e0: aa3b 0cbd c433 46bd e4cf 603d a8c5 123c
000001f0: 243c 10bd 8cca 8e3c 00c0 c83a 40b8 ac3b
00000200: 5807 5a3d 82b0 353d a03b 143c a810 55bc
00000210: 10ff b83c b0a7 183d 4832 2e3c a0db c63c
00000220: 3893 40bd 4082 3abc 5e85 3c3d e8a6 2dbc
00000230: 480b 8f3c a819 23bc 4006 763d 343d 72bd
00000240: dad4 51bd f673 2cbd 4cfa d73c 4473 c93c
00000250: 20c2 453b 5869 d3bc 9203 74bd 5ea7 30bd
00000260: 88d0 47bd 943b e23c 680d c33c 2e94 7b3d
00000270: f45e e9bc 481c 2ebd 1a1e 08bd 48c8 bbbc
00000280: eccf 6e3d 80a4 753a 149b f23c c48c 14bd
00000290: aea1 193d f061 473d aa6b 153d 0808 45bd
000002a0: f62d 7a3d 4849 53bd fc8c 35bd 80a2 eb3b
000002b0: 7ee3 5b3d 4c3d 96bc 30d9 d0bb 98b4 663d
000002c0: 40c0 dd3b 9ad0 293d eca7 9e3c 0875 843c
000002d0: 1812 573c 805f ef3b 50b9 72bd f4b3 c4bc
000002e0: 2205 32bd 78fe 33bd 006f 6b3d 74ca abbc
000002f0: 1858 29bd 60db 0c3b e4cf 673d 12eb 62bd
00000300: 6073 0a3c 923a 6e3d 3045 40bd 38fc 1bbd
00000310: ec4a 3cbd a29a 41bd 5233 08bd 8092 16bd
00000320: 1cda 2fbd d053 d93c 109f 143d c0ba 483d
00000330: ac20 1e3d 4841 d73c 507e 343c e069 843c
00000340: 70d2 a23c b062 3cbc 4461 ba3c c4c2 e7bc
00000350: 585d 3abd 40a3 a23b 005d a1b9 74d3 bc3c
00000360: f2c8 6dbd 96ef 403d ee42 0ebd f8d8 2dbd
00000370: a65b 683d a817 5abd e030 f13b 20b7 e23c
00000380: e6b5 76bd a88d 55bd d818 073c 4080 da3b
00000390: 801f 4dba c06f 4bbd 78fd 3ebd e83e 043d
000003a0: b007 83bb a0be 30bd 72b7 14bd 5009 b63c
000003b0: b811 d63c 1021 8ebb 1461 26bd c4cd 1c3d
000003c0: f67a 2a3d f4e7 b83c 8081 753c 06e5 5a3d
000003d0: 24a2 0b3d 0c93 023d d077 2fbc 5856 ed3c
000003e0: f800 10bc a4c7 6e3d 00b3 41ba b6a6 2dbd
000003f0: 5424 523d 68ac 82bc a289 023d 28e0 b7bc
-0.024050541 -0.032960348 -0.05666489 0.036128357 -0.011425227 -0.049671106 0.0031422675 -0.052591912
0.042781003 -0.04961347 0.056648828 -0.037943408 0.021973431 0.049244344 -0.021323927 0.013916098
-0.05533292 0.0051001906 0.026729733 -0.04495263 0.06078943 -0.007960074 -0.04391011 -0.056606963
-0.011045173 0.012924962 -0.012083501 -0.026133075 0.05339644 -0.02049262 0.042320706 0.0342077
-0.02784118 -0.017375581 -0.008305401 -0.03215257 -0.013631523 0.045522727 -0.042140745 -0.043683954
0.017746747 0.038440436 -0.0380304 -0.0066614226 -0.001326032 0.036129996 0.0505116 0.029200539
0.015337005 0.00873515 0.025196023 -0.0027969033 -0.04760813 -0.03401231 -0.051865757 0.027973987
0.033845074 0.0054206178 -0.006524451 0.030677974 -0.03568136 0.05469074 -0.05794739 0.027066968
-0.054065563 -0.025889546 0.05992371 0.01123558 0.016474307 0.047951587 0.049241655 -0.025309145
0.04951337 -0.057689317 0.04976952 0.062103793 0.039069794 -0.019946784 -0.044516064 -0.009838156
0.0038669258 0.008581303 -0.045266755 0.024316497 -0.022109054 -0.059426524 0.0491132 0.035119973
0.018962033 -0.020454556 -0.0057796836 -0.014167242 -0.026485264 0.016290948 -0.021939337 0.053648055
-0.0049861297 0.042654835 -0.025020733 -0.0069940463 0.049845755 0.020496517 -0.03343481 0.017426744
-0.05409704 0.0061311275 0.012990415 0.0323892 -0.0041636303 0.013635576 -0.038397342 -0.0032206848
-0.04533513 -0.061920322 0.014318034 -0.04199121 -0.03201043 0.004427068 -0.028708398 0.03884583
-0.034236588 -0.04838921 0.05488576 0.008958258 -0.035213605 0.017430566 0.001531601 0.0052709877
0.05322966 0.044357784 0.009047419 -0.013004459 0.02258256 0.037269294 0.010632105 0.024274647
-0.0470154 -0.011383593 0.046025626 -0.010598876 0.017461434 -0.009954847 0.060064554 -0.0591404
-0.05122838 -0.042102776 0.026364468 0.024591096 0.0030175522 -0.025807068 -0.059573717 -0.043128364
-0.048782855 0.0276163 0.023810104 0.061420612 -0.02848766 -0.04250744 -0.033231832 -0.02292265
0.05830376 0.0009370521 0.029614963 -0.036267057 0.037507705 0.048677385 0.03647963 -0.048103362
0.061078988 -0.05158356 -0.044323906 0.0071910024 0.05368375 -0.018339776 -0.006373547 0.05632457
0.0067673028 0.041458704 0.01936718 0.016169086 0.0131268725 0.0073050857 -0.05925876 -0.02401159
-0.043461926 -0.043943852 0.057478905 -0.02097056 -0.04134378 0.0021493062 0.056594744 -0.05539996
0.008450359 0.058161326 -0.046940982 -0.03808233 -0.04596989 -0.04726661 -0.033252068 -0.036760807
-0.042932615 0.026529223 0.036284506 0.049006224 0.038605377 0.026276246 0.011016443 0.016163766
0.019875735 -0.011498138 0.022751458 -0.028291114 -0.045499176 0.0049633086 -0.00030777603 0.023050047
-0.058052965 0.047103487 -0.034731798 -0.042443246 0.056728028 -0.053245217 0.0073605627 0.027675211
-0.060232066 -0.052137047 0.008245669 0.0066681206 -0.0007824823 -0.04966712 -0.046628445 0.032286555
-0.003998719 -0.043150544 -0.03630776 0.022221237 0.026131496 -0.0043374375 -0.040619925 0.03828217
0.04162117 0.022571541 0.0149844885 0.05344107 0.034090176 0.031878516 -0.010709718 0.028971836
-0.0087892935 0.05829586 -0.0007389039 -0.042395316 0.051304176 -0.01595135 0.031869538 -0.022445753

fc.2.bias f4 [256]
00000000: d0b2 c93b 8a60 743d 9252 753d d881 cf3c
00000010: d4ff 69bd 98d6 2abc f496 3fbd 4812 b1bc
00000020: 8046 b1bc d037 c43b c635 37bd 6822 a1bc
00000030: a480 1b3d f8e3 8b3c 0000 7c38 224c 393d
00000040: 80bf e9bc 40f3 8f3a 28f7 f53c d0e4 f33b
00000050: e4fc a6bc 9cb9 393d 2c39 e6bc c8bf 71bc
00000060: 1a0f 3abd 2097 a13c 3c06 54bd 1881 66bc
00000070: d816 5c3c 6019 30bd 9a6d 0fbd d012 443d
00000080: 220f 233d 8ec8 753d 32a4 283d 3e64 46bd
00000090: 346b a6bc 281c 82bc e22e 313d b8ce db3c
000000a0: 682b e23c 00df aeba be97 3c3d 5020 40bd
000000b0: 308d 893b 62e6 44bd 004b 06bb 7cc4 5fbd
000000c0: 92e0 213d dadc 13bd ac49 54bd bcc8 0d3d
000000d0: 70ae 4ebd 9a43 623d 8822 053d d00f 29bd
000000e0: bc2f f83c 1aa8 1bbd 22d4 35bd 405a 17bd
000000f0: e047 a4bc 8c12 333d 2013 7dbd d8ad 2cbd
00000100: 3072 da3c 0e5a 1bbd 30b0 4d3c 0621 113d
00000110: a6ec 223d 10a4 ecbb 4c22 5f3d 18c8 29bc
00000120: 3c0c 29bd e820 783d 803f aa3b b4f2 843c
00000130: 380a 9bbc a8c9 6b3c 8021 993c 982d 4c3d
00000140: c068 653b 8012 21ba cc22 c6bc 9cda 883c
00000150: d2c9 5f3d 9c89 0f3d 3800 7a3c 3c33 d3bc
00000160: 08c4 5c3d 4a31 08bd 0c34 3dbd a87c 8cbc
00000170: 8ece 07bd acde 153d 2819 17bd 244c f53c
00000180: 2ca1 98bc 66ae 0b3d 7474 fdbc ee06 09bd
00000190: 3044 81bc d4d8 0cbd 047e bfbc 2051 30bb
000001a0: d4e1 533d 6c54 db3c 602d 283d 48d7 92bc
000001b0: 4e79 0b3d 2cf9 64bd dcce aabc 02ff 133d
000001c0: 8453 103d 328b 4c3d 80e7 9dba 0624 5cbd
000001d0: eece 55bd 683c eebc 7c91 df3c 181d 923c
000001e0: 262f 43bd 74ef d2bc 0088 2a38 ec7b d13c
000001f0: 40d6 33bb e0e1 96bb 9484 75bd fcf3 1abd
00000200: 8a41 653d 6c30 333d a849 2abc 70ee ccbb
00000210: 2881 443c 5c48 7e3d 02bb 08bd 603a 893b
00000220: 282b 293d 3e01 24bd c866 27bd f4de 663d
00000230: 580b 66bc a049 38bd f473 8d3c e2fc 21bd
00000240: 8036 a3ba e8d0 86bc 38d1 13bc 96eb 083d
00000250: 48b4 733d fe57 73bd 6c06 5abd 20f0 323b
00000260: 40a8 553c e073 02bb 7022 a0bb da79 6abd
00000270: d42b cbbc a8de 673c fa1e 52bd fcf1 2c3d
00000280: 0c81 243d 7ad5 273d 10e4 a83c 5c47 bf3c
00000290: 823a 1cbd 8017 2bbd f00e f43c e60c 5bbd
000002a0: f0f8 a13b f250 7ebd 303b 34bd 5455 c53c
000002b0: c42c 373d 3679 5a3d ee32 0d3d c074 063d
000002c0: 9c91 523d 94d2 063d c258 373d 18b8 a9bc
000002d0: cc10 a43c 5068 82bb 807c 783c 0085 1b3c
000002e0: d6e0 60bd b0fe 113c 0073 463c 286d 0c3d
000002f0: c0d2 05bc 3c9c 03bd 6058 40bb 6ce2 7a3d
00000300: 00fb d83c 281b 6c3c dc38 963c b06e 133c
00000310: 502d fdbc 9efa 763d c4cd 02bd 540b d03c
00000320: a0c9 bf3b 00a3 37ba b837 18bc 28e2 98bc
00000330: 2ee0 473d ac3e 78bd dc8b 38bd 6422 2dbd
00000340: 1441 c6bc e8c5 0abc 9832 843c 509a 6abc
00000350: 80a2 8d3b aae2 6fbd a0c4 e13b ea05 5f3d
00000360: 50e4 cf3b 18ca 343d b235 0abd 1c9c 853c
00000370: a25e 45bd b89c 463d c0fc 5a3d aca6 17bd
00000380: e423 b63c 94da 133d 20c6 70bb f092 e6bc
00000390: c234 213d 90e9 e33c 80df 603d a892 46bd
000003a0: ea81 53bd 504e 1cbc 0041 2b3b d0a9 2cbc
000003b0: 146d 1e3d 486d 203c 5049 4cbc 3cf7 a0bc
000003c0: e67b 413d 4ee2 783d d008 2a3d 30b8 c6bb
000003d0: 0edb 363d 94d8 5ebd 2e2e 17bd 729d 7e3d
000003e0: f8e0 713c 5c2b c0bc d0fd 4dbd 1855 cd3c
000003f0: 1864 60bc c053 dfbb 60a2 7b3d b875 2e3d
0.0061553493 0.05966238 0.0598932 0.025330469 -0.057128742 -0.01042714 -0.04677482 -0.021615162
-0.021640062 0.0059880987 -0.044729017 -0.019669726 0.037964478 0.017076477 6.0081482e-05 0.04523862
-0.028533697 0.0010982528 0.03002508 0.007443048 -0.02038426 0.045343027 -0.028103434 -0.014755197
-0.04542456 0.019725382 -0.051763758 -0.014068864 0.013433181 -0.04299295 -0.035016634 0.047869503
0.039809354 0.060005717 0.041172214 -0.048435442 -0.02031479 -0.015882567 0.0432576 0.02683197
0.027608588 -0.0013341606 0.04604315 -0.046905816 0.004197739 -0.048071273 -0.002049148 -0.05463074
0.039520808 -0.036099292 -0.05182807 0.034615263 -0.050459325 0.05524025 0.032503635 -0.041274846
0.030296199 -0.03800211 -0.04439176 -0.036951303 -0.020053804 0.04371886 -0.061785817 -0.042157978
0.026665777 -0.03792768 0.012554213 0.035431884 0.039776467 -0.007221706 0.054476067 -0.0103626475
-0.041271433 0.060578257 0.005195558 0.016229011 -0.018925771 0.01439134 0.018692732 0.04984817
0.0035005063 -0.00061444193 -0.024186514 0.016705804 0.05463583 0.035043344 0.015258841 -0.025781266
0.053897887 -0.03325013 -0.046192214 -0.017149284 -0.03315597 0.03658931 -0.036889225 0.029943533
-0.01863154 0.034101866 -0.030939318 -0.033453874 -0.015779585 -0.03438647 -0.023375519 -0.0026903823
0.05172904 0.026773654 0.041058898 -0.01792492 0.034051232 -0.05590169 -0.020850591 0.036131866
0.035235897 0.049937434 -0.0012047142 -0.053745292 -0.052199297 -0.029081538 0.027291052 0.017836139
-0.047652386 -0.025748946 4.065782e-05 0.025571786 -0.0027440935 -0.004604563 -0.05994089 -0.037830338
0.055970706 0.04374735 -0.010393538 -0.00625401 0.011993684 0.062080726 -0.03338147 0.004187867
0.041300923 -0.040040247 -0.040869504 0.05636497 -0.0140407905 -0.04499209 0.017267205 -0.03954781
-0.0012452155 -0.016457036 -0.00902205 0.033427797 0.0594981 -0.059410088 -0.05322878 0.002730377
0.013040602 -0.0019905493 -0.004886918 -0.057245113 -0.024801172 0.0141522065 -0.051299073 0.04222296
0.04016213 0.04097507 0.020616561 0.023349456 -0.038141735 -0.04177046 0.029792279 -0.053479098
0.0049430057 -0.062088914 -0.044001758 0.02408854 0.044720426 0.053338252 0.0344724 0.032826185
0.051408395 0.032915667 0.04476238 -0.020717666 0.02002754 -0.00397972 0.015166402 0.009492159
-0.05490192 0.00891082 0.012112379 0.034283787 -0.0081679225 -0.03213142 -0.002934955 0.06125109
0.026486874 0.014410771 0.01833766 0.008998558 -0.030905396 0.0602976 -0.031934515 0.025396027
0.005852893 -0.0007005185 -0.009290628 -0.018662527 0.04879778 -0.060606644 -0.045055255 -0.042269126
-0.024200954 -0.008470036 0.016137406 -0.0143190175 0.00432235 -0.058565773 0.0068898946 0.054449
0.0063443556 0.044138044 -0.033742614 0.01630979 -0.048185952 0.048489302 0.053463697 -0.037024185
0.02223391 0.036097124 -0.0036739185 -0.028146237 0.039356954 0.027821332 0.054900646 -0.048479706
-0.051637568 -0.0095401555 0.0026131272 -0.010538533 0.038678244 0.00979168 -0.012468651 -0.01964914
0.0472373 0.060762696 0.04151231 -0.0060644373 0.0446425 -0.054405764 -0.036909275 0.06216187
0.014763109 -0.023458175 -0.050290883 0.02506499 -0.013695739 -0.0068154037 0.06143415 0.042592734

fc.4.weight f4 [1, 256]
00000000: e00f 7abc e802 703d d01a 303c c053 c73a
00000010: 6888 363d bcad 933c 1010 d63c 10f5 2d3c
00000020: 5c72 093d 8c57 363d e0ef cbbb 6671 233d
00000030: 20ac 06bc 20fb 3ebb 402f 99bb ea62 7b3d
00000040: e883 4a3d 30b0 c2bc 2ab7 4ebd d807 06bd
00000050: 406d 47bd 80c7 d7bc 34b0 94bc 7a31 773d
00000060: 42dc 3fbd e877 5d3d 8c16 e9bc a889 f5bc
00000070: c0d8 7c3d e04a 11bb 545f 933c 12ad 4f3d
00000080: a4a0 493d cc6a fcbc 78f3 6cbd d4c6 a33c
00000090: acfa 503d 4a2c 08bd 809e f4bb 3045 47bc
000000a0: f873 73bc dc1b 973c 08e0 4cbd 0859 6a3c
000000b0: f477 a8bc 90fa fcbc a23f 493d 9087 193d
000000c0: 782b 71bc 2018 d83b e4de 4f3d 5ead 18bd
000000d0: 222f 7a3d 0004 423d 50da 6abc a891 5b3c
000000e0: ca97 2a3d 6005 eebc 081f 393d 28e1 6fbd
000000f0: 188f 213c b87c c83c dce2 973c f0c5 2cbd
00000100: 20fc 93bc b061 cd3b 2a19 3e3d 6a61 523d
00000110: 500b 0c3c 9432 b83c 0875 2ebd e8e5 55bc
00000120: 581e 143c d877 ffbc 0ee5 3c3d 2cd9 8fbc
00000130: b04b 833b f8c4 04bd dcdd d03c f459 a0bc
00000140: 8872 bc3c 8033 f4ba 3a66 313d d433 49bd
00000150: a692 53bd 06c5 493d 5069 183d 50af b33b
00000160: 76be 59bd de8d 323d 74c1 65bd f869 2cbd
00000170: e059 2fbc 1e55 40bd a090 01bb 6022 56bb
00000180: 003b fc3b 9c9f cb3c 9cdf fcbc 7492 743d
00000190: ca29 793d 00d4 14b9 c4d9 963c 20be bc3c
000001a0: f6a5 243d 1c74 143d 809f 5ebb 6c7c ac3c
000001b0: e8f3 413c 7044 533c 84e7 dcbc 0667 6f3d
000001c0: d683 24bd ccea a7bc a64e 513d aa9a 143d
000001d0: 6062 13bc 2876 2f3d 0848 08bc 0cb1 d7bc
000001e0: ec2b b63c 386d af3c 0044 ef38 ecf1 193d
000001f0: f681 76bd 7009 c5bb b87e 993c 80c8 c7ba
00000200: 5c39 51bd bc7d 8c3c a0d2 bcbc 78c6 e0bc
00000210: 0ed8 273d e2d5 6f3d 006a 643b f02e c83b
00000220: 0abc 2dbd a495 60bd 60cb 22bb 0af2 48bd
00000230: b011 09bc 009b ddb9 f856 653d 902b 333d
00000240: 0445 733d a418 cebc a0a3 e73b 3aad 16bd
00000250: c01f 31bd 3c30 173d cce5 943c a0f3 c3bb
00000260: 8e49 0dbd 4835 2fbc 9ce9 1bbd bc57 193d
00000270: a09c 23bd 6aa0 41bd ec22 fb3c 5e98 3ebd
00000280: babe 203d dc94 953c 306d b4bc 3e7e 50bd
00000290: c019 b53b 94de 123d 5292 30bd 4e48 2f3d
000002a0: 80c1 6bbd a078 853b 6406 743d c007 173b
000002b0: d490 8f3c f6aa 78bd c82c dfbc e206 62bd
000002c0: 60cc 5cbc c8cb 543c 2020 3cbc 20e8 fabb
000002d0: b40c 03bd 00fc a43c 1408 cb3c ec1a 5a3d
000002e0: 4622 7fbd b02f 6bbc de0e 363d 1ad3 07bd
000002f0: 38a8 083d f61c 73bd 041d 773d d807 673d
00000300: a08b 6a3c 6438 c1bc 3433 833c 3046 18bd
00000310: a8be c0bc 1a6d 7e3d 92bd 0f3d 1a46 0a3d
00000320: 90c6 a63b 18e4 2bbc bc8b 123d e084 4b3b
00000330: 40ab a2bb 1491 2b3d 1615 213d fc47 a1bc
00000340: 302d e2bb 901e 56bc c83e 0b3d 50b5 7c3d
00000350: 58f8 04bd e081 013c 3ad0 7f3d 8831 50bd
00000360: 28bd e23c a4f1 2d3d 4047 193d 6c6c af3c
00000370: b030 8fbc 008b ebbc 7001 33bd 2cd9 e53c
00000380: d076 e93c caab 2a3d 1093 403d 0c64 84bc
00000390: 2e37 633d 92f3 7ebd 30da ecbc c6cf 3abd
000003a0: b0dc 443d caa8 7e3d 9054 37bc 5070 c2bc
000003b0: c4c4 a2bc 74ff 16bd 5043 0ebd b8e2 59bc
000003c0: 5af3 503d 2a3d 243d 42a2 03bd d8eb 55bc
000003d0: c8f3 6f3d e8b6 643c b227 7ebd 202a 36bb
000003e0: f4c5 54bd 4c69 62bd 5c33 923c 0839 6cbd
000003f0: a058 7b3d 6438 053d a8e1 85bc faeb 12bd
-0.015262574 0.05859652 0.01074858 0.0015207455 0.04456368 0.018027179 0.026130706 0.0106175095
0.033556327 0.044517085 -0.0062236637 0.039903067 -0.008219749 -0.0029141381 -0.004674822 0.06137363
0.0494422 -0.023765653 -0.050467648 -0.032722324 -0.048688173 -0.026340246 -0.018150426 0.06034992
-0.046840914 0.05406943 -0.028453134 -0.029972866 0.061730146 -0.0022169873 0.017989792 0.050702162
0.049225464 -0.030812643 -0.057849377 0.01999227 0.05102031 -0.033245362 -0.0074651837 -0.012162492
-0.014859192 0.018445902 -0.05001834 0.014303453 -0.02056501 -0.030881196 0.04913295 0.037482798
-0.014719836 0.006594673 0.050749674 -0.03727471 0.061080106 0.047367096 -0.014334276 0.013401426
0.041648664 -0.029055297 0.04519561 -0.058564335 0.009860776 0.024473533 0.018540792 -0.042180955
-0.018064559 0.006267749 0.046410717 0.051362433 0.008547619 0.022485055 -0.04259208 -0.013055302
0.009040438 -0.031185076 0.04611688 -0.01755961 0.0040068254 -0.032414407 0.025496416 -0.019574143
0.023003832 -0.0018631071 0.04331038 -0.049121693 -0.051653527 0.04926016 0.03720981 0.0054835454
-0.053160153 0.043592326 -0.056092694 -0.042093247 -0.01070258 -0.046956174 -0.001977004 -0.0032674298
0.007697463 0.024856381 -0.030868344 0.05970998 0.06083087 -0.00014193356 0.018414386 0.023039877
0.040197335 0.036243543 -0.003396958 0.021055423 0.011837937 0.012894735 -0.026965864 0.05844786
-0.04016479 -0.020497702 0.051100396 0.03628031 -0.008995622 0.042837292 -0.008317955 -0.02632954
0.02223774 0.021414384 0.00011409074 0.03758423 -0.060182534 -0.006013088 0.018737182 -0.0015242249
-0.051080093 0.017149799 -0.023049653 -0.027438387 0.04097753 0.058553584 0.003485322 0.006109111
-0.042415656 -0.05483021 -0.002484046 -0.04905895 -0.008366033 -0.0004226789 0.055991143 0.043742716
0.05939199 -0.025158234 0.007069066 -0.036786295 -0.04324317 0.036911234 0.018175982 -0.00597997
-0.034493975 -0.010693856 -0.038064584 0.037437186 -0.03994429 -0.047272123 0.0306563 -0.046532027
0.03924439 0.018259458 -0.02202472 -0.050901644 0.0055267513 0.0358568 -0.043108292 0.042793564
-0.057557583 0.0040732175 0.059576407 0.002304539 0.017525114 -0.060709916 -0.027243033 -0.055182345
-0.013476461 0.012988038 -0.011482269 -0.007657066 -0.031994537 0.020139694 0.024784125 0.05324833
-0.062288545 -0.014354631 0.044447772 -0.033160307 0.03336355 -0.05935379 0.060330406 0.056403965
0.014315516 -0.02358646 0.016015626 -0.03717631 -0.023528412 0.062115766 0.035092898 0.03375826
0.0050895885 -0.0104913935 0.035777792 0.0031054541 -0.0049642622 0.041886404 0.03932675 -0.019687645
-0.0069023594 -0.01306881 0.03399542 0.06169635 -0.0324634 0.0079045 0.06245444 -0.050828487
0.027678087 0.042466775 0.037421465 0.021414004 -0.01747927 -0.028752804 -0.043702543 0.028057657
0.028499037 0.041667737 0.04701525 -0.016160987 0.055472545 -0.062244006 -0.028912634 -0.045608304
0.048062027 0.06217269 -0.011189595 -0.023735195 -0.019869216 -0.036864713 -0.034732163 -0.013298683
0.051013328 0.040097393 -0.032137163 -0.013056718 0.058582097 0.013959624 -0.062049575 -0.0027796105
-0.051946595 -0.0552762 0.017846756 -0.057671577 0.061363816 0.03252448 -0.016342953 -0.035869576
