models/tetris.pt (torch, 272638 bytes, 5 tensors)

fc.0.weight f4 [256, 5]
0	0x3e417448	0.18892014
1	0xbeaa1ae7	-0.3322365
2	0x3cad3a5c	0.021145992
3	0xbeaa397c	-0.33246982
4	0xbec3d3b5	-0.38247457
5	0x3e03e4df	0.12880276
6	0xbeafa536	-0.34305733
7	0x3eaaf203	0.33387765
8	0xbea7a3d9	-0.32742193
9	0xbd59d38d	-0.053180266
10	0x3e89e085	0.26929107
11	0xbed9b6ae	-0.42522186
12	0xbedcf396	-0.4315459
13	0x3d17cb0b	0.03705887
14	0xbe5dd3c3	-0.21662812
15	0x3e8406cc	0.25786436
16	0xbe8ce519	-0.27518538
17	0x3c5231e6	0.0128292795
18	0x3e7124b5	0.23549159
19	0xbec4419a	-0.383313
20	0x3d86ce78	0.065823495
21	0x3e1f1fe5	0.1553951
22	0xbed272a9	-0.41103104
23	0xbe9c5dad	-0.3054022
24	0x3e3a2773	0.18179111
25	0xbe32c31b	-0.1745724
26	0xbe9e5d64	-0.30930626
27	0x3e97d2d1	0.29653028
28	0x3dde353b	0.10849997
29	0x3ea5708d	0.32312432
30	0x3e1d5127	0.15362988
31	0x3eb04be8	0.34432912
32	0xbea04e1b	-0.3130959
33	0x3ed7f3bb	0.4217814
34	0x3d515dab	0.05111472
35	0xbea5d8e6	-0.32392043
36	0x3d91482c	0.07093844
37	0xbec72aca	-0.38899833
38	0xbe45861a	-0.19289437
39	0xbeb0e2d1	-0.34548047
40	0x3e65d0ab	0.22442882
41	0x3ecd8319	0.40139082
42	0x3eb8ddd4	0.3610674
43	0x3e1fde2f	0.156121
44	0x3dbf6457	0.0934531
45	0x3e7670d9	0.24066485
46	0xbea2531a	-0.31704026
47	0x3df77071	0.12081993
48	0x3e14493d	0.14481063
49	0x3d2dba42	0.042413957
50	0xbe9b1df3	-0.30296287
51	0xbda42c77	-0.080162935
52	0x3e96e090	0.29468203
53	0x3ed5f367	0.41787264
54	0xbea9cf76	-0.33166093
55	0x3c13b1f5	0.009014596
56	0x3e3bc1b4	0.1833561
57	0x3e5a05a2	0.21291211
58	0xbe17bb46	-0.14817533
59	0xbdc4679b	-0.09590074
60	0x3ed9cf6a	0.42541057
61	0xbe5fdea2	-0.21862271
62	0x3ed00cf4	0.40634882
63	0xbe706bc6	-0.23478612
64	0xbe6633cb	-0.22480695
65	0xbeae5e1f	-0.34056184
66	0x3e41139d	0.18855138
67	0x3d8103e6	0.06299572
68	0xbe2c1227	-0.168038
69	0x3e89f34b	0.2694343
70	0xbe76de7e	-0.24108312
71	0xbe46b754	-0.19405872
72	0x3e895382	0.26821524
73	0xbe975d5b	-0.29563412
74	0xbea36204	-0.31910717
75	0x3bc84841	0.006112129
76	0xbd9841f9	-0.07434458
77	0xbed219f3	-0.41035423
78	0xbec20b84	-0.3789941
79	0xbe264750	-0.16238141
80	0xbdda9e22	-0.10674693
81	0xbe530931	-0.20608975
82	0xbeca8054	-0.39551032
83	0xbeb20321	-0.34768012
84	0x3ec31e8f	0.38109252
85	0xbecd2a59	-0.4007137
86	0x3e9e0eb7	0.30870602
87	0xbebc93f1	-0.3683162
88	0x3f0246df	0.5088939
89	0xbdc00639	-0.09376187
90	0xbed6f227	-0.41981623
91	0xbeabe70f	-0.3357472
92	0x3eb512aa	0.35365802
93	0x3eb035e2	0.3441611
94	0xbed963e7	-0.42459032
95	0xbdcb2ac0	-0.09920263
96	0xbec51d1d	-0.38498774
97	0x3ed1f447	0.4100668
98	0x3eb7cc52	0.35898072
99	0xbee35715	-0.44402376
100	0xbcb20813	-0.021732366
101	0xbe56df5b	-0.20983641
102	0x3cf17fb1	0.029479833
103	0xbe870dbb	-0.26377663
104	0xbc8d1fd2	-0.017227087
105	0xbe8046b4	-0.25053942
106	0x3d964caf	0.07338845
107	0x3ed2769f	0.41106126
108	0xbd43f23f	-0.047838446
109	0xbed307a5	-0.4121677
110	0x3e771045	0.241273
111	0xbe91071f	-0.28325745
112	0x3e82431a	0.2544182
113	0x3e072487	0.13197528
114	0x3e888f23	0.26671705
115	0x3e93a4ad	0.28836575
116	0xbea7d1a7	-0.3277714
117	0xbe93bf71	-0.28856996
118	0x3e3a6eb6	0.18206295
119	0x3e9321c4	0.287367
120	0xbec4f5a3	-0.38468656
121	0xbd897f1d	-0.06713698
122	0xbe269ef2	-0.1627157
123	0xbe2595b1	-0.16170384
124	0xbe678c61	-0.22612144
125	0x3df070d8	0.11740273
126	0xbee3b954	-0.44477332
127	0x3e730310	0.23731637
128	0x3e0c6f13	0.13714246
129	0xbcb16ea2	-0.0216592
130	0x3e61e0bd	0.22058387
131	0x3ea75aef	0.32686564
132	0xbe2d761b	-0.16939585
133	0xbe71487c	-0.23562807
134	0x3e7319da	0.2374033
135	0xbeca3acd	-0.39497986
136	0x3e8ebd8e	0.27878994
137	0xbe161c31	-0.14659192
138	0xbe9b8619	-0.30375746
139	0xbe9ce79a	-0.30645448
140	0xbdb5d4c6	-0.08878474
141	0x3d361baf	0.044459995
142	0x3d8828c1	0.06648398
143	0xbe0044c6	-0.12526235
144	0xbe091218	-0.13385808
145	0xbe0390bd	-0.12848182
146	0xbee33b7c	-0.4438132
147	0x3d5a37cd	0.053275872
148	0xbe314056	-0.17309698
149	0x3da989cd	0.082782365
150	0xbe4dd1ff	-0.20099638
151	0xbc8a8098	-0.016907021
152	0xbea28c91	-0.3174787
153	0xbe9524cb	-0.29129633
154	0x3d97df15	0.074155964
155	0x3f34dbaa	0.7064768
156	0xbb2d6e39	-0.0026463403
157	0xbd576ee4	-0.052595988
158	0x3edab3f4	0.42715418
159	0xbec47247	-0.38368437
160	0x3ebc1aab	0.36739096
161	0x3dd4d7c6	0.10392718
162	0xbccedd0e	-0.025251891
163	0xbe6afb87	-0.22947513
164	0x3e8117b1	0.25213388
165	0xbe5278be	-0.20553872
166	0x3eaf2008	0.34204125
167	0x3e521b9b	0.20518343
168	0x3e82434f	0.25441977
169	0xbc2d1996	-0.010565182
170	0xbec40c4f	-0.3829064
171	0x3e990318	0.29885173
172	0x3ded8035	0.11596719
173	0xbde8e6ef	-0.11372172
174	0x3eb8efa0	0.3612032
175	0xbea112c3	-0.31459627
176	0xbeca8699	-0.39555815
177	0x3d5f98b0	0.054588974
178	0x3ec42cde	0.3831548
179	0x3eb584f5	0.35453
180	0x3d31c7dc	0.04340349
181	0xbe8a9f1a	-0.2707451
182	0x3d01f93d	0.031731833
183	0x3ed0f87b	0.40814576
184	0xbe0c5270	-0.13703322
185	0xbdfa2587	-0.12214189
186	0xbed5fc29	-0.41793945
187	0x3e6fe420	0.23426867
188	0xbed828f8	-0.42218757
189	0xbd8e8f94	-0.06960979
190	0xbe77a6ac	-0.24184674
191	0x3ec98522	0.39359385
192	0xbe4b71cd	-0.1986763
193	0x3ed1bf1a	0.4096611
194	0x3e8ffb54	0.28121436
195	0x3e35b2be	0.17743966
196	0xbd141ba2	-0.036159165
197	0xbd89bcfa	-0.067254975
198	0x3e8131f7	0.25233433
199	0xbe8d3d78	-0.2758596
200	0xbe8fd9a7	-0.28095743
201	0x3e4a54e9	0.19758953
202	0x3e18361b	0.1486439
203	0x3ee285f7	0.44242832
204	0x3eab4ec4	0.3345853
205	0xbdf85f78	-0.12127584
206	0xbcd27bf8	-0.025693879
207	0xbec7f546	-0.39054316
208	0xbd2fe219	-0.042940233
209	0x3d96b8e6	0.07359485
210	0x3e4266f4	0.18984586
211	0xbee58a70	-0.44832182
212	0x3e5a74eb	0.21333663
213	0x3c8bdb92	0.017072473
214	0x3dad5b4d	0.0846468
215	0x3c3c428a	0.0114904735
216	0xbe4ea031	-0.20178296
217	0x3ecb0498	0.39651942
218	0xbceeafa1	-0.02913648
219	0x3da837cf	0.0821377
220	0x3e42eeed	0.19036455
221	0x3d4ad209	0.04951671
222	0xbcc08c0d	-0.023504281
223	0x3ed8c5df	0.42338464
224	0x3e85a672	0.2610355
225	0xbe94117c	-0.2891959
226	0xbe608b89	-0.21928228
227	0x3ec36e15	0.38169923
228	0x3e47514c	0.19464606
229	0x3e39d6ec	0.18148392
230	0xbe8b0dd9	-0.27159002
231	0x3ea6b691	0.32561162
232	0x3eaacdd8	0.3336017
233	0x3d7812f8	0.060564965
234	0x3e275a67	0.1634308
235	0xbd4b2297	-0.049593534
236	0x3e2df0e4	0.16986424
237	0x3e1bead3	0.15226297
238	0xbd3610ca	-0.044449605
239	0xbcc664ab	-0.024217924
240	0x3e21bf5b	0.15795653
241	0x3df69a9d	0.12041209
242	0x3e983b0c	0.2973255
243	0x3e4425fa	0.19155112
244	0xbea1e4a4	-0.3161975
245	0xbdad40f9	-0.08459658
246	0x3e57de9a	0.2108101
247	0x3e68684a	0.22696033
248	0x3cdf3456	0.027246635
249	0xbe97964e	-0.2960686
250	0x3ee61d0f	0.44944045
251	0xbe8d20ee	-0.27564186
252	0xbd8df346	-0.06931166
253	0x3d5fcaaa	0.054636635
254	0xbdb804ae	-0.089852676
255	0xbd80ab32	-0.06282653

fc.0.bias f4 [256]
0	0xbbf18b1f	-0.007371321
1	0xbea67827	-0.32513544
2	0x3d83eaec	0.06441292
3	0xbe25a5d6	-0.16176543
4	0x3e16839b	0.14698641
5	0x3e8636e1	0.26213744
6	0xbe90150f	-0.28141066
7	0x3e9bf337	0.30458996
8	0xbeb9a71a	-0.362603
9	0x3ea89527	0.32926294
10	0x3ed21715	0.41033235
11	0xbeac0ba9	-0.33602646
12	0xbdc5c4ec	-0.096567005
13	0xbe558ad5	-0.20853741
14	0xbe2097d2	-0.15682915
15	0x3ec9780c	0.393494
16	0x3ecac8f6	0.39606446
17	0xbdbc45d2	-0.09193005
18	0xbe40edb6	-0.1884068
19	0x3eb322bd	0.3498744
20	0xbcbaa012	-0.022781406
21	0x3e08d9ea	0.13364378
22	0x3ec5ca58	0.3863094
23	0xbe5eedb3	-0.21770363
24	0x3ed62ed7	0.4183261
25	0x3e64fb41	0.22361471
26	0x3f12d46d	0.57355386
27	0xbec33c4f	-0.3813195
28	0x3e668e8f	0.2251532
29	0xbe071660	-0.13192129
30	0xbe936686	-0.28789157
31	0xbec7e723	-0.3904353
32	0x3e6fb2fe	0.23408124
33	0xbe0ad435	-0.13557513
34	0x3ec46056	0.38354748
35	0x3e96193f	0.29316136
36	0xbea3d5e1	-0.31999114
37	0xbe523527	-0.20528089
38	0xbcd08eff	-0.02545881
39	0x3ecd1237	0.4005296
40	0xbe383ab9	-0.17991151
41	0xbec7846f	-0.38968226
42	0x3e76478a	0.24050727
43	0xbe063881	-0.13107492
44	0x3d1d8d9d	0.03846513
45	0x3ec4357a	0.3832205
46	0xbe0892e6	-0.13337287
47	0xbd40c26a	-0.047060408
48	0x3b6a1840	0.003572002
49	0x3eaaacbd	0.33334914
50	0x3ea1da27	0.3161175
51	0x3f2f9a9c	0.6859529
52	0x3f008a27	0.50210804
53	0xbe9d76ed	-0.30754796
54	0x3eb1c79e	0.34722608
55	0xbe58f87b	-0.21188538
56	0x3e5790ea	0.21051374
57	0xbe77fe70	-0.24218154
58	0xbea69104	-0.32532513
59	0x3d722d95	0.0591255
60	0x3e4f55c6	0.20247564
61	0x3e19e472	0.15028551
62	0xbe2c3ff0	-0.16821265
63	0xbc22ca9b	-0.009936
64	0x3ec13911	0.3773885
65	0x3ee7531d	0.45180598
66	0x3e0e1859	0.13876475
67	0xbe65d901	-0.22446062
68	0xbeae23d0	-0.34011698
69	0x3eadfa68	0.33980107
70	0xbda819f7	-0.082080774
71	0x3dfcf0cb	0.12350615
72	0x3e6d4549	0.23170961
73	0x3e3d1dfc	0.1846847
74	0xbe879e34	-0.26487887
75	0x3dd2aabf	0.102864735
76	0x3ece226f	0.40260646
77	0xbeb82236	-0.359636
78	0xbe1baad8	-0.1520189
79	0xbebee8d7	-0.37287018
80	0xbe9feb41	-0.31234172
81	0x3df56ebb	0.11984011
82	0x3e58ee8e	0.21184751
83	0x3d7a3803	0.061088573
84	0x3ef5b1d6	0.4798724
85	0xbefa88e2	-0.48932558
86	0x3e5dbfe8	0.21655238
87	0x3e831ec9	0.25609425
88	0xbda2fda3	-0.079585336
89	0xbe1e1525	-0.15437753
90	0x3e0097c9	0.12557901
91	0xbce35db3	-0.02775464
92	0xbeca2cb7	-0.3948724
93	0x3d558c1e	0.05213558
94	0x3d16bbde	0.036800258
95	0x3e68b074	0.22723562
96	0x3e88763f	0.26652715
97	0xbc6f951b	-0.014622952
98	0x3efa21f6	0.48854035
99	0x3dc482f4	0.0959529
100	0xbe807278	-0.25087333
101	0x3e849b25	0.25899616
102	0x3d378312	0.044802733
103	0x3e397a28	0.18113005
104	0xbedaaf0d	-0.42711678
105	0xbecc64b0	-0.39920568
106	0x3e78170d	0.24227543
107	0x3eb59cf1	0.354713
108	0x3e68985f	0.22714375
109	0x3ec372ed	0.3817362
110	0xbe5652a5	-0.20929964
111	0x3ed8432b	0.42238745
112	0x3eafbb73	0.343227
113	0xba8cc059	-0.0010738476
114	0x3ed334e1	0.4125128
115	0xbdbb4215	-0.091434635
116	0xbe7d3cc4	-0.24730211
117	0x3e959a92	0.2921949
118	0x3ebe09b4	0.37116778
119	0x3d952c4e	0.07283841
120	0xbe14a116	-0.14514574
121	0xbed526e6	-0.4163124
122	0x3ddf8bc8	0.10915333
123	0x3e11c482	0.14235118
124	0x3e6d215b	0.23157255
125	0xbcde5b31	-0.027143093
126	0x3f043966	0.51650083
127	0x3e1ad30c	0.1511957
128	0x3e1e00cd	0.15429993
129	0xbe9b2d29	-0.30307892
130	0xbcd9eef0	-0.026603192
131	0x3eb70812	0.35748345
132	0xbceda576	-0.029009562
133	0x3ea3a8ac	0.31964624
134	0x3d2b9ffb	0.041900616
135	0xbd509a4f	-0.05092841
136	0xbebaeece	-0.3651032
137	0x3ea66a72	0.32503086
138	0xbecce9dc	-0.4002217
139	0xbe7b3b0f	-0.24534248
140	0xbe97acad	-0.2962393
141	0xbedb4e14	-0.42833006
142	0x3d9a086c	0.075211376
143	0xbe1baa17	-0.15201603
144	0x3e8f23d6	0.27957028
145	0xbe801fe4	-0.2502433
146	0xbcd57f99	-0.02606182
147	0xbd0946fb	-0.033514958
148	0xbec9988f	-0.39374205
149	0xbe260a05	-0.1621476
150	0x3de9bdff	0.11413192
151	0xbea96293	-0.3308302
152	0x3ec1631d	0.3777093
153	0x3eb07fcd	0.34472504
154	0xbe747311	-0.2387202
155	0x3e29be9b	0.16576616
156	0xbe6c7050	-0.23089719
157	0x3d2882c4	0.041140333
158	0x3e0a7284	0.13520247
159	0x3ebe5c4e	0.37179798
160	0x3e5393e9	0.20661892
161	0x3ed6a89f	0.41925523
162	0x3ebf02cf	0.3730683
163	0xbe2a98f9	-0.16659917
164	0x3e0c4548	0.13698304
165	0x3ebd801f	0.3701181
166	0xbc9dfe4c	-0.019286297
167	0xbebdb98c	-0.37055624
168	0xbecf2ddd	-0.40464678
169	0xbe7b7961	-0.24558021
170	0xbe99499b	-0.2993897
171	0xbe6c0b06	-0.2305108
172	0x3e149215	0.14508851
173	0x3db8f7c6	0.09031634
174	0x3edabfb4	0.42724383
175	0x3c9a0c4d	0.018804694
176	0x3e2165e8	0.1576153
177	0xbdb08c1c	-0.08620474
178	0xbe2a4cbd	-0.16630836
179	0xbe0bba20	-0.1364522
180	0xbd9af455	-0.07566134
181	0x3edc999d	0.43085948
182	0x3ef920cf	0.48657843
183	0xbe2a1115	-0.16608079
184	0x3e815012	0.252564
185	0x3d5f4695	0.05451067
186	0x3e7efae9	0.24900402
187	0x3d8a17d9	0.0674283
188	0x3eb5a896	0.35480183
189	0xbe5a92ff	-0.21345137
190	0x3eb43a33	0.35200652
191	0x3ed8f775	0.42376295
192	0xbe155bd1	-0.14585806
193	0x3ea9b211	0.33143666
194	0x3e6b33ee	0.22969028
195	0xbd36707a	-0.04454086
196	0xbe116b79	-0.14201154
197	0xbeab039a	-0.33401185
198	0xbe6d1542	-0.2315264
199	0xbcf5f783	-0.03002525
200	0x3ec94287	0.3930857
201	0x3d00c269	0.031435404
202	0xbe0b7643	-0.13619332
203	0xbd908700	-0.07056999
204	0x3e6d01cc	0.23145217
205	0x3e749411	0.23884608
206	0xbebe4101	-0.3715897
207	0x3d066c11	0.032817904
208	0xbe98fd8c	-0.2988094
209	0xbe01fab0	-0.12693286
210	0x3e3f4921	0.1868024
211	0x3dd849fc	0.105609864
212	0xbea50d72	-0.3223682
213	0xbdc90caf	-0.09816872
214	0x3ea143c7	0.31497023
215	0x3e51fdc1	0.20506956
216	0x3e326116	0.17419848
217	0x3dac72d8	0.08420342
218	0x3eb80bfe	0.3594665
219	0x3edcd41a	0.4313057
220	0xbe12deaa	-0.14342752
221	0x3e3d60db	0.18493979
222	0xbe3d53a7	-0.18488942
223	0xbda98f0b	-0.082792364
224	0xbdb0fcd3	-0.086419724
225	0xbd9a70c0	-0.075410366
226	0x3eaf21bd	0.34205428
227	0xbed466f0	-0.41484785
228	0xbe53fd1f	-0.20702027
229	0xbecf4cf7	-0.40488407
230	0x3d8edb28	0.069753945
231	0xbe883b02	-0.2660752
232	0x3edb4204	0.42823803
233	0xbe53598f	-0.20639633
234	0xbd9a533a	-0.075354055
235	0xbd820855	-0.063492455
236	0xbe4c46c8	-0.19948876
237	0x3ed326eb	0.4124063
238	0xbdc9648c	-0.09833631
239	0x3ec235d9	0.37931708
240	0xbebfa698	-0.37431788
241	0xbe9344c7	-0.2876341
242	0xbee624f8	-0.4495008
243	0x3ece9a22	0.4035197
244	0xbe2a1f4e	-0.16613504
245	0xbe8ae32f	-0.27126452
246	0x3ca55653	0.020182764
247	0xbec65acd	-0.3874115
248	0xbddadbed	-0.10686479
249	0xbd77ef14	-0.060530737
250	0x3d1a8969	0.0377287
251	0xbeb4d656	-0.35319775
252	0x3e54dfef	0.20788549
253	0xbe564895	-0.20926125
254	0x3ec43edb	0.38329205
255	0x3d007dcf	0.03136998

fc.2.weight f4 [256, 256]
0	0x3b838184	0.004013242
1	0xbd371a41	-0.044702772
2	0x3d195262	0.037432082
3	0x3c019903	0.007910016
4	0xbc853e1a	-0.016264964
5	0x3d4c56ff	0.049887653
6	0x3cb0c130	0.021576494
7	0x3c0453d1	0.008076624
8	0xbc931808	-0.017955795
9	0x3d2148a8	0.03937593
10	0xbd30c67a	-0.043158032
11	0xbd1781c5	-0.036988992
12	0xbd1483eb	-0.03625862
13	0x3c1954a2	0.009358557
14	0x3ca6b355	0.020349184
15	0x3c486797	0.012231729
16	0xbcb3e312	-0.021958862
17	0xbd4cdc3c	-0.05001472
18	0xbce95995	-0.028485099
19	0x3d5830a3	0.05278076
20	0xbcc9a5a3	-0.024615115
21	0x3d472cbc	0.048626646
22	0x3cb64b4a	0.022252697
23	0xbd3469e2	-0.04404629
24	0x3d5ef525	0.054433007
25	0x3b973ca7	0.0046153846
26	0x3d24934f	0.040179547
27	0xbc8d9158	-0.01728122
28	0x3cef4b6a	0.029210765
29	0x3d57f1b1	0.05272073
30	0x3c920578	0.017824873
31	0x3c1ca616	0.009561082
32	0xbcb56284	-0.022141702
33	0x3d121ddb	0.035673004
34	0x3d7d938f	0.0619083
35	0x3d1c9568	0.038228422
36	0x3ca456bc	0.02006089
37	0x3d356b47	0.04429176
38	0xbd270896	-0.040779673
39	0xbd0e13f8	-0.034687012
40	0x3acc1a68	0.0015571835
41	0x3d267c71	0.04064602
42	0x3cde3d5b	0.027128866
43	0xbbb8cb87	-0.0056394967
44	0x3d1a7446	0.037708543
45	0x3c1fe457	0.00975903
46	0x3d0c973c	0.034323916
47	0xbd580aa4	-0.052744523
48	0x3d197bd4	0.037471607
49	0xbd1eaa99	-0.038736913
50	0x3d673ef2	0.056456514
51	0x3d668b63	0.056285273
52	0x3cb838c8	0.022488013
53	0xbcff90f1	-0.031197043
54	0xbd07953e	-0.033101313
55	0xbd53e757	-0.051734295
56	0xbd498a6d	-0.04920428
57	0xbcc95a67	-0.02457924
58	0xbd1e6326	-0.038668774
59	0x3c4e01c3	0.012573662
60	0x3d24a32a	0.040194668
61	0x3c55f2ac	0.013058346
62	0x3d8ed608	0.06974417
63	0xbbf6e660	-0.007534787
64	0x3d8bbdae	0.06823288
65	0xbd709938	-0.05873987
66	0xbcbf228c	-0.023331903
67	0x3c768545	0.015046422
68	0xbd37349c	-0.044727907
69	0x3a5f292d	0.00085129106
70	0xbd298ea2	-0.04139579
71	0x3d18b3d1	0.03728086
72	0x3d7d5fa8	0.061858803
73	0xbd34aea6	-0.04411187
74	0x3c57a9b7	0.013163022
75	0xbd242f60	-0.040084243
76	0x3d286601	0.041112904
77	0x3d38532c	0.045001194
78	0x3c830186	0.015991937
79	0x3d1ec8b2	0.038765617
80	0x3b676218	0.0035306271
81	0x3cb37deb	0.021910628
82	0xba9ac3e7	-0.0011807651
83	0xbd47af0f	-0.048750933
84	0x3d4d076c	0.050055906
85	0x3bb2b566	0.0054537533
86	0xbc2f542d	-0.010701221
87	0xbce98b25	-0.028508732
88	0xbd30e5c8	-0.043187886
89	0x3d5fad7b	0.054608803
90	0xbd06cbae	-0.032909088
91	0xbd499698	-0.049215883
92	0xbcbdfb6e	-0.02319118
93	0x3cad54db	0.021158626
94	0x3cb76b82	0.02239013
95	0xbbd54bf1	-0.006509297
96	0xbaa28da4	-0.0012401831
97	0x3adc148b	0.001679079
98	0xbdc7459e	-0.09730075
99	0x3c64beb5	0.013961484
100	0xbd0e74de	-0.034779422
101	0xbc1b375d	-0.009473649
102	0x3d3a7ce4	0.04552926
103	0xbcd30f3c	-0.0257641
104	0xbd5c931d	-0.053851236
105	0xbcc36456	-0.023851555
106	0x3c389b7b	0.011267538
107	0x3c74dd13	0.014945286
108	0xba080c62	-0.00051898335
109	0x3cef9778	0.02924703
110	0xbd8e4e4b	-0.06948527
111	0xbd173ecd	-0.036925126
112	0xbc9a59c8	-0.01884164
113	0x3cbcf458	0.02306573
114	0xbd126615	-0.035741884
115	0xbd25525f	-0.04036176
116	0xbbebcf77	-0.0071963626
117	0x3a7104b2	0.000919412
118	0xbc1ea5e5	-0.009683107
119	0x3d734cda	0.059399463
120	0x3c1e603a	0.009666497
121	0xbc0d7146	-0.0086329635
122	0x3d06f0cc	0.032944486
123	0x3d366c09	0.044536624
124	0x3d06f5f3	0.0329494
125	0x3bff4592	0.007790276
126	0xbc089e0d	-0.0083384635
127	0xbcb71820	-0.02235037
128	0x3d3a3da4	0.04546894
129	0xbcf04725	-0.0293308
130	0xbbc25ff0	-0.005931847
131	0xbcfb9fe7	-0.030715896
132	0xbd84ce64	-0.064846784
133	0x3d426d4a	0.047467507
134	0x3d168566	0.036748312
135	0x3c0bff57	0.0085447645
136	0xbd3ea327	-0.046542313
137	0x3d3915d0	0.045186818
138	0xbd5c53d3	-0.05379088
139	0x3c8101c8	0.01574792
140	0xbd8f1954	-0.06987253
141	0xbd345c7d	-0.044033516
142	0x3d24d0c9	0.040238176
143	0xbb0bcf5a	-0.0021333308
144	0x3cbac330	0.02279815
145	0x3cf81c38	0.030286893
146	0xbcc3f360	-0.023919761
147	0xbc90c4e9	-0.01767202
148	0xbbec985c	-0.007220311
149	0x3cbeb946	0.023281705
150	0x3c9d367d	0.019191021
151	0x3bc175a5	0.005903917
152	0x3d10187d	0.035179604
153	0xbd0dcc31	-0.03461856
154	0x3cdab347	0.026696814
155	0x3c0cbd31	0.008590029
156	0x3c5cb7e0	0.013471574
157	0x3d4fa0e2	0.05069054
158	0x3c1fea2b	0.00976042
159	0xba193b15	-0.0005845291
160	0xbd1db256	-0.038500153
161	0xbd374431	-0.044742767
162	0xbd3c7cfd	-0.046017636
163	0x3d27458f	0.04083782
164	0x3c15dc58	0.009146772
165	0xbd42fa5d	-0.047602046
166	0x3be3814d	0.006942904
167	0xbc2d87f2	-0.010591494
168	0x3cbbc40d	0.022920633
169	0x3c6f12d8	0.014591895
170	0xbd69909c	-0.057022676
171	0xbd3dd8b3	-0.04634924
172	0x3b0fd3ce	0.0021946314
173	0x3d2f3f05	0.04278471
174	0xbcec5ead	-0.028853739
175	0x3d615cbb	0.055020075
176	0xbae3a0c9	-0.0017366643
177	0x3ac23ede	0.0014819761
178	0xbcece219	-0.028916406
179	0xbd2ca698	-0.042151064
180	0xbcd323a2	-0.025773827
181	0xbc917a32	-0.017758463
182	0x3cb74043	0.02236951
183	0x3c8b72cc	0.017022513
184	0xbb86e40e	-0.0041165417
185	0xbd193423	-0.037403237
186	0xbd15cf41	-0.036574606
187	0x3d0d1c61	0.034450892
188	0x3d3eb69f	0.04656088
189	0xbc411c88	-0.011786588
190	0x3c0332a9	0.008007684
191	0x3dc2faf6	0.09520523
192	0xbd584e72	-0.052809186
193	0x3d07905d	0.03309666
194	0xbd55f5f7	-0.052236523
195	0x3d506b87	0.050883796
196	0xbd454158	-0.04815802
197	0xbd19c896	-0.03754481
198	0xbca6a6d2	-0.020343218
199	0x3c80a1b2	0.015702102
200	0xbd08dd57	-0.03341421
201	0x3b53fbdc	0.0032346165
202	0xbcd549bf	-0.026036141
203	0xbc8d04b0	-0.01721415
204	0xbd48d734	-0.04903336
205	0x3d5a3ec0	0.0532825
206	0x3bc2e501	0.0059477095
207	0x3d5ac230	0.053407848
208	0xbd0eac36	-0.034832202
209	0x3d075cea	0.033047594
210	0xbd63c574	-0.055608228
211	0x3d47bfe4	0.048766986
212	0xbce62309	-0.028092878
213	0xbd2f83a7	-0.042850163
214	0xbcb947d7	-0.022617264
215	0x3d3ac96c	0.045602247
216	0xbce96283	-0.028489357
217	0x3d40fd79	0.04711673
218	0xbd299d64	-0.041409865
219	0xbcdc2f19	-0.026877927
220	0xbd978f55	-0.07400385
221	0xbc3e24e6	-0.011605477
222	0xbcadad5e	-0.021200832
223	0xbd049d62	-0.032376654
224	0x3d5d1348	0.053973466
225	0xbd5d9860	-0.054100394
226	0xbcbb78e9	-0.022884803
227	0x3c785963	0.01515803
228	0xbd27bf8b	-0.040954154
229	0x3d19ab41	0.037516836
230	0x3d2aa126	0.04165759
231	0xbd0989ab	-0.033578556
232	0x3c19a613	0.009377974
233	0xbd0b7ca2	-0.034054406
234	0x3d1de01c	0.038543805
235	0xbc4036a0	-0.011731774
236	0xbd209b15	-0.039210398
237	0xbd94b793	-0.072615765
238	0x3c14d83c	0.009084757
239	0xbcc0f367	-0.023553563
240	0xbc9f02c3	-0.019410497
241	0x3b9e3f6a	0.004829337
242	0x3c6759c8	0.014120527
243	0x3d3b868b	0.045782607
244	0x3c111a97	0.008856437
245	0xbd5c9fe6	-0.05386343
246	0xbcc806e5	-0.02441735
247	0x3d102d9a	0.03519974
248	0xbd3faf4d	-0.04679804
249	0x3c3bf0c2	0.011470975
250	0xbd3276be	-0.043570273
251	0x3d5ae13c	0.053437456
252	0x3b444ae2	0.002995186
253	0xbd3f9b42	-0.046778925
254	0xbcd9a223	-0.02656657
255	0xbb88d213	-0.0041754334

fc.2.bias f4 [256]
0	0x3ddf76de	0.10911344
1	0xbc173ffa	-0.009231562
2	0x3d48bb0a	0.0490065
3	0x3cd7f4a1	0.026361765
4	0x3d0f2cdc	0.03495489
5	0xbd113abe	-0.03545641
6	0xbcb6fef6	-0.022338372
7	0x3c0ce6ec	0.008599978
8	0x3c88abe1	0.01668352
9	0x3c638d9f	0.013888746
10	0xbbeb4268	-0.007179547
11	0xbc9b7c44	-0.018980153
12	0xbcd0add1	-0.025473507
13	0x3d62bb49	0.05535439
14	0x3d36d89e	0.044640176
15	0x3d3cd08a	0.046097316
16	0x3bbb4c0a	0.0057158517
17	0x3b3ef61e	0.0029138396
18	0x3d654e83	0.055983078
19	0x3b3d8cec	0.0028923107
20	0x3e4d0924	0.20023018
21	0xbc168619	-0.009187245
22	0x3c52d4bb	0.012868102
23	0x3d517800	0.05113983
24	0x3d507458	0.050892204
25	0xbca4c866	-0.020115089
26	0x3cc542e1	0.024079742
27	0xbcfb2a8d	-0.030659938
28	0x3cef9e7b	0.029250374
29	0xbd17728e	-0.036974482
30	0x3d38238d	0.04495578
31	0xbabf8938	-0.0014613038
32	0x3d0cf193	0.03441007
33	0xbd3ca38c	-0.046054408
34	0x3cf6380c	0.030056022
35	0x3b7572e4	0.0037452513
36	0xbd472e14	-0.048627928
37	0x3d25b060	0.040451407
38	0xbd447c1c	-0.047969922
39	0x3d6488c5	0.055794496
40	0xbd23a95b	-0.03995643
41	0xbae76089	-0.0017652671
42	0x3c2f7af9	0.010710471
43	0x3c4f37a4	0.012647543
44	0xbd0afaf6	-0.03393074
45	0x3cf52375	0.029924134
46	0xbd15f730	-0.03661269
47	0x3d1b0f3f	0.037856337
48	0x3cc18f8d	0.02362802
49	0x3d2e2bad	0.04252212
50	0xbcc6d74e	-0.024272587
51	0xbd2fc3f0	-0.04291147
52	0x3cea0aa4	0.028569527
53	0x3b7222cb	0.0036947008
54	0xbd5dfd64	-0.05419673
55	0xbd63878c	-0.05554919
56	0xbc8d4e99	-0.017249392
57	0xbd0c31b8	-0.034227103
58	0x3cbee0c5	0.023300538
59	0xbd3119dc	-0.043237552
60	0x3d4a1cdb	0.049343925
61	0x3d2b647d	0.04184388
62	0x3d12ae87	0.035810973
63	0x3d26df6f	0.040740427
64	0xbcdece2a	-0.027197916
65	0x3d5d3418	0.05400476
66	0xbc17d067	-0.009265996
67	0xbc64e87e	-0.013971446
68	0x3d473898	0.048637956
69	0x3d54320b	0.051805537
70	0xbcc18cb4	-0.023626663
71	0x3bdff049	0.006834064
72	0x3c85edd2	0.016348753
73	0x3c62fd31	0.013854311
74	0x3c712fea	0.014720896
75	0x3cdd2236	0.026993852
76	0x3e2c6838	0.16836631
77	0x3ddda7d9	0.1082303
78	0xbb8cca7a	-0.004296598
79	0x3d31429d	0.043276418
80	0xbd3bf6f8	-0.045889825
81	0xbd1efde4	-0.038816348
82	0xbcdf04d6	-0.027223986
83	0x3cbd24c1	0.023088815
84	0x3b5354e8	0.0032246653
85	0x3d7c86e9	0.061652098
86	0x3dbca23e	0.09210633
87	0xbd6d3d7d	-0.057919968
88	0xbd3b3b92	-0.045711108
89	0xbd6e3ada	-0.058161594
90	0xbd734ab2	-0.059397407
91	0x3caa6891	0.020801814
92	0xbd0b6668	-0.03403321
93	0xbce2a3e3	-0.027666038
94	0xbbcfb021	-0.006338135
95	0x3dde3dab	0.10851606
96	0xbcfec06c	-0.031097613
97	0x3a232792	0.0006223853
98	0x3a49db63	0.00077002327
99	0x3d44d9cf	0.04805928
100	0x3e080ed6	0.1328691
101	0xbcc641ae	-0.02420124
102	0x3dc41f3c	0.0957627
103	0xbc99adb8	-0.018759593
104	0x3ccea0dc	0.025223188
105	0xbcd955b8	-0.026530132
106	0x3cb8f242	0.022576455
107	0xbb678dd2	-0.0035332334
108	0x3ce66e94	0.0281289
109	0xbd078c20	-0.033092618
110	0x3cdcc041	0.026947143
111	0x3cd0fbd9	0.025510715
112	0x3c494230	0.012283847
113	0x3d2d8ccc	0.042370602
114	0xbd2706ad	-0.04077785
115	0xbcc0f8cb	-0.023556134
116	0xbcfba9a5	-0.030720541
117	0x3cb7d2e0	0.02243942
118	0xbd416f01	-0.047225002
119	0xbd23992e	-0.039941005
120	0x3c688619	0.014192128
121	0x3d32d962	0.043664344
122	0x3d518cb1	0.051159564
123	0x3d3c4998	0.045968622
124	0x3c92fc63	0.017942613
125	0xbc853af4	-0.016263463
126	0x3d2a8ac4	0.041636243
127	0x3c8d2f8f	0.017234592
128	0xbd63e447	-0.055637624
129	0x3d8b2ec0	0.06796026
130	0x3cc63a5e	0.024197754
131	0xbd14194d	-0.03615694
132	0x3d1f570e	0.03890138
133	0x3c8ede18	0.017439887
134	0xbd60e8e8	-0.054909617
135	0xbd74fbda	-0.059810497
136	0xbce6cf7d	-0.02817511
137	0x3ceca8ea	0.028889138
138	0xbb70d8d0	-0.0036750324
139	0xbcf9002e	-0.030395593
140	0x3a82cddb	0.0009979563
141	0x3d4b7b70	0.049678266
142	0xbd831fc1	-0.06402541
143	0x3d5657ab	0.0523297
144	0x3c433d51	0.011916474
145	0xba6b0896	-0.0008965818
146	0x3d52831f	0.051394578
147	0xbba070db	-0.004896266
148	0x3cee4bec	0.029088937
149	0x3ce86e83	0.028373009
150	0x3d911bfb	0.07085415
151	0xbd30589d	-0.04305326
152	0xbd30a9c6	-0.04313066
153	0xbc4776f5	-0.012174358
154	0x3c595aa4	0.013266239
155	0xbadc468d	-0.0016805694
156	0x3cb03bf9	0.021512972
157	0x3a83ec0b	0.0010064853
158	0x3cebae4f	0.02876964
159	0xbd844288	-0.06458002
160	0xbca6f6e1	-0.020381393
161	0xbcc33e8e	-0.02383354
162	0x3db54077	0.08850186
163	0x3c39f6ac	0.011350315
164	0xbd568800	-0.052375793
165	0x3b80deb2	0.0039327973
166	0xbcc9233a	-0.02455293
167	0xbd19e40d	-0.037571
168	0x3d144d60	0.036206603
169	0x3cd52f6b	0.026023587
170	0x3d3b6929	0.045754585
171	0xbc20bd2c	-0.009810727
172	0x3d11f8aa	0.035637535
173	0x3d024337	0.031802382
174	0xbd695a5a	-0.05697093
175	0x3db37853	0.087631844
176	0x3d1680c5	0.036743898
177	0x3d05496b	0.03254072
178	0x3d2fff94	0.042968348
179	0xbd00ac1c	-0.031414136
180	0xbd73a4fa	-0.059483506
181	0xbb11e3ee	-0.00222611
182	0xbd424771	-0.047431413
183	0xbd805fb0	-0.06268251
184	0x3cba0e2a	0.022711832
185	0xbd4b1a39	-0.049585555
186	0x3c20e3d5	0.009819944
187	0x3a8cd6b8	0.0010745144
188	0x3dac747a	0.08420654
189	0x3d0b842a	0.03406159
190	0x3d43596b	0.047692697
191	0xbca0d6bd	-0.019633645
192	0xbd3d0408	-0.046146423
193	0x3ddd1be2	0.10796334
194	0x3d14c419	0.036319826
195	0x3c8dfacf	0.017331509
196	0xbbe4bded	-0.0069806487
197	0x3d12e2f7	0.03586098
198	0x3ce82090	0.02833584
199	0x3d3b1742	0.045676477
200	0x3d043041	0.03227258
201	0xbd6dcc2f	-0.058056053
202	0x3d860a3e	0.06544922
203	0xbc9166c4	-0.017749198
204	0x3d01fa3b	0.03173278
205	0xbd82834e	-0.06372701
206	0x3b4a9204	0.0030909786
207	0xbc913b85	-0.017728576
208	0xbb79a85b	-0.0038094732
209	0xbd5f966d	-0.054586817
210	0x3e07d39d	0.13264318
211	0xbc08656d	-0.008324963
212	0xbbde88d4	-0.0067912135
213	0xbcd2f7e3	-0.025752967
214	0x3cf9c7c6	0.030490767
215	0xbcc7f422	-0.024408404
216	0xbd8197cb	-0.0632778
217	0x3d2f3bd3	0.042781662
218	0x3cb1d58e	0.021708276
219	0x3c1c2a05	0.009531503
220	0x3d1b87e0	0.037971377
221	0xbd5de519	-0.054173563
222	0xbd24d94a	-0.040246285
223	0x3be7112a	0.0070516067
224	0xbd12282c	-0.035682842
225	0xbc6abee6	-0.01432774
226	0x3d991de7	0.074764065
227	0xbd734676	-0.05939337
228	0x3c407a7b	0.011747952
229	0xbd07a329	-0.033114586
230	0xbccb2d75	-0.024801949
231	0x3de7eed4	0.1132485
232	0xbbf141df	-0.007362589
233	0x3c0d24f5	0.008614768
234	0x3cb363d0	0.02189818
235	0x3e018df1	0.12651803
236	0xbd0fe527	-0.035130646
237	0x3b1e35df	0.0024140996
238	0xbce6dadd	-0.028180534
239	0x3d1bb388	0.03801301
240	0x3d50bc13	0.05096061
241	0x3cef4783	0.029208904
242	0x3d81477a	0.06312461
243	0x3dc2f097	0.09518545
244	0x3c9382b7	0.018006666
245	0xbd621c5e	-0.055202834
246	0x3cab509b	0.02091246
247	0x3d5c9ece	0.053862385
248	0xbca543ca	-0.020173926
249	0x3d1c1347	0.03810432
250	0x3ba7e38d	0.0051235617
251	0xbd3dd669	-0.046347056
252	0xbcb1943d	-0.02167713
253	0xbc6792f6	-0.014134159
254	0x3d0f658e	0.03500896
255	0x3db2d7b6	0.0873255

fc.4.weight f4 [1, 256]
0	0x3d2b2561	0.041783694
1	0xbd361cbd	-0.044461
2	0x389bf82c	7.4372016e-05
3	0x3d36bac8	0.044611722
4	0x3c4d4354	0.012528259
5	0xbd27445a	-0.04083667
6	0xbcc1ee88	-0.02367331
7	0x3baaa1dc	0.0052072834
8	0x3c33a6de	0.010965077
9	0xbc19bfdd	-0.009384123
10	0x3cb97f85	0.022643814
11	0x3be38f34	0.0069445614
12	0xbd3aeeb8	-0.045637816
13	0xbc76d4ca	-0.015065381
14	0x3d136959	0.03598914
15	0xbd039875	-0.032127816
16	0x3cfd50e4	0.03092236
17	0xbcdcdb3b	-0.026960006
18	0xbc0a6f64	-0.008449409
19	0xbd4b9840	-0.049705744
20	0x3d20d24b	0.03926305
21	0xbcc5feb9	-0.024169313
22	0xbd6e445b	-0.058170658
23	0xbd3904e5	-0.045170683
24	0xbd31ad48	-0.043378145
25	0xbd3f3962	-0.046685584
26	0xba2f6d6e	-0.00066920265
27	0xbd2242b9	-0.039614413
28	0x3b6f5377	0.0036518255
29	0x3d765971	0.06014389
30	0xbc897913	-0.016781365
31	0xbd15d478	-0.03657958
32	0x3bd2d8bd	0.0064345286
33	0x3bad8fcd	0.0052966834
34	0x3cfc68a2	0.030811612
35	0xbd4e6030	-0.0503847
36	0xbc86677c	-0.016406767
37	0xbd328869	-0.043587122
38	0x3cea3b9f	0.028592883
39	0x3c7d706c	0.015468698
40	0xbb859df1	-0.004077666
41	0x3a82c88b	0.0009977979
42	0xbc8d0c0c	-0.017217658
43	0xbcfdedf8	-0.030997261
44	0xbd2f711f	-0.04283249
45	0xbc52972a	-0.012853423
46	0xbd646a21	-0.055765275
47	0xbc631a94	-0.013861317
48	0xbca2b817	-0.019863172
49	0xbcedf859	-0.029049085
50	0x3d0d3dcd	0.034482766
51	0xbb914a9b	-0.0044339425
52	0x3ce76eb4	0.02825103
53	0x3d3f2a66	0.046671294
54	0x3d5e05bc	0.054204687
55	0xbb9e4176	-0.004829581
56	0xbcf526ae	-0.02992567
57	0x3a03caed	0.0005027492
58	0xbd296aa4	-0.041361466
59	0x3c51da1a	0.012808347
60	0x3d21ec3e	0.03953194
61	0xba97e670	-0.0011589061
62	0xbcedb33d	-0.029016132
63	0xbb136070	-0.00224879
64	0x3c91e044	0.017807133
65	0xbc0a62ca	-0.008446405
66	0xbcff5b14	-0.03117136
67	0x3cb471ed	0.02202698
68	0xb9f869ab	-0.00047380975
69	0xbcdab856	-0.026699226
70	0xbd3d7dec	-0.046262667
71	0xbd1f6a54	-0.03891976
72	0xbba426c7	-0.0050095054
73	0x3b85954f	0.004076637
74	0xb9c9b53d	-0.0003847274
75	0xbb623e3b	-0.0034521956
76	0x3d3e8d4c	0.04652147
77	0x3d9460c1	0.07245017
78	0xbd738889	-0.059456382
79	0x3c969189	0.018379943
80	0xb98beec8	-0.00026690052
81	0xbc5d276c	-0.013498168
82	0x3d23a1c6	0.0399492
83	0x3c9be1ac	0.019028507
84	0xbcf91d78	-0.03040956
85	0x3d27e31b	0.04098807
86	0x3d43a5d0	0.047765553
87	0xbcc93ea9	-0.024566012
88	0x3d23914a	0.03993348
89	0x3d5ed78c	0.05440478
90	0xbb5d4dfb	-0.0033768404
91	0x3b907c91	0.0044093807
92	0xbd753547	-0.059865262
93	0x3c40ac17	0.011759779
94	0xbc477e16	-0.012176057
95	0x3c9eb537	0.01937352
96	0xbc40fe08	-0.011779316
97	0x3c3012ae	0.010746641
98	0x3c9ab2d7	0.018884106
99	0xbcb18f16	-0.021674674
100	0x3d52402f	0.05133074
101	0x3d4d9923	0.05019487
102	0x3c309f43	0.010780158
103	0x3d15ed59	0.036603305
104	0xbccac067	-0.024749948
105	0x3c855dd8	0.0162801
106	0xbabb8356	-0.0014306109
107	0xbac53ac2	-0.0015047418
108	0x3cb55f88	0.02214028
109	0x3d6cf55f	0.05785119
110	0xbd2748bb	-0.040840846
111	0xbb09012f	-0.0020905246
112	0xbc33e58e	-0.010980023
113	0x3d6120af	0.05496281
114	0x3d3e26b2	0.04642362
115	0xbc6ca511	-0.014443652
116	0xbc41af50	-0.011821583
117	0x3d215015	0.039383013
118	0x3b1478f2	0.0022655097
119	0xba99c059	-0.0011730298
120	0xbc84d7d8	-0.016216204
121	0xbd1f1105	-0.03883459
122	0xbcb2363c	-0.021754377
123	0xbc4258a3	-0.011861953
124	0xbcbda1e5	-0.023148486
125	0xbd303120	-0.0430156
126	0xbd5b6c21	-0.053569917
127	0xbd49ffdc	-0.049316272
128	0xb9e92a45	-0.00044472716
129	0x3d53644f	0.051609334
130	0xbab8bcaf	-0.0014094318
131	0xbca3ebce	-0.020009901
132	0x3d6605d2	0.056157894
133	0xbcbb2665	-0.022845456
134	0x3d10f1f4	0.035386994
135	0x3c431bf6	0.011908522
136	0x3d0116df	0.031515952
137	0xbcd6a948	-0.026203766
138	0xb8c3b77e	-9.332503e-05
139	0xbc3590e2	-0.011081906
140	0xbcde1de8	-0.02711387
141	0xba1bd6c8	-0.00059447857
142	0x3d3b2f66	0.0456995
143	0x3d005692	0.03133256
144	0xbc3754d0	-0.0111896545
145	0x3a093331	0.00052337634
146	0xbd2b5e1c	-0.041837797
147	0x3c01ace3	0.007914755
148	0x3d4d155a	0.05006919
149	0xbc97b826	-0.018520426
150	0x3d960eb8	0.07327026
151	0xbc53c78e	-0.0129259955
152	0x3cffd308	0.031228557
153	0xbb2758bd	-0.002553507
154	0x3d105099	0.035233114
155	0xba141a6f	-0.0005649691
156	0x3c1b07bf	0.009462296
157	0xbcd8fd02	-0.026487831
158	0xbd18a87e	-0.03727006
159	0xbbd81ca0	-0.0065952092
160	0xbc998607	-0.018740667
161	0x3d3a3eda	0.045470096
162	0x3d186c0d	0.03721242
163	0x3d5e0f99	0.054214094
164	0xbd58bbe4	-0.05291356
165	0xbd24e9df	-0.0402621
166	0xbbecfffe	-0.007232665
167	0xbd6da26f	-0.058016237
168	0x3c2c583f	0.010519086
169	0xbd3b6c04	-0.04575731
170	0xbd8c4571	-0.068491824
171	0xbba487e4	-0.0050210822
172	0xbd5097b2	-0.050925918
173	0x3c31edac	0.010859888
174	0xbd40b167	-0.047044184
175	0x3d38728a	0.045031108
176	0xbcbb9fb5	-0.022903303
177	0xbd604d8d	-0.05476146
178	0x3d1a5c80	0.03768587
179	0x3c3d56e8	0.011556365
180	0xbcd1b052	-0.025596771
181	0x3d2b9ece	0.041899495
182	0xbd07ef3f	-0.033187147
183	0xbcb1df52	-0.021712933
184	0x3bf9b2d4	0.007620195
185	0x3d198961	0.03748453
186	0xbc35eebe	-0.011104284
187	0xbd28e637	-0.041235175
188	0x3d305f66	0.04305973
189	0x3d401256	0.046892487
190	0x3c6e39b6	0.014540127
191	0x3d288b09	0.04114822
192	0x3d0f8d36	0.03504678
193	0x3bdf0abb	0.006806699
194	0x3b8fe5f3	0.0043914258
195	0x3d309a99	0.043116186
196	0x3cb5d29e	0.022195157
197	0x3d15d112	0.036576338
198	0xbb836d87	-0.0040108594
199	0x3d209c04	0.039211288
200	0x3b40bca8	0.0029409323
201	0xbc8f1ce3	-0.017469829
202	0xbc8093ec	-0.015695535
203	0xbcefb487	-0.029260887
204	0x3c82b2fb	0.015954485
205	0xbcdf4bd6	-0.027257841
206	0x3b679d8a	0.0035341703
207	0xbc2376e9	-0.009977081
208	0xbd2502ba	-0.040285803
209	0xbd4e2575	-0.05032869
210	0x3d774256	0.060365997
211	0x3c5337a1	0.012891681
212	0x3d58bd42	0.052914865
213	0x3d3c654f	0.045995053
214	0xbd28f336	-0.04124757
215	0x3d22b6fe	0.039725296
216	0xbd140ba7	-0.036143925
217	0xbd49023f	-0.049074408
218	0xbd3c7bf5	-0.046016652
219	0xbd5cf767	-0.05394688
220	0x3c8440f1	0.016144248
221	0x3c99b268	0.018761829
222	0xbd24e062	-0.04025305
223	0x3d0528a0	0.032509446
224	0x3d5e4826	0.054268025
225	0xbbf21458	-0.007387679
226	0x3c9b0414	0.018922843
227	0x3cd367cd	0.025806332
228	0xbd097e87	-0.03356793
229	0x3b72dbfb	0.0037057388
230	0xbc09da7e	-0.008413909
231	0x3cb9e4d6	0.022692125
232	0xbd64a7c0	-0.05582404
233	0xbd6756d4	-0.05647929
234	0x3d34cc72	0.044140287
235	0x3cdd8c7d	0.02704453
236	0x3d45d1de	0.048295848
237	0x3ce61fc1	0.028091313
238	0xbc2e1028	-0.010623969
239	0xbbbcd8ab	-0.0057631335
240	0xbcaa1a96	-0.02076463
241	0xbd6b87b1	-0.057502452
242	0x3c97fba2	0.018552605
243	0x3ba86060	0.005138442
244	0xbcfeda7b	-0.031110039
245	0xbd3ba37a	-0.0458102
246	0xbd1c7435	-0.03819676
247	0x3d288991	0.04114682
248	0x3d41b60a	0.047292747
249	0x3c86e647	0.016467227
250	0xbd3d80d6	-0.046265446
251	0x3d18668a	0.037207164
252	0x3d0b9cf0	0.034085214
253	0xbd328251	-0.04358131
254	0x3c4b88bf	0.0124227395
255	0x3c7b1cc3	0.015326682
