models/tetris_best.pt (torch, 272702 bytes, 5 tensors)

fc.0.weight f4 [256, 5]
000000 a2 8b af be 69 ba a9 bd c5 47 9f bc 97 a2 fd bd
       -0.3428622 -0.08287508 -0.019443402 -0.12384527
000010 41 38 26 be ca c0 90 3e b5 b9 c8 3e 88 cb 45 bd
       -0.16232397 0.28272086 0.39204183 -0.048289806
000020 be 90 0e be 02 95 05 3e 34 f3 c5 be 78 d1 31 be
       -0.13922402 0.13045123 -0.38662112 -0.17365062
000030 fb 52 95 3e 20 e8 8f 3e 26 72 72 be 89 2f 7d be
       0.29164872 0.28106785 -0.23676357 -0.24725164
000040 5c 63 c6 3e 99 7a 6e 3e 91 07 4a bd f0 af c2 3e
       0.3874768 0.23288955 -0.049323622 0.38024855
000050 35 fa 43 be 4c ab be be cd cd db bd 00 1c d1 be
       -0.19138415 -0.37240064 -0.10732613 -0.40841675
000060 73 55 08 3e 80 25 55 bc 3c 85 9a be 31 ec 75 3e
       0.13313846 -0.013009429 -0.30179775 0.24015881
000070 2f d0 c5 3d f0 c1 a4 3c fc 42 ac bc b6 2f 6f 3d
       0.096588485 0.020112008 -0.021028034 0.05839511
000080 c5 32 3c 3e 9d 97 8c 3e e3 91 d6 be eb 94 3c 3e
       0.18378742 0.27459422 -0.41908178 0.18416183
000090 97 4d 3e be 73 38 d2 be 36 5e 98 3d ac b4 92 3e
       -0.18584286 -0.41058692 0.07439844 0.28653467
0000a0 17 80 85 be e5 2a 96 bd aa bd be 3e 57 67 9c 3e
       -0.26074287 -0.073324 0.37254077 0.30547592
0000b0 1b 12 a1 be e2 04 61 3d 8a 13 8f 3e a8 57 49 3e
       -0.31459126 0.054936297 0.27944595 0.19662344
0000c0 ee 30 10 bd 97 13 a3 bd 55 05 94 bb 01 c6 fa bd
       -0.035202913 -0.07962721 -0.004517237 -0.122447975
0000d0 f8 09 6d bd d3 da 85 3e 44 47 8b 3e 99 22 ab 3e
       -0.057870835 0.26143512 0.2720281 0.33424833
0000e0 fd 13 d7 3e ac e3 a6 be e9 7a 72 be 24 b5 70 be
       0.42007437 -0.32595575 -0.23679699 -0.235066
0000f0 05 82 a1 3e dc c0 c3 be 28 dd 4d 3e a9 f5 d1 bd
       0.3154451 -0.38233078 0.20103896 -0.10251934
000100 bd fa db 3e 59 d5 9d 3d 8e 49 81 3e 45 74 33 3e
       0.42964736 0.077067085 0.2525143 0.17524822
000110 4f 66 46 3e 89 b5 c4 3d c1 6c be 3e ee 74 66 be
       0.19374965 0.096049376 0.37192348 -0.22505543
000120 06 99 b4 3d 4f 2f b8 3e a0 3a 73 3e 40 d5 ec bc
       0.088182494 0.35973594 0.23752832 -0.02891028
000130 5b 46 3b 3e 03 53 03 be 25 65 38 bd e9 32 8d bd
       0.18288557 -0.12824635 -0.045018334 -0.06894476
000140 f3 ec 88 be 7d 9f d4 bd d8 38 9d 3e d1 7a aa bd
       -0.26743278 -0.103819825 0.3070743 -0.083242066
000150 e9 5c 63 be 94 26 81 3e 10 34 cb be 1f b9 b4 3d
       -0.22203411 0.25224745 -0.39688158 0.088243715
000160 35 a8 bb 3a 35 b7 c5 3e e7 4d 95 3e e1 a0 85 3e
       0.0014317097 0.38616338 0.29160997 0.26099303
000170 f2 65 b2 3e 7c cb cc 3e 4f 79 96 be d0 9e 7f be
       0.34843403 0.39998996 -0.29389426 -0.24962926
000180 41 13 5e be d2 2a a4 3e 7f 5a 4d 3e 0c 77 61 3d
       -0.21687032 0.3206392 0.20054053 0.055045173
000190 32 7f b3 be f4 c4 c0 be 53 da 45 bb 50 eb df be
       -0.3505798 -0.37650263 -0.0030189946 -0.43734217
0001a0 3a e6 4c bd e6 1e 00 bf 07 3c e8 bc f4 9b 9c 3d
       -0.05002425 -0.5004715 -0.028348936 0.07646933
0001b0 7c 8d ec 3c 0d 1d 9f bd cf e9 59 3e 0f e0 80 be
       0.028876059 -0.07769213 0.21280597 -0.25170943
0001c0 a1 6b 50 3e 19 17 cf 3e 84 96 85 3e 9b 57 c8 bd
       0.20353557 0.4044731 0.26091397 -0.097823344
0001d0 78 f7 91 be a1 c9 e5 3c c1 3a a1 be ec ee ca bd
       -0.28509116 0.028050246 -0.31490138 -0.09908852
0001e0 8f 27 df 3e 29 37 6a 3e 34 e0 2f 3e 7b 36 72 3e
       0.43584868 0.22872604 0.1717537 0.23653595
0001f0 8b 11 bd be fc 70 54 3e 7b 16 d5 3e 99 2f b2 be
       -0.36927447 0.20746225 0.41618714 -0.3480194
000200 3c 50 ed 3d 1e 1d 6e be 4e 7f 89 be 6c 40 63 3d
       0.11587569 -0.23253295 -0.26854938 0.05548136
000210 c5 5d 0b 3e f2 ba 9b be 67 e2 99 bd d2 cc 56 bd
       0.13609989 -0.30416065 -0.07513886 -0.052441426
000220 70 41 97 be df 2f 52 be c0 36 4c be 09 e9 bf 3e
       -0.29542112 -0.20526074 -0.1994276 0.3748248
000230 d5 5f 95 3e 8b ce f9 3d ef 40 5c be fb 8f 97 3e
       0.29174677 0.12197598 -0.21509145 0.29602036
000240 a8 32 19 3e 75 a4 17 be 8d 34 96 bd 6d fd d8 3e
       0.1496073 -0.14808829 -0.07334242 0.4238085
000250 98 70 ae 3e f2 7f ab be 82 13 1e 3e 65 39 4a be
       0.34070277 -0.33496052 0.15437129 -0.19748457
000260 5e 0f 16 3d e9 a1 ae be 0b fb d5 be cc 4d 53 ba
       0.03663575 -0.34107903 -0.41793093 -0.0008060604
000270 f3 36 6b 3e 67 bf 86 be 9d dd 6b 3d 8b bd 40 3e
       0.2297018 -0.26317903 0.057584394 0.18822305
000280 dd 05 ac 3e f8 dd 2f be 10 5c 4e 3a 98 6b 9b be
       0.33598223 -0.17174518 0.0007871995 -0.30355525
000290 51 e6 5e bd ea c2 13 3e 43 00 77 3c a1 05 4a bd
       -0.054418866 0.14429823 0.015075746 -0.049321774
0002a0 d3 43 ad 3e a2 d6 b0 3e 51 e1 a5 bd 99 df 25 be
       0.33840808 0.34538752 -0.08099616 -0.16198577
0002b0 92 47 52 bc c7 26 c4 be 0a 6e d5 3d e4 c7 b7 3e
       -0.0128344465 -0.38310835 0.10421379 0.35894692
0002c0 5c 53 ea bc 39 65 2b be 04 fb b9 3e ba 11 d7 3e
       -0.028604202 -0.16737832 0.36324322 0.42005712
0002d0 5f c1 d8 3e c0 c6 59 3e 19 4e a3 be ac b4 c6 be
       0.4233503 0.21267223 -0.3189552 -0.38809717
0002e0 f8 52 3a 3e 5b c9 10 be 4e 32 20 be 0f 01 a0 3d
       0.18195713 -0.14139311 -0.1564419 0.07812702
0002f0 ed 8a 97 be bf f9 89 3e df 32 7b bd b5 18 25 3e
       -0.2959818 0.26948354 -0.06132781 0.16122706
000300 37 12 c4 be c4 ad ba 3e 56 ec 9b bd 7f dc da 3e
       -0.38295147 0.36460698 -0.07613437 0.4274635
000310 cc a8 a7 be 71 7e ff bd 5d d2 df bd b5 91 29 be
       -0.3274597 -0.12475289 -0.109287955 -0.16559489
000320 52 8d a9 3e 50 1b e1 3e f5 25 28 be 61 6a 89 be
       0.3311563 0.4396615 -0.1642073 -0.26838973
000330 0f 78 40 be 1e 15 c6 be 98 39 37 3e e5 29 07 be
       -0.18795799 -0.38687986 0.17893064 -0.13199575
000340 94 9a 4e be ae e3 c6 be 01 ca dd bd 14 08 8c 3d
       -0.20176154 -0.3884558 -0.10829545 0.06837478
000350 d6 05 0a bc 9a 44 75 3e d1 5e be 3d 46 67 95 3e
       -0.008424243 0.2395195 0.092954285 0.29180354
000360 b7 23 42 bd 51 2a a6 3d 11 a7 67 be f8 95 8c 3e
       -0.04739734 0.0811354 -0.22622325 0.27458167
000370 58 17 ca 3e 4c 82 b0 be 49 8f e1 bd 50 a1 6c 3d
       0.39470935 -0.3447441 -0.110136576 0.057771027
000380 fa 4a 10 be 92 2a ac 3e e2 6c 87 be 4d a1 21 be
       -0.14091101 0.3362623 -0.26450258 -0.15784188
000390 10 73 cb be be a0 9b 3d f8 f4 ae be 86 8e db be
       -0.39736223 0.075990185 -0.3417127 -0.42882174
0003a0 db 9e dd be b5 38 23 3d c4 dc 6c 3e 58 53 7f 3e
       -0.4328526 0.039849002 0.2313109 0.24934137
0003b0 8e 86 97 3e 96 07 bb 3e d0 02 dc 3d 05 07 96 3e
       0.29594845 0.36529225 0.10742724 0.2930223
0003c0 8f 8a f9 3d 7a f4 49 be 64 c8 af be 36 2b 97 bc
       0.12184631 -0.19722167 -0.34332573 -0.018453222
0003d0 3c 49 35 3e 68 e1 33 be ce 5f c6 3e dd 67 d7 be
       0.17703718 -0.17566454 0.38744968 -0.4207143
0003e0 5c c0 9c be c9 99 a7 bd 57 50 43 3e 82 f5 9b bd
       -0.3061551 -0.08183629 0.19073616 -0.07615186
0003f0 81 c1 73 be 95 2b 4c be 3f 4d 7b 3d 9d 87 ce be
       -0.23804285 -0.199385 0.061352964 -0.4033784

fc.0.bias f4 [256]
000000 93 c2 3e bd ba 65 d1 3e 57 2f eb be 71 42 b0 be
       -0.04657228 0.40897924 -0.45934555 -0.3442569
000010 2d 04 06 be d0 af c8 be 2f a6 b6 3e 66 38 16 be
       -0.1308753 -0.39196634 0.35673663 -0.14669952
000020 be e5 a1 3e b9 cd c5 3d 40 96 5d 3d fb 79 e8 be
       0.31620592 0.09658379 0.054098368 -0.45405564
000030 a2 db 0a 3e d2 c4 91 3d 08 31 70 be c7 bb 70 3e
       0.13560346 0.071176186 -0.23456204 0.23509131
000040 7e e7 6d 3e 03 30 00 bd 22 a6 81 3e 83 6c d1 be
       0.23232839 -0.031295788 0.25322062 -0.409031
000050 d0 93 f2 bc 09 6c bd 3e 4a fe 98 3e 3c 53 47 3e
       -0.029611498 0.36996487 0.29881507 0.19465345
000060 f6 da 18 bd dd f5 85 3e 3c 5d 75 3d c7 cc 8b be
       -0.037318192 0.2616414 0.05990337 -0.2730467
000070 eb 5c 3b 3e e5 15 d0 be 05 4c cf 3d 32 b0 80 be
       0.18297164 -0.40641704 0.101219214 -0.25134426
000080 9c f7 49 3e af 39 57 3d a1 fc 3d 3e 98 be c9 be
       0.19723362 0.052545246 0.18553402 -0.39403224
000090 d9 cf a8 be 8a 7e 30 3e 42 42 14 3e 0e 77 10 be
       -0.32971075 0.17235771 0.144784 -0.14107916
0000a0 09 d8 21 3e 3e d8 95 be 95 13 15 be d1 19 3b 3e
       0.15805067 -0.29266542 -0.14558251 0.18271567
0000b0 20 32 4b be fa c0 d2 be b5 fa da 3d 53 9d d8 be
       -0.1984334 -0.41162854 0.1069235 -0.4230753
0000c0 9d 36 2b 3e 13 1a 2e bd a8 91 24 3d f1 84 d7 be
       0.16720052 -0.042505335 0.04017797 -0.42093614
0000d0 92 bf 2b 3d 39 db c2 be a4 2f af bd a7 4b b7 be
       0.041930743 -0.3805788 -0.085540086 -0.35799906
0000e0 0a 7e ae be 16 58 d5 3d 3d 34 0c 3c 57 da 9e 3e
       -0.34080535 0.10417192 0.008557376 0.31025955
0000f0 cf b1 f8 bd 22 f1 75 3e 7e be a3 3e 2e e1 52 b8
       -0.12143289 0.24017766 0.31981272 -5.0277617e-05
000100 dd 6b ff be 7f cd 45 3e ca 05 59 3e d3 d9 eb 3e
       -0.4988698 0.19316672 0.21193615 0.46064624
000110 7d dd 38 be a2 f3 31 3d 8a 1a d4 bd be 36 c3 3d
       -0.18053241 0.043445237 -0.103566244 0.095319256
000120 83 2b de 3d 02 c2 35 be f7 b0 36 be 09 3d 1e be
       0.10848143 -0.1774979 -0.17840944 -0.1545297
000130 ea 05 d8 3e 59 9a 15 bd c5 aa bd be c7 dd af 3e
       0.42192012 -0.03652415 -0.3704435 0.3434889
000140 6f 0d 9b be c2 62 7b 3e 93 ce 08 3f 7b ca 52 be
       -0.30283687 0.24549392 0.5344021 -0.20585053
000150 c2 5d e1 be 62 03 8b be 7d ca 07 be d8 f4 3f 3e
       -0.44016844 -0.27151018 -0.13260837 0.18745744
000160 d1 d5 ab be a0 95 72 be 09 28 0e be e0 73 b8 3e
       -0.33561566 -0.2368989 -0.1388246 0.36025906
000170 69 af 83 3d ac cf e7 3e 02 76 d1 be b7 b6 ae 3e
       0.06429941 0.4527563 -0.40910345 0.34123775
000180 9a 82 e5 be 1f 81 d9 be 62 6e 94 3c c0 cd 23 3d
       -0.44826204 -0.42481324 0.01811904 0.03999114
000190 02 69 4b 3e 46 da f4 3e 83 28 9b 3e 8b 7d 2b be
       0.19864276 0.4782278 0.30304345 -0.1674711
0001a0 61 0e eb be 05 a5 a5 bc e4 af 35 3e 60 d9 a6 3e
       -0.45909408 -0.020220289 0.17742878 0.3258772
0001b0 ac 38 af 3d 00 2b 18 be 56 62 84 3d bb 4b c2 3d
       0.08555731 -0.14860153 0.064640686 0.09487101
0001c0 ad ad 87 be a4 f8 c3 3d c3 4c 87 bd b0 1f fc 3e
       -0.26499692 0.09568909 -0.06606438 0.49242926
0001d0 f2 60 c8 3e f6 70 cc 3e 4b 34 c4 3e 1f 39 ab 3d
       0.39136463 0.39929932 0.38321146 0.08360504
0001e0 9a df 00 3e 9e c4 7c 3e 76 57 95 be b4 7c ab be
       0.12585297 0.24684379 -0.2916829 -0.33493578
0001f0 72 80 aa be 83 1a 51 be bc c8 b7 3e 0a bd 04 3f
       -0.3330112 -0.2042027 0.35895336 0.5185095
000200 60 a6 4f 3d 01 6a 3b be 8e b2 d8 3d 6d 9d 84 3e
       0.050695777 -0.18302156 0.105809316 0.25901356
000210 dc a0 48 3e 01 0f 1a 3e 30 7c 51 b9 4a 37 ca be
       0.19592613 0.15044786 -0.00019978057 -0.39495307
000220 b6 5d dd be dd 0b 9e 3e bb 6d ee 3d 94 5d 8b 3e
       -0.43235558 0.30868426 0.11642023 0.27219832
000230 2d 71 9a 3d da 2e 97 bd fe 30 d6 bd eb 5b a2 3c
       0.07541118 -0.07381983 -0.10458563 0.01981922
000240 2a 4d 8a 3e da 87 38 3d 0b 0f 10 3c 35 3c a2 3d
       0.27011997 0.045051433 0.008792649 0.0792164
000250 e4 4e ca 3e 9c b6 d4 3e 5c 7f 12 be 0b 56 97 bd
       0.39513314 0.4154557 -0.14306396 -0.07389458
000260 6a 26 3d be da 54 d0 3e 9d 75 67 be bd b1 2e 3e
       -0.18471685 0.40689737 -0.2260346 0.1705999
000270 a2 f7 0f 3f 49 59 8a 3e 39 29 94 be 2a a7 bb 3e
       0.5623723 0.27021244 -0.289377 0.36650974
000280 f9 3b cc bd 8a 81 91 3e 3e 0c ba be 04 6e d7 3e
       -0.099723764 0.28419143 -0.36337465 0.42076123
000290 a8 7c 90 be 7c fc b3 bd 29 02 b7 be 49 a9 19 3e
       -0.28220105 -0.08788392 -0.35743836 0.15005983
0002a0 6e ef 8f bd 31 83 59 3e 1f c3 06 3f 96 c2 9b 3e
       -0.070280895 0.21241452 0.5264148 0.30421895
0002b0 a8 4a a3 3e af 43 99 bd c7 7a d6 3d ed 0e df 3e
       0.31892896 -0.07483613 0.10472637 0.43566075
0002c0 75 db ce bd e8 38 8f 3e cb 3d 81 3e cb fa 63 be
       -0.10100452 0.27973104 0.25242457 -0.22263639
0002d0 dc bd 0e 3f 66 9f 42 be 17 d5 a8 be fa aa 4f 3d
       0.5575845 -0.19006118 -0.32975075 0.050700165
0002e0 93 2c cc bd 0d f3 46 3e 7f 7c f4 bd d7 50 64 be
       -0.09969439 0.19428654 -0.11937808 -0.22296463
0002f0 26 73 9b be f2 44 b1 bd 3d 67 e6 bd 26 ca 87 3e
       -0.3036129 -0.086557284 -0.1125016 0.26521415
000300 d0 69 4b be dc 74 90 3d 76 77 fd 3e 4f 8d 86 be
       -0.19864583 0.07053539 0.49505204 -0.26279685
000310 08 9f a4 bd 9b 5b b8 be 09 ae 37 3e 07 a2 9b bb
       -0.08038145 -0.3600739 0.17937483 -0.00474954
000320 18 44 45 3e da 52 b6 3e b2 68 47 3e c9 71 48 bd
       0.19264257 0.35610086 0.19473532 -0.04893664
000330 9c 95 c5 3e e0 fc 08 3d 4d 42 4d 3d 4d 6f 7b be
       0.38590705 0.033444285 0.050112057 -0.24554177
000340 05 e7 ce 3e bf 7a 10 3e 38 af be 3e 05 9d be 3e
       0.4041063 0.14109324 0.37243056 0.3722917
000350 0a ca f3 bd c8 a9 6d be fb 60 6c 3d 0a 0d 2c 3e
       -0.1190377 -0.23209298 0.057709675 0.16801849
000360 06 82 7c 3e 2f ad 8e be 19 36 da be 2d 52 e6 bd
       0.24658975 -0.27866504 -0.42619398 -0.112461425
000370 b9 dd a5 3e cd 02 3d 3e ef 47 a0 be e6 60 1a 3e
       0.32395723 0.184581 -0.3130488 0.15076026
000380 8a 07 a8 3e 01 e3 75 3e 6f f7 3e be f7 18 96 3e
       0.32818252 0.24012376 -0.18649076 0.29315922
000390 20 f9 46 3d 53 ff d4 3e 2d a6 93 3e 55 c6 71 be
       0.048577428 0.41601047 0.2883772 -0.23610814
0003a0 4b d6 20 be c1 1a af be 1e 32 c4 3e 44 e6 6a be
       -0.15706746 -0.342001 0.38319486 -0.22939402
0003b0 0d 97 2e 3c 29 40 56 3e e3 c8 a0 be f2 6c aa be
       0.0106561305 0.20922913 -0.31403264 -0.33286244
0003c0 ff 13 c7 be c2 ad ee be 01 fc 4f be a2 6a b8 be
       -0.38882443 -0.46616942 -0.20310976 -0.36018854
0003d0 3a 0c ae 3e 0d 67 cb be 38 45 9f be 2c e9 49 be
       0.33993703 -0.3972706 -0.31107497 -0.19717854
0003e0 00 92 ac be b6 ab b9 be cc 19 3b 3e 27 3a 99 bd
       -0.3370514 -0.36263818 0.1827156 -0.07481795
0003f0 1b 1c 50 39 5f 81 87 3c 67 9a 2e 3e bc b9 75 bd
       0.00019846896 0.016541181 0.17051087 -0.059991583

fc.2.weight f4 [256, 256]
000000 4a 8e 0e bd ab 19 86 3c b8 a5 62 bd 3c 02 00 bd
       -0.034803666 0.016369661 -0.055333823 -0.03125213
000010 66 c5 d3 bc 5d 7a 1b bc 9f 7b 3f bc 13 00 42 bb
       -0.025850963 -0.009489623 -0.011687188 -0.0029602095
000020 a3 0e 90 bc 9b f0 19 3c cd 48 ba 3c 53 30 3f 3d
       -0.017585104 0.009395744 0.022739792 0.046676945
000030 13 34 27 3c 51 a2 e1 bc 7c 04 f6 3c e5 bb 1b 3d
       0.010205287 -0.027543219 0.030031435 0.038020987
000040 1b b1 53 3d 3f 69 8a 3c 7f c7 29 bd 84 84 f2 3c
       0.051682573 0.016895888 -0.04145002 0.029604204
000050 16 74 1c 3d ad 19 47 3c b2 f5 5c bd 23 c5 4f bd
       0.038196646 0.012152118 -0.05394525 -0.050725114
000060 87 1b 6a 3d 15 81 b3 3c d3 9d 26 3d 76 bc 13 3c
       0.05715516 0.021912137 0.040677857 0.009017101
000070 09 5b e6 bb 42 f3 ed 3c 1e 16 cc 3c c6 24 39 bd
       -0.007029895 0.029046658 0.02491289 -0.045201086
000080 df fd 3a bd c6 29 d9 3b b5 d6 3e 3d 02 dc 1b bd
       -0.045652267 0.0066272942 0.04659148 -0.038051613
000090 ac 88 31 bd 9a c9 32 3d b2 7b 83 bd 95 ad 3c bd
       -0.04334323 0.043649293 -0.064200774 -0.04606398
0000a0 a9 85 9b 3c 51 09 5f 3d 6f d6 d1 ba f5 b9 32 bb
       0.018984633 0.054452244 -0.0016009341 -0.0027271484
0000b0 c2 20 d5 bb c1 44 5b bc da b2 80 3c f5 1b 14 bc
       -0.006504149 -0.013383091 0.015710283 -0.009039869
0000c0 a4 a4 a4 bc 73 01 64 bd f1 c1 01 3d 6e f2 e8 3c
       -0.020098038 -0.055665445 0.031679098 0.028435912
0000d0 da 12 33 bb 82 e2 58 bc e1 57 26 bd f3 f6 a5 bc
       -0.0027324469 -0.013237597 -0.04061115 -0.020259356
0000e0 1e ce 93 bc fc d7 d7 3c 7e 0a 4e bd 20 1b 12 3c
       -0.01804262 0.026348107 -0.050302975 0.0089176
0000f0 3c d0 54 3d db f4 01 3d a7 25 4f 3d fa dd b1 bb
       0.0519564 0.031727653 0.050573017 -0.005428073
000100 73 b4 fc 3c 6b bd a3 bb fa 32 af bc 3c 13 07 3d
       0.030847764 -0.0049969456 -0.021386612 0.032977328
000110 8c c6 e0 bc 2f 33 95 3c e7 4f 10 bd a2 33 2b 3d
       -0.027438425 0.018212883 -0.03523245 0.041797288
000120 65 3b 55 3b e2 df 12 3d 31 ff 0d 3d 27 e5 68 3d
       0.0032536623 0.035858043 0.034667198 0.05685916
000130 37 e0 9c 3c 1a f2 57 bc cb 6b 43 3c e3 4b 2e 3d
       0.019149883 -0.01318028 0.011927555 0.04255284
000140 39 fe 7f bc 7f 89 1e bd c9 16 1e 3d 71 f9 5d bc
       -0.015624576 -0.038705345 0.03859595 -0.013548241
000150 dd 95 99 ba 27 d2 8a 3c 63 95 c1 bb f1 e5 49 bd
       -0.0011717636 0.016945912 -0.005907701 -0.049291555
000160 ca e8 53 3c f1 b9 5b 3c d0 21 70 3c 34 48 67 bd
       0.012933919 0.013411031 0.014656499 -0.056465343
000170 3a a5 4b 3c ab 12 15 3c ab cf d6 bc cf 18 23 3d
       0.01242953 0.009098689 -0.02622207 0.03981858
000180 78 e7 e1 3c b1 f8 ac 3c 31 aa 7c bd c3 71 4d 3c
       0.027576193 0.021114679 -0.061685745 0.01253933
000190 4e 01 07 3d b2 8b 6d bd 41 0e 11 3d 35 47 42 3d
       0.03296023 -0.057994552 0.035413984 0.04743119
0001a0 c5 0a 63 bd 9c 7a 71 3d 70 9a 13 3c 3a ba 2d bd
       -0.055430193 0.05895482 0.009008989 -0.042413928
0001b0 e2 84 99 bc 61 17 aa bc cf c8 2b bc 04 ad df 3c
       -0.018740121 -0.020763101 -0.010484888 0.02730418
0001c0 eb 53 aa 3c b3 58 bd bc 28 51 2e 3d 08 fb 32 bd
       0.020791968 -0.023113584 0.042557865 -0.043696433
0001d0 ff be 54 bd 0b f6 45 3b 05 67 88 3c 94 38 92 3c
       -0.05193996 0.0030206467 0.016650686 0.017849244
0001e0 fa 7e f5 3c 42 54 3f bd 37 f1 3c 3d 10 49 4f bd
       0.029967774 -0.046711214 0.046128478 -0.050606787
0001f0 06 89 c2 3c 09 fd 62 bd 8d fa 93 bb 79 6d e1 3c
       0.023746978 -0.055417094 -0.004515952 0.027518021
000200 2b c6 3b bd b6 59 58 3d 62 e3 60 bd 06 2a 86 3c
       -0.045843285 0.05281993 -0.05490435 0.01637746
000210 34 a9 26 3d 13 d2 4c bd d5 4f a0 3b 6b d0 72 bd
       0.04068871 -0.05000503 0.004892329 -0.059280794
000220 16 2d 90 3c 27 78 10 bd f5 cd 8e 3c d4 f8 0f 3d
       0.017599624 -0.035270836 0.017432192 0.03514941
000230 1d 48 1a bd c7 8d 81 3b 3a f1 16 3d 5f 4a ad bc
       -0.03766643 0.0039536688 0.036851145 -0.021153627
000240 96 9f 3e bc 7e 0a da bc 6b da 7c bd c9 a7 d4 bc
       -0.011634728 -0.026616331 -0.061731737 -0.025958912
000250 13 a2 d1 bb e9 ec 9f 3c ec 48 0f 3d 45 6d 5c bd
       -0.0063974946 0.019522147 0.034981653 -0.053815145
000260 7b 54 2b bd f4 90 1c bd 77 c6 8d bb 72 cb 03 bd
       -0.041828614 -0.038224176 -0.0043266374 -0.032176442
000270 2e 7e 21 3d 31 46 f8 3c 99 73 09 3d d8 0d 5a bd
       0.039426975 0.030306907 0.03355751 -0.05323586
000280 d8 d2 1a bd b6 a9 08 bd 79 1a 26 3d d2 d3 3b 3c
       -0.037798733 -0.033364974 0.04055259 0.011464076
000290 a8 6e 17 3d b2 df 6f 3d bf bf 5d bd 88 5a 26 bb
       0.036970764 0.05856294 -0.05413794 -0.002538355
0002a0 f1 56 9e bc 19 d1 5f 3d a4 b1 04 3d 1f a5 f0 3c
       -0.019328566 0.05464277 0.032395974 0.02937561
0002b0 0a 28 e7 3c 58 d7 ec 3c 99 66 4a bd 7e f0 73 bb
       0.028217334 0.028911278 -0.04941425 -0.0037222202
0002c0 34 d2 fc 3c 2a de 1f 3c 80 67 e4 3c f6 12 10 bb
       0.030861951 0.009757558 0.027881384 -0.0021983958
0002d0 2e 9c 18 bd 4e b5 3a bd 46 70 4a bd 33 4c 40 3c
       -0.03725832 -0.045583062 -0.04942348 0.011736917
0002e0 d8 5e 82 3c 1b 0b 64 bb 2b f2 67 bd 97 3f 29 bd
       0.015914366 -0.0034796658 -0.056627434 -0.04132041
0002f0 16 99 57 3d df ec 84 3c 7a bb f0 bc eb 0b cc bc
       0.05263623 0.01622623 -0.02938627 -0.024908027
000300 c2 cf 4c 3d 8b cd 3f 3d 92 4d 64 bd 71 9a da 3b
       0.05000282 0.04682688 -0.05573804 0.006671243
000310 f8 b2 76 bc 9b 80 57 bc 36 88 65 3c b0 6d 81 bb
       -0.015057318 -0.0131532205 0.014009526 -0.0039498433
000320 a7 7f fb bc 29 33 10 3d 1a 14 95 3c 12 7a e8 bc
       -0.030700518 0.03520504 0.018198062 -0.02837852
000330 ce 89 5c bd 5f 8a 37 bd b9 bb 3a bd 4a 50 69 3c
       -0.05384236 -0.044809695 -0.045589183 0.014240334
000340 3d 6d ec 3c b1 41 06 bd de 33 38 3d 2f 5a 3d 3d
       0.028860683 -0.032777492 0.04497134 0.046228584
000350 48 c7 5e 3b de a4 17 bc 54 50 bc bc d2 c8 22 bd
       0.0033993293 -0.009255616 -0.022987522 -0.0397423
000360 32 6b 4c bd d1 26 e7 bc 15 b3 21 b9 70 d1 ec 3a
       -0.049906917 -0.028216751 -0.0001542087 0.0018067788
000370 be b9 80 bd 3a 4e 3b bd 20 ec 82 bc 1d 61 60 3a
       -0.062854275 -0.0457289 -0.015981734 0.0008559393
000380 8b ce 3d 3c 6a b4 fc 3c 1e 71 31 bd 93 b2 b5 3c
       0.011584888 0.030847747 -0.043320768 0.022179877
000390 27 b2 48 3d 13 72 d8 3b ad 86 18 3d 10 ae 54 bd
       0.048998024 0.0066053956 0.03723781 -0.05192381
0003a0 52 64 39 bd 9b 3d 48 bc d9 cd e9 bc 93 2b 43 bb
       -0.04526169 -0.012221719 -0.028540539 -0.002978061
0003b0 c2 47 f1 3c 26 3c f6 bc fd ca dd bc d4 01 01 bd
       0.029453162 -0.030057978 -0.027074331 -0.031495884
0003c0 ce 55 d5 3b 67 f4 42 bc e5 06 4a bd 27 3b 8b 3b
       0.006510473 -0.01189909 -0.04932298 0.004248995
0003d0 94 7a 97 3c 87 88 0c bc 9c cd 6a bd 04 e8 05 3d
       0.018491067 -0.0085774725 -0.05732499 0.03269197
0003e0 8f 96 45 3d 1e d9 4d 3d 5e b7 98 3c 2f 69 2c bd
       0.048239287 0.050255887 0.018642124 -0.0420925
0003f0 51 cf 5d bc 05 3f 26 bc 5e e3 0b bd ae fb 16 bd
       -0.013538198 -0.010146861 -0.03415238 -0.036861114

fc.2.bias f4 [256]
000000 b1 03 81 ba 39 00 5d 3c fb 32 60 3d 0d d3 a3 bc
       -0.0009843019 0.013488823 0.05473612 -0.019998098
000010 3b db 3c bc 58 7a ea bd d6 0e 12 bd 17 cc 22 3d
       -0.011526878 -0.114491165 -0.03565868 0.039745416
000020 ab 06 ca bc 58 13 cb bd 30 a2 56 bd 23 6d b3 bd
       -0.024661383 -0.09915799 -0.052400768 -0.087610506
000030 d0 77 99 bd 92 2c ad bc 4e 21 2c ba 87 a6 00 3c
       -0.074935555 -0.021139417 -0.0006566242 0.007852203
000040 d7 7b 8e 3c c5 48 88 3c 1d a0 15 bd b5 7f e7 bd
       0.017393036 0.016636262 -0.03652965 -0.11303655
000050 49 b2 fe 3d 95 cb 95 bc 4a 8a 63 3d 2d 6f 7f 3c
       0.12436349 -0.018285552 0.055551805 0.015590471
000060 25 00 2c bd 60 df 30 bd 71 29 e1 bc f5 63 81 bd
       -0.041992325 -0.043181777 -0.027485581 -0.063178934
000070 83 5e dc bd 0f dc e4 bc 0c 22 7d b9 87 fa 08 bc
       -0.10760214 -0.027936963 -0.00024140644 -0.008360512
000080 4e 53 8a bd 59 d9 61 3d 87 b0 8d bb 11 ad 64 bb
       -0.0675417 0.05513892 -0.004324022 -0.0034893195
000090 2a 6f b9 3c d3 c7 40 bd db 09 67 3c 24 5b b3 3d
       0.022636015 -0.047065567 0.014101471 0.08757618
0000a0 5e f8 04 3e b1 ee d6 3d 00 69 57 bd c8 f9 69 bc
       0.1298537 0.104947455 -0.05259037 -0.014280744
0000b0 f8 83 41 bd 35 aa f2 3b 3a 60 8c bc c8 fc db 3d
       -0.047244996 0.007405544 -0.017135728 0.107415736
0000c0 84 b3 c0 bd 2f 22 cc 3c 8c 4f 7a 3d f1 e7 4b 3d
       -0.0940924 0.024918644 0.061111018 0.049781743
0000d0 40 bb db 3d 77 8f 28 3c 6f f9 99 bd cc 54 e4 bd
       0.107290745 0.010288111 -0.07518279 -0.11148986
0000e0 11 e6 eb 3c 45 8b a7 3b 83 90 d9 3b bd c5 fe bd
       0.028796228 0.005113038 0.0066395416 -0.12440059
0000f0 0c 5f ed 3d b0 83 82 3d 77 47 05 3b c0 7d d1 3d
       0.115903944 0.06372774 0.0020336786 0.10229063
000100 5e 00 a4 3d 5d 71 0c bd 26 67 bb 3d ad 7a 2d 3e
       0.080078825 -0.0342878 0.091505334 0.16941328
000110 01 81 e4 bc 9d 99 d9 ba 55 ae cb 3a cd 3c 1c 3d
       -0.027893545 -0.0016601566 0.0015539626 0.03814392
000120 0d 02 20 3d 68 4d 38 bd b5 91 cb bb 4b 25 47 bd
       0.039064456 -0.044995695 -0.006212438 -0.04861955
000130 0e 9f 01 bd 4f ad dc 3c c0 83 9e 3c 1f 9e c0 bd
       -0.031645827 0.026938109 0.019349933 -0.09405159
000140 06 1f 57 bd 07 b8 00 3d e3 35 5a bd fe 65 e0 3d
       -0.05251982 0.031425502 -0.053274047 0.109569535
000150 65 78 be 3d 2d c6 2d bd ee 43 f9 3d b5 77 79 bd
       0.09300307 -0.042425323 0.1217116 -0.060905177
000160 38 5c d0 3b c0 0a a3 bc 44 b7 8d bc b9 eb 09 3d
       0.0063586496 -0.019902587 -0.017299302 0.03367207
000170 e6 d3 3c bd b0 21 24 3d 1c cc f9 3d a5 c6 dc 3d
       -0.04610052 0.04007119 0.12197134 0.10780076
000180 b1 94 d5 3d 80 f0 45 bd 64 15 a7 3d 45 93 09 bd
       0.10428751 -0.04832506 0.08158377 -0.033587713
000190 d5 f8 b2 3d 85 a8 d3 bd 0a 0f d1 3d 4d 5a 27 bd
       0.08738867 -0.10334877 0.102079466 -0.040857602
0001a0 1c 62 ea bc 33 7e ce 3d 12 1c ff bc 03 36 b6 3c
       -0.028611235 0.10082664 -0.031141315 0.022242552
0001b0 d5 60 8b 3b f7 d3 a6 bd 41 26 d8 3d 3b 2f 71 bd
       0.0042534866 -0.08145898 0.10554171 -0.058882933
0001c0 5a 88 e5 3c 9b 4f a6 bd 6e de b8 3d 59 17 0c 3c
       0.028019119 -0.08120652 0.090268 0.008550488
0001d0 1b 77 1e 3d b3 90 c5 bc b7 c9 00 bb 46 9b 29 3d
       0.038687807 -0.02411685 -0.0019651481 0.041407846
0001e0 ea 62 86 3d 21 71 a5 bd 43 4f b9 3d 84 f0 cd 3c
       0.06561835 -0.08078218 0.09048321 0.0251391
0001f0 fd b8 3b bc d7 6f 3d bd 4a 5f 23 3d 60 91 d1 3c
       -0.011457679 -0.046249237 0.039885797 0.025582016
000200 5e da 03 3b 60 97 6e bc 8c 6c 26 bd 75 83 e5 3c
       0.002011917 -0.014562458 -0.040630862 0.028016785
000210 9a 00 95 bd 68 88 cb bc 04 0f d0 3d 30 dc 6e 3d
       -0.07275505 -0.024845317 0.10159114 0.058315456
000220 74 b7 e3 bb d3 53 ee 3d 0a 0e 36 bd 48 3d 6e 3d
       -0.0069493596 0.11637082 -0.044446982 0.05816391
000230 d8 6f fa bd 24 4f 8a bc b4 01 42 3d 22 36 8a 3d
       -0.12228364 -0.01688344 0.047364905 0.06748606
000240 86 ea 35 bc 1b 43 2d 3d d1 4d 37 bd 7e 40 61 3d
       -0.011103278 0.042300325 -0.044751946 0.054993145
000250 4c 63 b5 3d 57 cd 80 bd e2 c0 ab 3d dd 52 e4 bd
       0.0885683 -0.062891655 0.08386399 -0.111486174
000260 58 63 52 3d 69 4e 87 3d 9a bb 30 bd 7b a7 9f 3d
       0.051364273 0.066067524 -0.04314766 0.07795616
000270 98 65 4d 3d 7a 3d d3 3c 5c 80 76 3d e3 94 39 bd
       0.050145715 0.02578615 0.060181007 -0.045308005
000280 8a 5b b8 bd 08 d5 a0 3d 09 09 24 3d 03 eb fb 3d
       -0.09001835 0.078531325 0.04004768 0.12300684
000290 e2 08 a0 3d 0b d8 93 bd 0b 87 a9 bc 78 a5 08 3d
       0.07814194 -0.07218941 -0.020694276 0.03336093
0002a0 95 b4 ef bc 30 05 6c bc e9 0d c8 bd 6a c1 dd bd
       -0.029260913 -0.014405534 -0.09768278 -0.108279064
0002b0 40 d0 e6 3d 08 b3 da bd 9f da 00 3e cb 42 0a 3c
       0.11270189 -0.10678679 0.12583397 0.008438776
0002c0 7e 88 10 3d 1e 16 53 bd 5b e0 46 bc b4 1a ed 3d
       0.03528642 -0.051534764 -0.012138451 0.11577359
0002d0 70 79 e1 ba 39 b7 dd 3c 3a f4 69 bd 46 74 9b bd
       -0.0017202329 0.027064906 -0.05711768 -0.07590537
0002e0 7e 7d dd bd 8c 95 f7 3d ee 4c 1d bd 3c 18 d4 bd
       -0.10814951 0.12089071 -0.038403444 -0.10356185
0002f0 78 8e b7 bc 62 24 d7 3c fc 30 b2 bd 6b 9a 35 3d
       -0.022406802 0.026262466 -0.08700749 0.044336718
000300 da 28 be 3c 24 c3 cf bc 96 f6 4d 3c c6 ce 9b bc
       0.023212839 -0.025361605 0.012570998 -0.019019496
000310 2d 93 6f bd 25 7b f6 3d 93 e2 11 bc e0 c0 c2 3d
       -0.058489967 0.12035207 -0.008904117 0.09509444
000320 92 d0 b0 bd a6 cd 0b 3d 46 1f 83 3d 47 94 f3 3d
       -0.08633532 0.03413167 0.06402449 0.11893516
000330 e4 3a ed bd 64 43 e8 bd 2d 60 7f 3d 72 d1 13 3d
       -0.11583498 -0.11340979 0.06234758 0.036088414
000340 18 ba eb 3d 0e 07 d7 3d ef 35 61 bc 71 32 3f 3c
       0.11510104 0.104993924 -0.013745769 0.011669741
000350 36 25 80 bd 7f 09 f6 3d 9a 84 10 bc 16 a8 f5 bb
       -0.062570974 0.1201353 -0.008820677 -0.007496844
000360 78 5e 34 bd 6e cb 97 bc 7a 2b 8a bd a5 c5 ab 3d
       -0.044035405 -0.01852962 -0.06746574 0.08387307
000370 88 20 fe bd c3 fa 43 bd e4 44 f4 3b 27 44 a2 3d
       -0.124085486 -0.047846567 0.0074545015 0.07923155
000380 68 ac 1e bd 3b 17 38 bd 36 f6 d2 bc 09 fb 57 bd
       -0.03873864 -0.04494403 -0.025752168 -0.05272964
000390 6c ec 19 3d 6f 65 0f 3d 01 ca 41 3c 59 de ab 3d
       0.037578985 0.035008844 0.011827947 0.08392019
0003a0 11 34 71 3d 10 69 53 3d b6 0d 36 3d 82 7c df 3c
       0.058887545 0.051613867 0.04444667 0.02728105
0003b0 70 12 4d 3d f4 5c b4 3c 86 b4 1c bc f1 a2 12 3e
       0.05006641 0.02201698 -0.0095645245 0.1431997
0003c0 65 b7 95 3b fc 02 10 bc f1 9a 56 3d 6d 42 e7 3d
       0.0045689815 -0.008789774 0.052393857 0.112919666
0003d0 da 0e 89 bd 55 66 ab bb 33 5a be bc 2f 62 28 3d
       -0.06692286 -0.005230705 -0.02323637 0.04110926
0003e0 af 86 a1 3d 8f d3 c6 bc 3f dd 08 bd aa 14 12 3d
       0.07887017 -0.0242708 -0.03341412 0.035664238
0003f0 23 20 e4 bd 24 22 3d 3d 44 18 9e 3c 4d 45 d9 bd
       -0.11138942 0.046175137 0.01929868 -0.10608921

fc.4.weight f4 [1, 256]
000000 82 a3 12 bd 51 de 29 bd e4 7f e6 3b 04 78 05 3d
       -0.035800464 -0.041471783 0.0070342887 0.03258516
000010 72 2b 4e bc 27 00 7f bd 5b 8c 3b 3b 8f de 76 b8
       -0.0125836 -0.062256005 0.0028617594 -5.8858244e-05
000020 d5 37 9f bb 2f f8 3e bd 39 8d f0 bc fc 34 77 bc
       -0.0048589506 -0.046623405 -0.029364215 -0.015088316
000030 d1 c8 40 bd a0 a8 f4 bb 8c fb b6 bc 1e 85 9b 3c
       -0.047066513 -0.0074663907 -0.022336744 0.018984374
000040 5b d2 47 3d 25 d6 6b bd 97 a9 9a bb 4d cd 6a bd
       0.048784595 -0.05757727 -0.0047199237 -0.057324696
000050 ad 24 2b 3d 34 96 19 bd 3f b6 e7 3c 51 97 28 bd
       0.041783024 -0.03749676 0.028285144 -0.04115993
000060 86 5c c8 3c 20 18 85 bc 4a 68 fb bc b1 8f 13 bd
       0.024458181 -0.016246855 -0.030689377 -0.036025707
000070 da 75 31 bd 9a 6a 86 bc 43 9f 60 bd 8b 82 bb bc
       -0.043325283 -0.016408253 -0.054839384 -0.022889396
000080 7f 7a 2b bc 16 eb 96 3c ca 5f 54 3d c4 b0 b9 3b
       -0.010466217 0.018422645 0.051849164 0.005666824
000090 ce b0 09 bd b2 4d 39 bd a8 41 99 bc 53 5d 07 3d
       -0.03361588 -0.04524011 -0.018708065 0.033047985
0000a0 71 d5 e6 3c b3 98 78 3d 59 00 43 bd d5 35 bc b7
       0.028177949 0.0606925 -0.047607753 -2.2436414e-05
0000b0 4f ad 37 bd 27 32 c2 3c 29 f8 0a bd 58 09 96 3d
       -0.044843014 0.023705555 -0.03392807 0.07326001
0000c0 f5 75 b4 bb 4e 11 0a bd 55 ae b3 3a e4 04 06 bd
       -0.0055072256 -0.03370791 0.0013708571 -0.032719508
0000d0 96 90 5f 3d 14 b7 f3 bc 57 0b 31 bd 54 e2 06 bd
       0.054581247 -0.029750384 -0.043223705 -0.032930687
0000e0 1f 7d 35 bc c9 28 78 bb 67 69 01 3d dd 14 42 bd
       -0.0110771945 -0.0037866107 0.03159466 -0.047383178
0000f0 be a0 00 3c 27 c9 e7 3c 92 11 9e bc 73 93 78 3d
       0.007850824 0.02829416 -0.019295488 0.060687494
000100 06 04 9b 3b 9b 8b 3d 3d ff b8 2a 3d 09 f6 43 3d
       0.0047307042 0.046275716 0.041680332 0.04784206
000110 05 ce 11 3c ac 8c 52 3c 39 85 b9 3a 56 7c 2c 3d
       0.008899217 0.012850922 0.0014154083 0.042110763
000120 08 d2 3e 3d 14 97 63 bd 9d 65 4f b9 55 72 e2 bc
       0.04658702 -0.055564 -0.00019778912 -0.027642408
000130 92 dc 0e 39 74 db 65 3d 92 04 06 3d 23 1e ea bc
       0.00013624344 0.05611749 0.032719202 -0.028578823
000140 6d c6 e0 3c 37 c4 85 bc f8 12 1a bd ff b1 37 3d
       0.027438367 -0.016328914 -0.037615746 0.044847485
000150 52 18 61 3c 3f c1 0b bd b1 91 4b 3b 83 a4 78 bd
       0.013738709 -0.03411984 0.003106218 -0.060703766
000160 47 bf e8 3b bf c8 cd 3c fb bf a2 bc 1b a1 a6 bc
       0.00710288 0.025120137 -0.019866934 -0.020340493
000170 12 29 8f 3c 97 62 d9 3c 49 cc 22 3d 4c 6b d4 3c
       0.017475639 0.02653627 0.039745603 0.02593007
000180 40 8e 83 3c 6c e7 1e bd 38 e8 52 3c 84 8d fe 38
       0.016059041 -0.03879492 0.012872748 0.00012138023
000190 df 19 8a 39 38 3e 9b bd dd aa 52 3b 79 1c 3f bd
       0.00026340687 -0.07580227 0.00321453 -0.046658013
0001a0 e7 bf 86 3c 79 9e 3a 3d 4f 8b e8 bc 0f 51 ca 3b
       0.016448928 0.045561288 -0.02838674 0.0061742137
0001b0 77 12 16 bd aa d5 4d bd df ab b0 3c 3b 65 ac bb
       -0.036638703 -0.050252594 0.02156633 -0.005261091
0001c0 4c d9 bb 3b 24 60 5f bc 5a 54 0e 3d 5f 97 48 3d
       0.005732691 -0.013633762 0.034748413 0.048972484
0001d0 c9 f7 a0 3c 74 ae b7 bb 9f 98 07 bc 2a a4 65 bc
       0.019649403 -0.005605513 -0.008276134 -0.014016191
0001e0 d4 22 0d 3d e3 7a 9f bc 31 a5 92 3d 76 af 56 bd
       0.034457043 -0.019467777 0.07160414 -0.052413426
0001f0 f4 3b 20 3c 88 b7 23 bd d5 65 f6 bc 3d 48 64 3d
       0.009779919 -0.03996995 -0.030077854 0.055732954
000200 da 94 a2 3c 9a a7 6f bd 71 6b 71 bc 81 35 65 3d
       0.019846369 -0.058509447 -0.014735089 0.05595923
000210 ea 94 ff bc fe 1f f8 3b b7 54 27 3d d6 ff d6 3c
       -0.031198937 0.007572173 0.040852275 0.026245039
000220 01 4d bc 3b 6c 4a 60 3d 8d 10 58 bc 3f 9e 74 3c
       0.0057464843 0.054758474 -0.01318754 0.014930307
000230 6c be 73 bd a9 b3 a2 bc 8c 34 27 bd ac 77 ac 3c
       -0.059507772 -0.01986106 -0.040821597 0.021053158
000240 bd 03 fc bc eb d7 03 3d 32 b5 2a bd ba 19 e3 bc
       -0.030763501 0.032188337 -0.041676708 -0.027722228
000250 05 cb 8e 3c 41 ee 24 bd 67 28 73 3d 3e 72 aa bb
       0.017430792 -0.04026628 0.059364703 -0.005201607
000260 d5 3c fe 3c 3f 4e f9 3c bf c3 0a bd e8 ea 58 3d
       0.031034866 0.030432818 -0.033878084 0.0529584
000270 78 f0 4d 3c 6b df d3 b8 b8 9d 5e 3d 67 ef bd 3b
       0.012569539 -0.00010102879 0.05434963 0.0057963612
000280 62 0e e7 ba c9 33 79 3d bd c8 05 bd 09 15 40 3d
       -0.0017628188 0.0608404 -0.032662142 0.04689506
000290 dd 0d 41 3d 13 c5 e6 bc 58 c0 d4 b8 2b 5d 8c bc
       0.04713236 -0.028170144 -0.000101447746 -0.01713427
0002a0 f9 ea 7e bc 07 e6 4c bc 81 45 4a bc 2c 32 08 bd
       -0.0155589515 -0.012506015 -0.012345673 -0.033250973
0002b0 19 d7 3d 3c 16 04 6e bd 78 34 9d 3d 4b b5 3d 3d
       0.011586928 -0.058109365 0.07676023 0.046315473
0002c0 7d 39 35 3d c1 6c c2 bb e6 74 91 bb 29 33 51 3d
       0.04424428 -0.0059333746 -0.004438984 0.05107418
0002d0 2a 8f b3 3c 83 2a c6 3c 0b 17 21 bd e9 df 2d bc
       0.021918852 0.024190193 -0.039328616 -0.010612466
0002e0 1c 53 ca bc d4 16 43 3d 9e 46 1e bd 00 d7 23 bd
       -0.024697833 0.047629192 -0.038641565 -0.03999996
0002f0 fa 87 38 bd ab fd c9 bc 97 02 fe bc 91 4b 2a 3c
       -0.045051552 -0.024657091 -0.031007094 0.010393993
000300 0f a0 ee bc 87 35 59 bd 2f 4e 37 3c 45 fe 87 bc
       -0.029129056 -0.053029563 0.011188074 -0.016600737
000310 b9 75 d1 bb 6d ec f2 3c c8 3f 51 ba a2 e1 3e 3d
       -0.0063922075 0.029653752 -0.00079822214 0.0466019
000320 99 34 8f bc 4e 12 ac 3c 91 31 2d bd 72 d2 27 3d
       -0.017481135 0.021004822 -0.0422836 0.04097218
000330 4a b4 02 bc 24 a7 48 bd 07 bd 43 3d 16 07 1c bc
       -0.007977555 -0.048987523 0.047787692 -0.009523174
000340 51 2f 94 3b 92 14 3e 3d d5 ac 11 bd e4 0d ab 3b
       0.004522242 0.046406336 -0.035565216 0.0052201618
000350 a3 82 18 bd 93 4d b9 3c 98 4d 68 3d fd 06 49 3d
       -0.03723396 0.022619998 0.056714624 0.04907893
000360 4b ad 84 3c 8e 39 f3 bc ed 8d cc bb 06 fa cf 3c
       0.016195914 -0.02969053 -0.006242505 0.025387775
000370 17 63 d3 bc 3e 20 0f 3c 29 07 4a 3c 77 49 e5 3c
       -0.025804086 0.0087357145 0.012330809 0.027989132
000380 d5 d0 29 bd c1 9e be bb 5c 41 77 bd 56 45 86 ba
       -0.041458923 -0.005817265 -0.060365066 -0.0010244052
000390 56 27 15 3b b2 84 2f 3d 42 98 d4 3b 21 b6 3f 3d
       0.0022759042 0.042851157 0.006487877 0.04680455
0003a0 de 5d 66 3d eb d7 c0 3c d8 ab 47 3d 82 0f 9d 3c
       0.056241862 0.023540458 0.048747867 0.019172434
0003b0 a8 e0 a8 bc 25 bd e5 3c fc 31 ec bc 25 5f 77 3d
       -0.020614937 0.028044293 -0.028832428 0.06039347
0003c0 14 02 67 bd c9 2c 57 bd 20 a7 e4 3c 0e c0 78 3d
       -0.056398466 -0.052532945 0.027911723 0.060730033
0003d0 60 2d de bc 9a cd 69 bd ac f3 ad bc ca bb 57 3d
       -0.027121246 -0.057080843 -0.021234356 0.052669324
0003e0 8e 24 28 3d ca dd 65 bd e5 a8 29 3d 92 26 53 3d
       0.041050486 -0.056119718 0.041420836 0.051550455
0003f0 55 f6 17 bd a0 7d ec bc 32 24 9a 3b 37 bf d6 bc
       -0.037100155 -0.028868496 0.004704022 -0.026214225
