models/tetris.pt (torch, 272702 bytes, 5 tensors)

fc.0.weight f4 [256, 5]
000000 49 d4 53 bc 24 fb d4 be 41 fa ca 3e 10 09 9a 3e
       -0.012929031 -0.41597855 0.39644054 0.3008504
000010 8f af a3 bd 5d 52 e7 3c d1 de 82 bd bd 55 ce 3e
       -0.079924695 0.028237516 -0.06390155 0.40299788
000020 1c 5a c4 bd a5 8b a9 be 67 0a b6 bd c4 c9 97 bd
       -0.095874995 -0.33114353 -0.08888703 -0.074115306
000030 56 b4 37 be 57 66 63 be 2f c9 ab be d8 11 82 3c
       -0.17939886 -0.22207008 -0.33551928 0.01587765
000040 a4 44 97 3e 97 a9 7e be de 35 16 bc f2 b5 11 be
       0.29544556 -0.24869381 -0.009168116 -0.14229563
000050 c2 1a 87 bc b5 f4 3f 3e fd 1f 9d be a9 30 63 be
       -0.016492251 0.18745692 -0.30688468 -0.22186531
000060 1d b0 01 be 27 ab ed bd 7a 94 41 be 8a 35 d0 3e
       -0.12664838 -0.1160491 -0.18904296 0.40665847
000070 35 76 c3 3d f2 aa d7 bd 5e 46 0a bc b3 5b b6 3e
       0.095440306 -0.10530652 -0.008439628 0.35616836
000080 ff 45 bd 3e 02 4f ca 3e a3 4c 2d be cb c8 0a 3e
       0.36967465 0.39513403 -0.16923766 0.13553159
000090 6d 01 0e be f4 3a d3 3d a5 35 11 bd 64 91 8c 3e
       -0.13867731 0.10313979 -0.03545155 0.27454674
0000a0 95 9c 9a 3e d3 8a 17 bd 06 2a 92 3e 77 3d 91 3e
       0.30197588 -0.036997627 0.28547686 0.28367206
0000b0 d8 1a 94 3e 56 5c 6a 3e 5a b6 8a 3e b0 48 92 3c
       0.2892673 0.22886786 0.27092248 0.017856926
0000c0 bb 4c 84 be ed d2 dd bd 91 da 9f be 19 4c aa bd
       -0.2583979 -0.108312465 -0.3122144 -0.08315296
0000d0 95 df 62 3e 61 a2 b9 be 76 83 39 3e 46 cb 9a 3e
       0.22155602 -0.36256698 0.18116555 0.3023321
0000e0 c5 60 7a 3e 92 f3 5b be 10 85 b7 be ea 4b b5 be
       0.24450977 -0.21479633 -0.35843706 -0.3540948
0000f0 06 c6 2f 3f 6e 38 4b be db df 1b bb ff 14 54 3d
       0.68661535 -0.19845745 -0.0023784551 0.051777836
000100 29 e1 05 3e 20 70 5c be 7f d5 29 3e 07 14 52 3e
       0.13074173 -0.21527147 0.16585349 0.20515452
000110 2f 0d 2d 3e 72 09 e5 3d 93 cd fc 3e 63 be 4a 3e
       0.1689956 0.11183442 0.4937559 0.1979919
000120 a3 b4 57 bc 56 e1 d0 3e ee 0d 45 3e 63 d0 d3 be
       -0.013165626 0.40796918 0.19243595 -0.41369924
000130 91 ab 21 be 18 bb b9 3d 4e aa a6 3e d7 03 b9 3e
       -0.15788104 0.090688884 0.32551807 0.36135742
000140 e9 d4 32 3e f5 a5 ca 3e 1c 59 bd 3d 50 2e b4 bd
       0.17464031 0.3957974 0.09245512 -0.08797896
000150 41 39 08 be a8 65 8f 3e 24 44 14 be a4 3d a2 be
       -0.1330309 0.28007245 -0.14479119 -0.31687653
000160 ac 76 35 3e c5 ee f6 bd ab 64 d8 3e 3f 28 87 be
       0.17721051 -0.120572604 0.42264304 -0.26397893
000170 ac fe 4d bd fc 6f 6e be e8 ae 90 be 21 32 6a be
       -0.050291702 -0.23284906 -0.28258443 -0.22870685
000180 0a 79 c8 3e 84 fe bb 3e ef 05 15 be 00 0e 32 bd
       0.39154845 0.36717618 -0.14553045 -0.043470383
000190 ba ee 2a 3d 73 40 1b 3e ab 7e 52 bb 40 cd bc 3e
       0.041731574 0.15161304 -0.0032118957 0.36875343
0001a0 2d e4 99 be fc 53 b9 be a2 0f f6 3d e8 28 83 3e
       -0.30056897 -0.36196887 0.120147005 0.25617146
0001b0 2f 77 98 bd 71 65 c5 3e 5c 31 a4 3e 00 10 57 3e
       -0.074446075 0.38553956 0.32068908 0.21002197
0001c0 38 b3 64 3e 69 00 d6 3e 21 a1 b8 bd 93 57 87 bd
       0.22333992 0.41797188 -0.09015108 -0.066085
0001d0 ca 4f 01 3d e6 6e 15 be 46 10 92 3e af 32 e0 3d
       0.031570233 -0.14593086 0.2852804 0.10947167
0001e0 61 f3 f9 3d 8b 8c 05 be 78 45 62 be 49 d7 9d 3e
       0.12204624 -0.13041894 -0.22096813 0.30828312
0001f0 e8 b9 ba 3e a1 ef b5 3e 83 5b 50 3e 03 24 37 be
       0.3646996 0.35534385 0.20347409 -0.17884831
000200 25 a6 36 bd dd 09 8f be ff 64 bb bd 3d c6 ac be
       -0.04459204 -0.27937213 -0.09150123 -0.33744994
000210 c8 7f de bd 25 91 a8 3e 9c 02 df bd 6a 4b 0f be
       -0.10864216 0.32923236 -0.108891696 -0.13993612
000220 e9 2d 71 be ae b7 3e 3e 12 4a f9 3d a6 93 b6 be
       -0.2355267 0.18624756 0.12172331 -0.35659522
000230 d6 57 eb bd 2d 81 97 be 76 db 08 3e 28 14 9e 3e
       -0.11491363 -0.2959074 0.13364968 0.30874753
000240 00 62 ce bd 39 0a 86 bd e7 f7 fe 3c a4 27 b1 3c
       -0.10077286 -0.065449186 0.031124068 0.021625347
000250 c1 58 0f bd 8a b6 7c 3e 80 a5 0a be 47 4e d1 be
       -0.03499675 0.24679008 -0.13539696 -0.40880033
000260 53 08 d7 be 06 b6 8f be d8 7b 83 be a3 57 48 bb
       -0.41998538 -0.2806856 -0.25680423 -0.0030569814
000270 bd 0f 84 3d 44 ab 67 3e 4b 1b c9 3d a5 04 c2 be
       0.06448314 0.22623926 0.09819659 -0.37894168
000280 3e f0 ac 3e a8 a3 fe 3b e3 a2 71 bd de 8e 81 3e
       0.3377704 0.007770974 -0.05899323 0.25304312
000290 e1 f4 d2 3e e8 57 98 3e a1 47 9e 3e ae 50 55 bd
       0.41202453 0.29754567 0.30914024 -0.052078895
0002a0 f3 88 d4 be 85 4d 86 3d 14 8f e6 bd 8a 83 7a be
       -0.41510734 0.065577544 -0.11257759 -0.2446424
0002b0 58 88 d8 be 7a 08 8a 3e 82 56 dd be 79 f3 cf 3e
       -0.42291522 0.26959592 -0.43230063 0.40615442
0002c0 8e 1c 64 be e7 d9 03 3b d3 3d d6 be da e0 e8 3e
       -0.22276518 0.0020118894 -0.41844043 0.45484048
0002d0 36 5d 0b bd 2c c3 49 3e c7 93 a1 be f0 ec b0 bd
       -0.03402444 0.19703358 -0.31558058 -0.08638942
0002e0 e5 26 81 be d9 77 37 3d fc f2 41 be 25 79 c2 3d
       -0.25224987 0.04479203 -0.18940347 0.09495763
0002f0 d9 28 99 bd 24 c0 14 be be be 08 bb 63 1d 8e be
       -0.07478494 -0.14526421 -0.0020865644 -0.27756795
000300 40 2d 31 be ae ee db be 44 11 99 be 76 20 01 3c
       -0.17302418 -0.42955536 -0.29895985 0.007881274
000310 b1 f2 7b be 51 fc a3 3e ba a1 09 3e b4 2f 94 bc
       -0.24604298 0.3202844 0.134406 -0.018089153
000320 51 09 21 bd 88 33 cf 3d 56 25 e0 3d 52 f7 a6 be
       -0.039315525 0.10117251 0.10944621 -0.32610565
000330 7a 35 9e 3e 20 29 9d be ea e9 9d 3e f7 28 d9 be
       0.30900174 -0.30695438 0.30842525 -0.42414066
000340 13 63 07 be 2e d2 ca 3e bb 6a 41 3e b9 51 25 3e
       -0.13221388 0.3961348 0.1888837 0.16144456
000350 27 cc 0e 3e 1c d6 e0 be 9b 2a 94 3e 33 d6 06 bf
       0.13945065 -0.43913352 0.28938755 -0.5267059
000360 58 25 de be a3 2a 76 3e 6f f4 80 3e 17 c0 a6 3e
       -0.43387866 0.24039702 0.25186488 0.32568428
000370 5d 31 6b be 48 e6 8b 3e b6 f2 ab bd 9a 16 17 be
       -0.2296805 0.27324128 -0.08395903 -0.14754716
000380 08 d7 af bd ae 11 b6 be e5 b5 9b be 59 bc 37 3e
       -0.08585936 -0.35560364 -0.30412212 0.17942943
000390 87 50 9b be 65 24 7d 3c 0d 00 0e be 14 13 b7 3e
       -0.30334875 0.015450572 -0.13867207 0.35756743
0003a0 bf 79 a1 3e 48 5e d6 bd a7 e4 dd 3e 1a a7 c5 3e
       0.31538197 -0.104672015 0.4333851 0.3860405
0003b0 f0 51 95 be 22 ce 1c be 50 a1 31 bd 76 69 a6 3e
       -0.29164076 -0.15313008 -0.04336673 0.32502335
0003c0 d0 69 d3 be 96 46 94 3e 49 d7 51 3e 25 8d 82 3e
       -0.41291666 0.28960103 0.20492281 0.2549831
0003d0 b1 43 2d bd b7 c9 93 3d 0d 0a 41 3e 7d 5e a5 bd
       -0.042300884 0.072162084 0.1885149 -0.08074663
0003e0 78 51 f0 bc 81 53 e1 be b2 42 e7 bd 55 39 6a be
       -0.029335722 -0.4400902 -0.11292018 -0.22873433
0003f0 01 25 cf be e0 d0 6a 3e 56 c3 3f 3e 45 d4 d2 be
       -0.4045792 0.22931242 0.18726858 -0.41177574

fc.0.bias f4 [256]
000000 c2 03 6f 3e 72 f4 f3 be 22 8f c6 3e f8 28 c8 be
       0.23341277 -0.47647434 0.38781077 -0.39093757
000010 44 6c 71 3e ec 00 d1 3e 26 11 e5 be 71 55 b2 be
       0.23576456 0.40821016 -0.44739646 -0.34830812
000020 52 39 7a bd 97 0e 32 bf da be f3 3d 35 37 c7 be
       -0.06108982 -0.6955351 0.119016364 -0.38909307
000030 8f a5 99 3e 13 99 f7 3d 4f 2c 99 be 8f ee 87 bd
       0.30009124 0.120897435 -0.29916617 -0.06637298
000040 51 22 ab be 43 ab c2 be e5 ca bd be 87 51 68 3a
       -0.3342462 -0.38021287 -0.3706886 0.0008862246
000050 96 ab 8e be 27 da d7 3e 47 f0 9a be 4a 9e 87 be
       -0.27865285 0.42158625 -0.30261442 -0.26487952
000060 1c 19 7c 3d cd f3 e4 3e 10 04 c5 be c6 47 87 3e
       0.061547384 0.44717255 -0.38479662 0.26421946
000070 a9 3c 79 3e 7c 8e 77 be 0f ba ea 3e 2d 8d a9 be
       0.24339546 -0.24175447 0.45845076 -0.3311552
000080 65 bd 59 3d ab 59 1c 3f d2 09 bc be a4 a0 f0 3e
       0.053159136 0.6107432 -0.36726242 0.4699756
000090 30 fb 45 3e c7 40 21 be 73 6f 28 3e 3f e3 dc 3d
       0.19334102 -0.15747367 0.16448765 0.10785531
0000a0 de 80 9f 3e a8 a7 b8 3e 6c 98 8b 3e 69 eb dd be
       0.31153005 0.36065412 0.27264726 -0.43343666
0000b0 87 90 d6 3e b6 06 cc 3d c4 08 91 3e 58 be d8 3e
       0.4190714 0.099622175 0.28327 0.4233272
0000c0 23 25 13 3e 2a d8 04 3e ce cf 21 be e3 9d ad 3e
       0.14369635 0.12973085 -0.15801927 0.3390952
0000d0 f1 14 e5 be 21 37 bb 3d 21 1c ac be fa a4 c5 3d
       -0.4474254 0.091413744 -0.3361521 0.096506074
0000e0 f5 21 ba be a8 15 81 3e f9 e6 00 bf 30 b8 c0 be
       -0.36354032 0.25211835 -0.50352436 -0.37640524
0000f0 40 79 2b bd 88 9a d9 3b b1 f9 bd be ea 19 0c 3e
       -0.04186368 0.006640736 -0.37104562 0.1368176
000100 17 76 b7 be 78 4a b5 be a1 32 64 be 7c 7b 9c be
       -0.35832283 -0.35408378 -0.22284938 -0.3056296
000110 3a bf 1e 3e bb d6 82 3d 3b eb 32 be 1b 63 be 3e
       0.15502635 0.06388613 -0.17472546 0.37184986
000120 d2 ca 0f 3e e9 9f db 3e 75 a2 36 3e f2 ba 18 3e
       0.14042214 0.4289544 0.1783541 0.14915064
000130 cb 8c 1e be f2 bf 96 be 68 92 24 3f e2 1a 34 3e
       -0.15483396 -0.29443318 0.642859 0.1758838
000140 81 04 10 3f 1b 2c 87 bd ea 2d b3 be 33 bd 11 be
       0.5625687 -0.06600209 -0.34995967 -0.1423233
000150 c6 7c f2 3e 2d 74 26 3f 8c d5 37 be 04 d6 3d be
       0.4736082 0.6502102 -0.17952555 -0.18538672
000160 4a 60 a6 bd 3c 3f f2 3e 3b 3f 62 3d 11 d7 9d bb
       -0.081238344 0.4731387 0.055236083 -0.0048168977
000170 33 8e 6c 3e c4 26 41 3e 27 6b 13 3e 07 5e 24 3f
       0.2310112 0.18862444 0.14396344 0.64205974
000180 21 f1 8a 3e 55 73 78 be dc fe 58 3e 60 4f 07 be
       0.27137092 -0.24262746 0.21190971 -0.13213873
000190 6c 5d e8 bc c4 dd 97 3e a9 d3 42 be 3c 56 a7 be
       -0.02836486 0.2966138 -0.19026054 -0.3268298
0001a0 9b 3f 65 3e 3e d8 d2 be bf 52 16 be d5 58 51 3e
       0.22387545 -0.41180605 -0.14680003 0.20444043
0001b0 d5 5b 06 bc 32 0c b8 bd 64 0a 82 3e cf 99 dc be
       -0.008200605 -0.08986701 0.25398552 -0.43086097
0001c0 fd a3 9f 3e bb 4b 40 3e 90 ab 47 3e 30 85 60 bd
       0.311798 0.18778889 0.1949904 -0.054814517
0001d0 51 5e 11 be 4e 6e 65 3e 1c 84 84 be dc 4e 8c 3e
       -0.14196135 0.22405359 -0.2588204 0.27403915
0001e0 5f d2 dd be 37 b0 bf 3d 39 75 d6 bd d2 11 23 3e
       -0.43324563 0.09359782 -0.10471577 0.15924767
0001f0 2c 5e f5 be 8e df 9f be 4b 24 91 3e 35 03 31 3f
       -0.4792341 -0.31225246 0.28348002 0.6914552
000200 40 ac d4 3e c1 7b d8 be 8f aa 91 3d 9d 4c 10 be
       0.41537666 -0.42281917 0.071126096 -0.14091726
000210 07 bc d5 3e c0 e1 02 bf e8 89 62 3e e6 8c c8 3e
       0.41745016 -0.5112572 0.2212292 0.39169997
000220 53 7c 50 be 5b 4d d9 3a 2f e0 d2 be 02 2e c8 3e
       -0.20359926 0.001657884 -0.41186664 0.390976
000230 72 6f 17 bf 76 ed e6 be c9 3a 95 3e d6 f4 45 be
       -0.5915443 -0.45103043 0.29146412 -0.19331679
000240 6c d7 c5 3d 73 bb 2a be 1e 75 f8 bd 5f b8 1c bf
       0.09660229 -0.16673069 -0.12131713 -0.6121883
000250 03 1c b5 3e e2 48 f7 be 4c 6d 37 3e 43 92 c0 be
       0.35372934 -0.48297793 0.17912787 -0.3761159
000260 2a a5 64 3d 6b a7 80 3e 95 a9 c5 be 93 3c c5 be
       0.055821575 0.2512773 -0.38605943 -0.38522777
000270 c3 7d 1f bf e1 cc e9 3d 6f 9e e3 bc 80 e4 e4 3e
       -0.6230127 0.11416031 -0.027785508 0.44705582
000280 c9 81 96 bd 2e 31 01 bc 12 f7 9f bd 45 f0 00 bf
       -0.07348973 -0.0078852605 -0.07810797 -0.5036662
000290 5c 22 41 3e 80 e0 e3 3d 15 bc a3 bd 63 9f d2 be
       0.18860763 0.11126804 -0.07994858 -0.41137227
0002a0 8c 01 7c be ef 75 c8 bd e6 80 07 3f 47 4f db be
       -0.24609965 -0.09788119 0.5293106 -0.4283392
0002b0 87 22 ba be ff 3d 92 be fb 55 b3 be 32 2e c2 3e
       -0.36354467 -0.28562924 -0.35026535 0.3792587
0002c0 a5 4b fd bd 13 78 95 3d 6c ef bc 3d 74 c8 5f be
       -0.12367944 0.07298293 0.092253536 -0.2185381
0002d0 00 7a 9a 3e 9a 10 ff 3d 1b d2 c4 3d 65 39 c5 be
       0.30171204 0.12454338 0.09610387 -0.3852035
0002e0 93 51 1f 3e a5 ee 73 3e e7 6d 07 3f 84 f4 de be
       0.15558462 0.23821504 0.5290207 -0.43545926
0002f0 06 9d a6 3e 5d 0f 0c bf 33 01 76 3e 2a 78 71 bd
       0.32541674 -0.5471094 0.24023895 -0.058952488
000300 22 9d f6 3e b6 49 e6 3e 88 62 d0 bd 40 68 e0 3d
       0.48166758 0.44978112 -0.10175043 0.10957384
000310 af 96 f7 bd 64 11 fa be 9d da a6 3e 6a d1 ff bd
       -0.120892875 -0.48841393 0.32588664 -0.124911144
000320 16 d4 eb be aa a2 22 3e 66 95 78 bc 99 6a 87 bd
       -0.46060246 0.15882364 -0.015172338 -0.06612129
000330 ef f5 95 be 69 ad d5 bd 73 6e cc 3e da 4c 0c 3f
       -0.29289195 -0.10433466 0.39928016 0.54804766
000340 72 74 89 bd 95 04 f5 3d 64 e6 89 3e b8 4c 2d be
       -0.06711663 0.119637646 0.26933587 -0.16923797
000350 26 28 42 be 94 ac a1 be d8 87 98 be d4 eb 88 3e
       -0.18960628 -0.3157698 -0.2979114 0.26742423
000360 78 b8 a0 3e 9a 0a 36 bd c3 a0 aa 3e 15 07 5f 3c
       0.31390738 -0.044443704 0.33325776 0.013612528
000370 71 16 41 bd d5 6c 92 3e 49 9b 9e be a5 68 0f 3f
       -0.047140542 0.28598657 -0.30977848 0.5601905
000380 a9 ab ee 3e 42 5d 81 3e 61 ad b4 3e f0 9a ae be
       0.4661534 0.25266463 0.35288528 -0.34102583
000390 57 8e e6 3d bc 7b d7 3e 14 92 0f 3f 5a 08 dd bd
       0.11257618 0.4208659 0.5608227 -0.107926086
0003a0 93 7f f3 bd 00 ff 34 3d 90 e9 ba be 66 7b 88 bd
       -0.11889567 0.0441885 -0.3650632 -0.066641614
0003b0 2d ca 61 3e b0 90 1a be c0 75 82 bd 3d 2f d1 3e
       0.2204978 -0.15094256 -0.06370115 0.40856352
0003c0 93 4a 17 bf 3d f3 cf be 40 b8 b5 3e c7 d2 08 bf
       -0.59098166 -0.40615264 0.35492134 -0.5344662
0003d0 48 02 de 3e 30 49 95 be 78 d0 8b be 98 4a db be
       0.43361115 -0.291574 -0.27307487 -0.42830348
0003e0 79 01 7c be f4 9e d1 3e 6b e1 89 be 55 6b 78 be
       -0.24609937 0.40941584 -0.26929793 -0.24259694
0003f0 67 a4 d1 3e c7 cd db be e2 56 c2 be 83 26 8c 3e
       0.40945742 -0.42930433 -0.3795691 0.27373132

fc.2.weight f4 [256, 256]
000000 79 28 db bc 0e 33 3b bd 58 c6 b7 3c 86 a6 72 3d
       -0.026752697 -0.045702986 0.022433445 0.05924084
000010 f5 f2 ec bc 19 d1 71 bc 82 fc 5a 3d 8d 89 20 bd
       -0.028924445 -0.014759325 0.053463466 -0.03919368
000020 9f 98 07 3c cf 7c ea 3c 73 1b 89 38 a3 d4 ce 3c
       0.008276134 0.028623967 6.537782e-05 0.025247877
000030 ee cc 11 ba 05 25 8d bc 35 01 56 3d cd 16 3d 3d
       -0.0005561848 -0.017229566 0.052247245 0.046164323
000040 5b 0e 2d 3d 9e 03 89 3c 64 b4 0e 3d e9 6a 5e 3d
       0.04225002 0.016725358 0.034840003 0.054301176
000050 20 8f f3 3b 37 04 66 bd 6b 9e 5c bd 89 a0 8b 3d
       0.0074328333 -0.056156363 -0.053862017 0.06817729
000060 4a e7 2b bd d1 8e 16 3d d3 78 23 bc f6 09 86 3c
       -0.04196862 0.036757294 -0.009977537 0.016362172
000070 e7 22 49 bd d7 f4 f1 3c 4b e7 19 3d cf 16 43 3d
       -0.04910555 0.029535694 0.037574094 0.047629174
000080 0d e2 b9 ba c0 5f 59 3c 14 b0 7b bc e4 d7 90 3b
       -0.0014181748 0.0132674575 -0.0153618045 0.0044202674
000090 97 a9 8a bd c1 a7 7d bc ef fd cb bc 9d 6a 30 bc
       -0.06770628 -0.01548189 -0.024901358 -0.010767606
0000a0 83 56 a0 bc 24 11 45 3d b9 a3 19 3c d0 fb 44 3c
       -0.019572502 0.04811205 0.009377413 0.012022927
0000b0 c3 a5 1a 3c d5 f1 2f 3c a1 8d 20 3d e0 cd 6f bd
       0.009438935 0.01073881 0.039197568 -0.058545947
0000c0 3f cc d3 bc 5d 22 d8 3c 94 e3 e4 bc 4d d1 46 bc
       -0.025854228 0.026383573 -0.027940549 -0.012134862
0000d0 6c 81 18 bd d1 47 0f 3d ab d3 89 3b e3 fc dd 3c
       -0.0372328 0.0349806 0.004206141 0.027098125
0000e0 53 9a 33 3d ec f8 67 3d ba 08 f2 3c fd dc d0 bb
       0.043848347 0.056633875 0.029545177 -0.006374
0000f0 9b bb d3 3b 63 53 db bc fa 1d 4e bc 01 4b 43 3d
       0.0064615733 -0.02677316 -0.012580389 0.04767895
000100 a2 c1 de bc 74 d8 e2 3b 5e b5 89 bc 46 80 7a 3b
       -0.02719194 0.006922776 -0.016810115 0.003822343
000110 de 2a 16 3d 0a 4b 10 3d 99 aa 43 bd 39 3a 04 bd
       0.036661975 0.035227813 -0.047770116 -0.032282088
000120 06 67 4a 3d 52 bd 43 3c 58 e4 5f bd bd 02 f2 bc
       0.049414657 0.011946993 -0.054661125 -0.029542321
000130 fe 8f c2 bc ae 40 49 bd f2 07 4d 3d 9c 5c 78 bd
       -0.023750301 -0.04913395 0.050056405 -0.060635194
000140 47 c1 e3 3c 3d 05 51 3c 08 9c 71 bd 4f 96 61 bd
       0.027802123 0.012757597 -0.058986694 -0.055074986
000150 6c 22 0a 3d 9a 24 55 bd c1 df 2d 3d 69 c4 34 3d
       0.033724234 -0.05203686 0.042449716 0.044132624
000160 22 eb 71 bd 7a c7 a3 3c dd 77 a3 3c 7e 68 42 bc
       -0.05906213 0.019992579 0.019954616 -0.011865733
000170 cf 69 1c bd 9f 4b 28 3d 32 fc 95 3c 5e d2 81 bc
       -0.038186844 0.041087743 0.018308733 -0.015847381
000180 96 eb 90 3c d1 c1 39 3b 70 1b 8a bd 73 d5 6c 3d
       0.017690461 0.0028344283 -0.067435145 0.05782075
000190 c0 c6 19 bd 5d 6c 73 bd 36 24 61 3d 8d e7 a5 bc
       -0.03754306 -0.059429515 0.054966174 -0.020252014
0001a0 11 99 b5 bc f9 de 53 3b 86 2a 5e bd 8d 4e 67 3d
       -0.022167714 0.0032328947 -0.054239772 0.056471396
0001b0 94 e3 9e bc ae 95 cd bc c5 91 20 3d 4b d2 4e 3d
       -0.019395627 -0.025095787 0.039201517 0.05049352
0001c0 5c 38 15 bc d3 f8 1c 3d 14 93 ed bc 2d e3 6d bd
       -0.009107675 0.038323235 -0.029000796 -0.05807798
0001d0 c4 48 d4 3c 02 dc 36 bd be 30 45 bd 98 d2 da bc
       0.025913604 -0.04464341 -0.048142187 -0.026711747
0001e0 db 16 2d 3d 80 ea c8 3c a6 35 94 3b d4 c9 30 3d
       0.042258125 0.02452588 0.004522997 0.04316123
0001f0 74 bc 1e 3d 75 aa 68 bc 04 17 8b bd 91 b5 d1 bc
       0.03875394 -0.014200796 -0.06791499 -0.025599273
000200 1d 69 22 bd 23 c0 7c bc d1 5f 55 3c 20 e3 d9 bc
       -0.039651025 -0.015426668 0.013023333 -0.02659756
000210 4e 66 4c bd 34 d7 70 bb 92 bf d4 bc 21 96 3f 3d
       -0.049902253 -0.0036749365 -0.025970254 0.046774033
000220 ef 83 11 3d 9e e8 65 bd 50 5a 70 bd 5a 50 2c 3d
       0.035526212 -0.056130044 -0.05867988 0.042068817
000230 fe a4 d5 3d 53 7e ef 3c 2a 66 8b 3b 35 ce 06 bd
       0.104318604 0.02923504 0.0042541223 -0.032911498
000240 a0 2b 08 3c b7 ac 4e 3d 24 67 4a bd 7c e7 31 bd
       0.008311182 0.050457682 -0.04941477 -0.04343365
000250 da 7c b7 3c 1c 9b ad bc 05 1a f3 bc ae 99 74 3c
       0.022398401 -0.021192126 -0.029675493 0.014929218
000260 6c 01 40 bd 11 b4 7a bd 40 69 ce 3c bc a2 c9 3c
       -0.046876356 -0.06120688 0.025196671 0.02461373
000270 01 b9 34 3d 38 90 53 3d cd cf 14 3d a9 50 4c 3c
       0.044121746 0.05165121 0.036330987 0.012470403
000280 21 06 a0 ba 9a 14 ec b8 07 2b ac 3c bb c4 d4 3c
       -0.0012208858 -0.00011257194 0.02101661 0.025972715
000290 13 01 5f bd ad 88 96 3b 22 b2 6a bd fe 28 04 bd
       -0.054444384 0.0045939297 -0.057298787 -0.032265656
0002a0 6a b9 3b 3a 58 c3 75 3c 7e 55 3c 3d 6e 35 15 3d
       0.0007161113 0.015000187 0.04597997 0.036427908
0002b0 6c 6f 98 bb 07 9e 54 3c 57 1b 86 bd ea b1 e2 bc
       -0.0046519544 0.01297713 -0.065481834 -0.027672727
0002c0 2d 4d 03 bd a9 b0 3c bd 59 b1 cc ba b0 04 5b bd
       -0.032056022 -0.046066914 -0.0015616819 -0.053471267
0002d0 c7 aa 83 bd 11 87 68 3d 40 5b 0e bc 42 d7 04 3d
       -0.064290576 0.056769434 -0.008688748 0.03243185
0002e0 e9 04 94 bb 49 c6 88 3c 44 95 cf bb 45 22 0d 3d
       -0.004517187 0.016696112 -0.0063349325 0.03445651
0002f0 99 87 a5 3c 59 52 3c bd 25 85 82 3d 92 19 29 bd
       0.02020626 -0.04597697 0.063730516 -0.04128415
000300 9a 39 11 bd de a4 96 bd 4c b9 5e 3d 8f e3 91 3b
       -0.035455324 -0.07355665 0.05437593 0.004452176
000310 d4 70 90 3d 54 81 15 bd 49 8d dd 3c 34 3f 53 bc
       0.0705277 -0.03650029 0.02704491 -0.012893487
000320 62 07 84 3c 4c 53 05 bd d4 b4 51 3d 5e db b7 bd
       0.016116802 -0.03255014 0.05119784 -0.08977388
000330 ab d8 f1 3b 39 63 0f 3d dd 1a 83 bc c4 80 dd 3c
       0.007380565 0.035006735 -0.01600402 0.02703894
000340 10 0e 25 bd 5d 16 3d bc b9 a2 03 3d dc 6f 3e bd
       -0.040296614 -0.011540976 0.032137606 -0.046493396
000350 42 e3 8b bc 82 56 f6 3c a4 96 37 3d f8 61 3f 3d
       -0.017076138 0.030070547 0.044821396 0.04672429
000360 97 3a d1 3c e9 53 d0 bb fc dd c8 bc 97 a6 22 3d
       0.025540633 -0.006357659 -0.024519913 0.039709654
000370 08 fb 6c bd e5 05 10 3d 88 1c a6 3c 0d 6e 62 3d
       -0.05785659 0.03516187 0.020277277 0.055280734
000380 06 d2 e5 bc d8 6c f4 3c fb 0b 9d bc a2 e0 f9 3b
       -0.028054249 0.029837057 -0.019170752 0.0076256553
000390 ec db 81 bd 59 c5 08 3d 2d c4 ab bd 7c 9e 97 3c
       -0.06340775 0.03339133 -0.08387027 0.018508188
0003a0 e9 32 e6 3c d5 69 61 bd ea 3e 4c bd 66 16 33 3d
       0.028100448 -0.05503257 -0.049864687 0.043722533
0003b0 ad 92 e2 bc 5a 8f 72 bd cb a1 1e 3d 18 3b dd 3c
       -0.027657831 -0.059218742 0.038728517 0.027005717
0003c0 d5 5a 25 3c ea c6 2c bd e8 c3 84 bb 3c b4 23 bd
       0.010092457 -0.042181887 -0.004051674 -0.039966807
0003d0 3e 64 05 bd a5 3c 93 bc 3c a3 10 bc d1 86 8f 3d
       -0.0325663 -0.017973254 -0.008827981 0.07008136
0003e0 ae 73 be 3c 3c 5b b1 bc e3 b9 d6 3c 54 1e 2b bd
       0.02324852 -0.02164995 0.026211685 -0.04177697
0003f0 5b a2 20 3d 2e d0 45 3b a0 de c5 3c 07 61 3b bd
       0.039217334 0.00301839 0.024154007 -0.04574683

fc.2.bias f4 [256]
000000 1a fb 28 bd c0 89 a6 bd 07 bc 25 be 5b 7c 8d 3d
       -0.041255094 -0.081317425 -0.16185008 0.069084845
000010 15 28 a0 3e 49 e3 58 bd c5 11 71 bc dc 6f e3 bd
       0.3128058 -0.05295113 -0.014713709 -0.1110532
000020 9f ad df bd 93 95 c1 3c 36 4b 45 3e 37 ce b7 bd
       -0.109217875 0.023630893 0.19266972 -0.08974879
000030 80 6d 55 3d d3 dd 1b bd 5a 9b 0b bc c2 8f 34 bb
       0.05210638 -0.038053345 -0.008520925 -0.0027551507
000040 d1 bf 1a 3d 95 43 da bd 49 db d9 bc 97 11 c8 3c
       0.037780587 -0.106574215 -0.026593821 0.02442245
000050 9a 9a 24 3d d4 e3 8f bc e2 c3 2b 3d 00 bf 28 3c
       0.040186502 -0.017564692 0.041934855 0.010299444
000060 56 d6 dd 3d 28 59 e4 3c 61 c6 42 bd a5 02 54 3d
       0.10831897 0.027874544 -0.04755247 0.051760335
000070 74 6b 5a 3e c2 3f 09 3e 44 1f d4 bd 96 69 7a bc
       0.21330053 0.13403228 -0.10357526 -0.015283963
000080 01 33 25 bd fb 25 64 bd 69 8e 0f bd 32 e1 88 bd
       -0.040331844 -0.055700283 -0.035047922 -0.066835776
000090 4d 47 ba bc 49 01 de 3d 68 4c 4a 3e 0f 8d c6 bd
       -0.022739077 0.10840089 0.19755709 -0.096948735
0000a0 e4 d8 e7 3d ba ea a7 3c 86 86 03 bc bd 93 61 bd
       0.113206655 0.020497669 -0.008027678 -0.055072535
0000b0 85 1e c0 3c 15 cc b9 b9 fe 90 30 bd 44 99 45 3d
       0.023452053 -0.00035438003 -0.043107025 0.04824187
0000c0 3a eb e2 3a b6 0f 06 bb 82 3a b8 3d 0c 39 8e 3d
       0.0017312535 -0.0020456142 0.089955345 0.069444746
0000d0 04 23 33 bd 78 72 14 bd c4 21 22 3d 28 b7 b7 3c
       -0.043734565 -0.03624198 0.039582983 0.022426203
0000e0 64 a5 78 bd 26 8e 24 3d f3 f7 30 bd 48 b7 cb 3c
       -0.060704604 0.040174626 -0.043205213 0.024867669
0000f0 1e 34 d3 bd 84 3c a6 3c 48 54 76 bd 51 03 a3 3c
       -0.10312675 0.020292528 -0.06013897 0.019899042
000100 5e 69 bc 3c a0 50 87 bc de 19 32 bd d3 a1 bf bd
       0.022999462 -0.016517937 -0.0434817 -0.093570374
000110 52 9c 0e 3e 89 a1 49 3d 71 c9 8c bc a8 d7 30 bb
       0.13926819 0.049226318 -0.017185898 -0.002698401
000120 ff 7d 5b 38 20 f8 f1 3c 87 17 1d 3e 73 56 39 bd
       5.2331012e-05 0.02953726 0.15341006 -0.04524846
000130 6b 8d b7 bd c8 89 00 3b 84 78 14 bd 86 8f 87 3d
       -0.0896252 0.0019613374 -0.036247745 0.06619172
000140 06 75 3f bc 54 e9 77 3e 64 07 07 3e 96 d9 55 3d
       -0.011685615 0.24210101 0.13186413 0.05220946
000150 57 3f 68 bd 55 f0 9d bd cd 73 ac 3d 9a 9f 98 3d
       -0.05670103 -0.07711855 0.08420525 0.074523166
000160 1b 7a 05 3d dc 71 43 bd 38 26 de bd b9 85 11 bd
       0.032587152 -0.047716007 -0.108471334 -0.03552792
000170 1d 53 12 3a 34 c8 3a bd 32 cb 0e 3d 27 7f 8d bd
       0.0005581843 -0.045601085 0.03486175 -0.06909018
000180 0e 34 05 3c 2d 9d 53 bc 94 7d 90 3b 63 d9 99 3d
       0.008130087 -0.012915892 0.0044095013 0.07512166
000190 6f 97 67 bd 36 2d d3 3d 27 3a d0 bb d2 52 92 bd
       -0.056540903 0.10311358 -0.0063545885 -0.07144703
0001a0 07 94 15 bd e2 7f 79 3c a0 a3 ff bc a0 81 73 bc
       -0.036518123 0.015228244 -0.031205952 -0.014862448
0001b0 3f fe 1b 3d 13 5a bd bc 1e 20 aa bc a6 ef 41 3d
       0.038084265 -0.02311424 -0.020767268 0.047347687
0001c0 82 36 16 bd 76 29 b4 3d 41 75 36 bd a0 47 95 bc
       -0.036673076 0.087969705 -0.044545416 -0.01822263
0001d0 cc eb 07 bd 58 d7 2c 3e 97 aa 63 3c a2 09 02 ba
       -0.033183858 0.16879022 0.013895652 -0.0004960542
0001e0 ee a4 11 bd 2d 4b ba bc 93 b9 69 3d 0d df 88 3d
       -0.03555768 -0.022740925 0.057061743 0.066831686
0001f0 e8 3b c6 3e 0d 85 4a 3d 56 81 1d 3d 08 5f 7c bd
       0.3871758 0.049443293 0.038453422 -0.061614066
000200 57 57 a4 3d 8a f9 96 3c d2 5a 0f bd 4c d6 43 3c
       0.08024471 0.018429536 -0.034998722 0.011952948
000210 fe 95 dc bc 36 81 78 3c 19 2a 75 bd d8 1b 7b bd
       -0.02692699 0.015167525 -0.0598546 -0.06130585
000220 24 c3 7e bd 3d 1b 28 3d 56 5a 03 39 da c2 24 3c
       -0.06219782 0.0410416 0.00012526786 0.010056222
000230 2c af 1f bd 5b 79 29 3d 24 85 71 3d 70 8c 85 3d
       -0.038985416 0.0413755 0.058964863 0.06520927
000240 09 0b 8c bd 16 c6 79 3b 08 6d 3f 3d a9 89 88 3d
       -0.06838042 0.0038112453 0.04673484 0.066668816
000250 9f 0b 33 bd 2f 45 ec bd 4f 9a 63 3d 03 b2 1a bd
       -0.043712255 -0.11536633 0.055567082 -0.03776742
000260 43 9f 79 bd b0 43 44 3c 3a 43 ac 3c ef 80 5c bc
       -0.0609429 0.011979029 0.02102815 -0.013458475
000270 94 8b cf bd 7b 03 e2 bc f0 5d 50 bc 4b 85 06 3d
       -0.10134044 -0.02758955 -0.012717709 0.03284196
000280 e7 b7 8f 3b 1a b2 81 bd 60 6b db bd 06 7b 62 3d
       0.0043859365 -0.06332798 -0.107138395 0.055293106
000290 12 b6 7f bd 36 74 e2 3b a3 30 b1 3c 9e 04 be 3d
       -0.062429495 0.006910826 0.021629637 0.092782244
0002a0 59 2c 14 bd fb c8 da 3d 5a b7 5f 3d 8f 9b 8e bc
       -0.036175106 0.10682865 0.054618217 -0.01740816
0002b0 fb 6d a3 3d e6 48 f2 b9 49 7a 97 3c 34 0b 08 3c
       0.079799615 -0.0004621215 0.018490927 0.008303452
0002c0 41 6e f7 bc ec 5a 5f bd 2b 89 6b bd 3a fd 9a bc
       -0.03020394 -0.05453007 -0.05750386 -0.018919576
0002d0 cf 02 8a 3e 8e b0 75 3d 42 0b 06 3b 97 68 63 bd
       0.26955268 0.05998283 0.0020453488 -0.055519667
0002e0 eb 60 81 bd ee c3 18 bd 00 fa 19 bd 32 ff 6c bd
       -0.06317314 -0.037296228 -0.037591934 -0.05786056
0002f0 38 dd 04 3e 6c 17 b0 bd d2 64 3b be da 40 04 bc
       0.12975013 -0.08598217 -0.18300179 -0.008072102
000300 00 2d da bd 10 a0 0c bd 0f 23 3c bd 61 58 3b bd
       -0.10653114 -0.034332335 -0.045931872 -0.04573858
000310 fe e1 db 3c 20 c3 09 3d 3f c0 f5 3d 96 e8 74 3d
       0.02684116 0.03363335 0.11999559 0.059792124
000320 a0 85 e5 bd 09 1f ac bc 5f 2f 7e 3e cb 08 2a 3c
       -0.112071276 -0.021010892 0.24822758 0.010378073
000330 5e 90 f0 bd 12 ba 7f 3c 96 7f 53 bd aa e4 30 bc
       -0.11746286 0.015608327 -0.051635347 -0.010796705
000340 25 2b d2 3c d8 fd c3 bd 84 94 dd 3d 52 2a f2 bc
       0.025655339 -0.09569901 0.10819343 -0.029561196
000350 d0 5a f8 bc d8 26 c6 3d cc b8 e5 3b 31 c1 f7 bc
       -0.03031674 0.096753776 0.007010555 -0.030243488
000360 bb 3b 86 3d 70 7d 07 bc 98 24 61 3d 9c 5f 0e bd
       0.065543614 -0.008269653 0.05496654 -0.03475915
000370 a6 ac b3 3c 00 99 46 bc c4 17 b0 bd 07 72 d1 bd
       0.021932911 -0.012121439 -0.08598283 -0.10226827
000380 78 5d 30 bd ae 5c 6e bd 6d 1d d5 bd 65 0c 81 bd
       -0.04305789 -0.058193855 -0.10406003 -0.06301192
000390 2c 3e 6c bd 86 ee b4 3c 60 b9 27 bb 47 b8 28 bd
       -0.05767648 0.022086393 -0.002559267 -0.041191366
0003a0 07 6a 60 bd 0b 0b 6a 3c 54 9f c2 3c 66 f7 17 bc
       -0.054788616 0.014284859 0.023757614 -0.009275293
0003b0 a6 92 1d 3e fc f4 3c bd d4 ed b8 3d bb 92 56 3e
       0.15387973 -0.046132073 0.09029737 0.2095441
0003c0 b2 f0 3a bd 8c 38 78 bc 4e 86 41 bd bf 17 a9 bc
       -0.0456397 -0.015150201 -0.047247224 -0.020641206
0003d0 03 f4 9c 3e 1e 1c bf bc e4 87 4c 3d e2 79 cb bc
       0.30654916 -0.023328837 0.049934283 -0.024838392
0003e0 8a fc 73 bd f1 b4 ca bd 26 e5 98 3d 14 b0 8e 3d
       -0.059567012 -0.09897793 0.074655816 0.06967178
0003f0 69 fd 57 bd 22 61 c1 bd 85 a8 c5 3c 33 20 3e 3e
       -0.052731905 -0.09442355 0.024128208 0.1856697

fc.4.weight f4 [1, 256]
000000 6d d2 c0 bc 11 ff 45 bd 37 fb 64 bc 46 05 d0 3c
       -0.023537839 -0.048338953 -0.01397591 0.02539314
000010 6e f4 b8 3d a1 56 14 3c a1 99 2c bb 7f 8e 1c bd
       0.09030996 0.009053857 -0.0026336687 -0.038221832
000020 ac fc 13 bd 9d d3 17 3d bd 39 08 3c 5d 7e 74 bd
       -0.03612964 0.037067045 0.008314547 -0.059690822
000030 59 4c 65 bd 8e 5b 40 bd 74 c1 3a bd ae f9 53 bd
       -0.055981014 -0.046962313 -0.045594648 -0.051751785
000040 9f e8 40 bd f0 e7 fe ba 32 ab 24 bd 9b 8b 5a 3d
       -0.047096845 -0.0019447785 -0.040202327 0.053355794
000050 1b 23 7b bc 2a e9 5f 3d c0 f2 1f bd 50 da 0a bd
       -0.015328194 0.054665722 -0.039049864 -0.033899605
000060 56 0a 2d 3c d6 40 37 bd de cb 1f 3a 0d 46 7c bd
       0.010561546 -0.044739567 0.0006095747 -0.061590243
000070 ce 9c 8a 3c c9 d5 35 3c cb c3 67 bc 27 b6 79 ba
       0.016920473 0.011098334 -0.014145802 -0.0009525739
000080 78 bc 27 bd 4a 79 9f bc ca 66 de bc 0a f8 04 bc
       -0.040951222 -0.019467015 -0.027148623 -0.008115778
000090 1b dd cb 3a fd 6a 5c 3d 08 83 4f 3c 7c d7 bd bc
       0.0015553565 0.05381297 0.012665518 -0.02317404
0000a0 8b 44 a2 3c 20 3c 05 3d 73 74 0a bd 2b a9 b2 bc
       0.019808074 0.032528043 -0.03380246 -0.021809181
0000b0 35 b3 20 3d fe 2c a6 bb 07 52 fe 3b 36 11 ed 3b
       0.039233405 -0.0050712815 0.0077612433 0.0072347177
0000c0 fc 6f 94 3a 16 d9 4c bd 2a f2 2a 3d c7 95 72 3b
       0.0011324878 -0.050011717 0.041734852 0.0037015544
0000d0 7b e0 2f bc 0a 92 5d bc 02 0b 58 bd 09 c2 81 bc
       -0.010734673 -0.013523588 -0.052744873 -0.015839593
0000e0 76 f8 73 bd 65 f4 0f bc 13 ae 48 3c 45 7d 22 bd
       -0.059563123 -0.008786296 0.012248534 -0.039670248
0000f0 cb 36 23 bd 42 fe c3 bd 2c a7 a3 bc 58 33 0c 3c
       -0.039847177 -0.0956998 -0.019977175 0.008557163
000100 92 22 4d bd b1 97 e9 bb 7e 6a 81 bc 51 0f e4 bc
       -0.050081797 -0.0071286787 -0.01579785 -0.027839335
000110 dd 9b 2c 3d 34 e8 14 3c 8c 32 92 bd 8d 28 d9 3c
       0.04214083 0.009088565 -0.07138547 0.026508594
000120 98 5d 17 3d f6 95 8b 3b cb 35 98 3c 7f 01 15 bd
       0.036954492 0.00425982 0.018580338 -0.03637838
000130 06 0b 44 bc 06 0e 4e 3d ef 35 ec bc eb 15 4d 3d
       -0.011965519 0.050306343 -0.028834311 0.05006973
000140 b0 d1 6f bd fa 67 2a 3d b2 63 82 3d bb 50 79 3c
       -0.058549583 0.041603066 0.063666716 0.015217002
000150 20 a3 fc bc e6 c2 70 bd ad 62 b2 3c e8 c1 c2 bb
       -0.030839503 -0.05877962 0.021775568 -0.0059435256
000160 5c d1 7d 3c 20 a2 b3 3c b4 1a 36 bd bb a4 41 bd
       0.01549181 0.021927893 -0.04445906 -0.04727624
000170 16 a8 1f 3d c2 6a d1 bc 87 7a c9 3c fe 6e 73 bb
       0.03897866 -0.025563601 0.024594558 -0.0037145014
000180 ba 1f 4c 3d c4 95 f2 b9 60 21 42 3d 01 ed d8 3c
       0.049834944 -0.0004626942 0.04739511 0.0264802
000190 18 8b c1 bc a0 56 1c 3c ca 13 37 bd 90 c9 78 bc
       -0.023625895 0.009542137 -0.044696607 -0.015184775
0001a0 7b 85 40 bd 97 7b 06 3d b0 7a 6d bd e2 06 7e bc
       -0.047002297 0.03283271 -0.057978332 -0.015504571
0001b0 43 91 96 3c 0e 20 04 bd fc 57 68 bc d6 14 3d bc
       0.018379813 -0.032257132 -0.014181133 -0.011540612
0001c0 bd ef 1e bd 6e 11 18 bc a7 5d 44 bd ea 62 28 bd
       -0.03880285 -0.009281499 -0.047940876 -0.041109957
0001d0 f9 81 1f bc d2 b7 b5 3d bd bc 67 3d 72 3c ae 3c
       -0.009735578 0.088729516 0.05657648 0.021269057
0001e0 2e aa a9 3c 24 8a b1 bc ab af 45 3d f3 fb e2 3c
       0.02071103 -0.021672316 0.048263233 0.02770803
0001f0 88 95 e4 3d b9 42 6d ba b8 66 8d 3b fc 90 aa 3a
       0.11161333 -0.0009050775 0.0043152235 0.0013013179
000200 86 0c 1f 3d 08 4d a3 ba d8 b3 05 bd f0 52 2f bc
       0.038830303 -0.001245887 -0.032642215 -0.010700926
000210 4b ed 81 3d 44 9c f3 3c b4 37 63 3d b7 84 66 ba
       0.06344088 0.0297376 0.055473045 -0.000879358
000220 a0 ca d7 ba 7e ab d2 b9 3b b8 3a bd 8c c0 cd 3c
       -0.0016463585 -0.00040182093 -0.045585852 0.025116228
000230 cf 1d 12 bc e9 2e 27 3c f5 36 14 37 a8 c9 c0 3c
       -0.00891824 0.010204055 8.834283e-06 0.023533657
000240 9a 07 81 3d 9a 63 49 3c 1a c5 54 3d 96 a6 19 3d
       0.06300278 0.012291813 0.051945783 0.037512384
000250 6d 87 bc bc aa 0b 38 bc e1 35 4e 3c 1e c0 d1 bb
       -0.023013795 -0.01123325 0.012586088 -0.006401076
000260 99 46 b9 bb cc aa 4e bc 6c cd 82 bc 6f 0b 5c bd
       -0.005654168 -0.012613963 -0.015967093 -0.05372184
000270 ba 0b ec bc c4 c0 70 bc 22 3a 6f 3c ae 7b b2 3c
       -0.028814185 -0.014694396 0.014601262 0.02178749
000280 ae 46 0f bd 1f 0f 54 3d 57 96 5b bc fd c4 dc 3c
       -0.034979515 0.051772233 -0.013402543 0.0269494
000290 c9 f2 5d 3d 9b 88 48 3b 4a 03 3a 3d 59 dd f7 3c
       0.054186616 0.0030599001 0.045413293 0.030256914
0002a0 ce 38 97 bc ee f2 d5 3b ad 46 14 bd a9 be d9 bc
       -0.018459704 0.0065292036 -0.036200214 -0.026580172
0002b0 65 10 08 3d 14 b2 60 bb f8 46 dc bb 2e 33 70 3d
       0.03321876 -0.003428583 -0.0067223273 0.05864256
0002c0 e6 2c 74 3c 56 d8 89 bc 20 5d e6 3c cf 05 1f bd
       0.014903283 -0.01682679 0.028120577 -0.0388239
0002d0 2c b5 75 3d 98 08 35 3c 4e 2a f0 3c 80 5c 60 bc
       0.059987232 0.011049412 0.029317047 -0.013693929
0002e0 f4 f3 57 bd 2e de bf 3c 40 f2 2a bc 14 db ed 3c
       -0.052722886 0.023421373 -0.010433733 0.029035129
0002f0 a2 e1 12 3c d2 41 5a bc 75 93 3e bc 92 0e 25 bd
       0.008964928 -0.013321357 -0.011631836 -0.0402971
000300 e3 a7 5b bd 04 de b6 3c ee f3 4d bd 2b b9 1f bc
       -0.053626906 0.022322662 -0.050281458 -0.009748737
000310 07 0f 54 bd 02 7b a4 bb 19 b7 1f 3d 93 7d 36 3c
       -0.051772144 -0.0050195465 0.038992975 0.011138338
000320 4e 6e 7f bc 70 42 b0 3b 36 1b 2e 3d 8c 20 f3 3c
       -0.0155902635 0.0053790137 0.04250642 0.029678605
000330 62 3b 17 bd d8 8c 58 3c f6 df 00 bc a0 34 68 bd
       -0.036921866 0.0132171735 -0.007865896 -0.056690812
000340 56 eb d6 bb 00 be b8 bc 7c 88 b0 3c 20 3d af ba
       -0.006558816 -0.022551537 0.021549456 -0.0013369657
000350 72 16 68 bd 7a 94 7d 3c de 86 bc 3c f6 7c 9b 3c
       -0.05666203 0.015477294 0.023013528 0.018980484
000360 d1 e8 8f 3d 83 8e 0a ba 3a 69 b9 3c c2 00 65 bd
       0.07026828 -0.0005285518 0.022633184 -0.055908926
000370 58 4e 1a bd 15 b3 c4 bd 92 1d e0 3c ca cd c2 bc
       -0.03767237 -0.0960447 0.02735785 -0.023779768
000380 6e fc 0b bc 53 8b 3a 3d 00 e7 ad bc 1c a6 36 bd
       -0.008544071 0.045543026 -0.021228313 -0.044592008
000390 b0 9f 3a bd 21 39 07 3d 43 eb 03 bd 6b a5 82 bc
       -0.045562446 0.033013467 -0.032206785 -0.015948018
0003a0 2b e0 96 bc a4 ae 8f bb e5 74 0f 3d d1 1b 0e 3d
       -0.018417438 -0.0043848325 0.03502359 0.034694497
0003b0 54 77 79 3d 0c fb 55 bd 42 97 37 3c 1b 04 87 3d
       0.060904816 -0.05224137 0.011205496 0.0659258
0003c0 de a4 4b bd c2 9e 3a 3c 4c 01 71 bc a2 0f 53 bd
       -0.049717776 0.01139039 -0.014709782 -0.05152858
0003d0 85 54 46 3d b9 6c 6a 3c bd 75 5c 3d a6 31 5b bd
       0.048420448 0.014308148 0.05382322 -0.053514145
0003e0 93 b7 14 bd 58 4b ec bc 25 17 aa 3c 5e 6e 65 3c
       -0.036307883 -0.02884452 0.02076299 0.014003364
0003f0 bd a0 39 bd 42 15 23 bc 24 e5 d3 bc 8f 86 5b 3d
       -0.045319308 -0.009953799 -0.025866099 0.053595122
