models/tetrisold.pt (torch, 272702 bytes, 5 tensors)

fc.0.weight f4 [256, 5]
00000000: f0a4 a2bd 6391 babd 2267 2abe 0b56 d23e
00000010: 487c 51be b09a d5be 7025 86bc ac78 abbe
00000020: a0f2 d5bc dc9c bbbe 4a6b 0b3f f2a2 833e
00000030: 19fa e63d ed50 9fbd 367f 823e b416 a9bd
00000040: 2085 63bc 6c64 8dbd e0f9 8f3c 8a96 52be
00000050: 5324 dc3d 0150 a4be cb78 a43d 86a8 e6bd
00000060: 97a6 d33e 402e 063e 6d23 5bbe 9126 bfbe
00000070: 2025 9a3e 76a8 3abe 1aef 03bf 1d95 c1be
00000080: 1c9b c93e 6409 c23d d9ad 8fbe c063 df3d
00000090: c826 243e ac6e c7be 9c45 babd 232d 8abe
000000a0: d8ce 3fbd 4ade b9be e858 d6be 7abd 963e
000000b0: d081 2fbe 0876 f9be 1a8b b3be 68ce ac3e
000000c0: 8bcb cabe a88d f63d 74e0 593e c4cf 3bbe
000000d0: d8c4 98bd be95 61be 2ca1 97bd 705d eabc
000000e0: f32d dabe a7d9 6bbe e89d 973e f913 64be
000000f0: ecf2 cb3e b6b1 e23e 191e debe 629b 78be
00000100: 985c cfbd b0c8 0f3e 4058 54bb 6eff 40be
00000110: f081 673d 3061 c7bc b84f 1abe 751a a4bd
00000120: ad56 513e 7bf7 1d3e 5006 af3e c752 53be
00000130: b4b9 8b3e 9e08 ecbb 9a0b a63e 4958 fc3d
00000140: 20eb 9b3e b811 06bd 664a d73d 5391 413e
00000150: 806d 173e 249d debd e043 663b 7429 e1be
00000160: f81d 343e 40d3 073e 198a a53b 2ad4 a83e
00000170: 2bdf 823e a38c 253d 072a e3be 0a59 833e
00000180: de23 5fbe 289d 8dbd 406f 903b aefd 1d3e
00000190: 803b 253c 18d2 00bd d888 9cbe 9ad4 0e3e
000001a0: b0ad 253d 6868 8b3e 458a c8be d8a6 83be
000001b0: e96e d23e 0cdb 69be c0fb e13d 9039 ea3d
000001c0: fe75 c1be 00b5 5d3c ea63 48be 71e5 2ebc
000001d0: 277f 873e 717c 1f3d 96a1 bfbe a2e6 b6bd
000001e0: 6648 ae3e 7b2a 85be 67c3 bfbd b691 dd3e
000001f0: 70f1 b5be d8cf ee3e eac5 dd3e e4d0 2f3e
00000200: 55e0 243d 13bd a13e d2b8 c73e b052 ae3d
00000210: 8704 f8bd 54ab b7bd adc1 7cbe c5eb 863b
00000220: 95b2 b23e d065 e03e 3506 e23e f72e e03e
00000230: 3c2c a4be 727c bb3e 369d c6be 49db f8bc
00000240: dbdf 473e f7a2 db3d 740a c9bd 4838 6d3e
00000250: fa3d 8a3e fe5e 043d fd94 d93e e85c 00be
00000260: 55db d43e bd00 593e 671c fc3d 8622 db3e
00000270: cad8 9dbc c480 b63e e9cf 02be eed4 863e
00000280: d3a9 b33d e5f6 b73d d5e9 893d e287 a63e
00000290: 413c 25bd defc 223e 2855 65be 6f99 8a3e
000002a0: d433 dcbe 9a80 0c3e aca3 b53e d296 44be
000002b0: 2c98 84be 0817 6bbe 4ae6 7bbe ecf1 1f3e
000002c0: 47f0 5fbe 831a 283e cebe 7ebe 0bbc 943e
000002d0: b8f2 573e c033 b0be 8635 d7be 1dbe b4be
000002e0: 20b1 86bd ee5e 89be 9655 31be 2a14 c73e
000002f0: 9c4c 423d d88b d3bd 08e2 92bd 3a1d c4be
00000300: 56a8 c1be 2048 4cbd 52f3 813e 4024 b03c
00000310: 8a93 55be bc94 a3be 8d8e bb3e 478b dbbe
00000320: 6bb6 40bd 7dbd 763d 4577 203e 4388 703d
00000330: 0871 45bd d27d 113f 4849 323e 4553 5a3e
00000340: a6b8 5d3d e42c 333e 07fa bdbe 5ef8 793e
00000350: b055 80bc b3a8 143e 790e 3e3e 4e60 bcbc
00000360: 2ac5 c4be 85d0 9e3e 65d9 0d3e e909 453e
00000370: 95b4 aa3e bfd2 7c3e b036 323e 7ed7 00be
00000380: 4916 e2be 3039 d53e 41b9 cf3e 5f3d a1be
00000390: 0c5c bdbe ab37 da3e 5ee4 3fbe 0221 cb3e
000003a0: b977 283e 1423 3fbd 965c d0be 4274 223e
000003b0: 909b adbd 226d dd3e 06fe 553e b0ff 123d
000003c0: b6ee a93e 0169 993e 728c ddbe d019 b23e
000003d0: e65f dc3c 0dd0 d43e e236 a33e 91d1 58be
000003e0: 1da0 e53e 38ad 8d3e 13fb 4a3d 8882 96be
000003f0: 87a8 d8be 1af8 46be 1828 f73d 00fb d63b
-0.079416156 -0.091097616 -0.16640905 0.4108127 -0.20457566 -0.4171958 -0.016375273 -0.33490503
-0.02611667 -0.36643112 0.54460585 0.25710255 0.11278171 -0.07779107 0.2548768 -0.082562834
-0.01388672 -0.069039196 0.017575204 -0.20565239 0.10749116 -0.32092288 0.08030852 -0.11262612
0.41338035 0.1310358 -0.21400233 -0.3733411 0.3010645 -0.18228325 -0.51536715 -0.37809077
0.39376152 0.09474447 -0.28062323 0.10907698 0.16030419 -0.38951623 -0.09095308 -0.26987562
-0.04682812 -0.36302406 -0.41864705 0.29441434 -0.17139363 -0.48722863 -0.35067064 0.33751225
-0.39608416 0.120387375 0.21277028 -0.18340975 -0.0745942 -0.22029778 -0.07403788 -0.028609008
-0.4261318 -0.23032247 0.2961266 -0.22273244 0.39833772 0.44276208 -0.43382338 -0.24278024
-0.10125083 0.140414 -0.0032401234 -0.18847439 0.056520402 -0.024338335 -0.15069473 -0.08012859
0.2044322 0.15426438 0.34184504 -0.20637046 0.27290118 -0.0072031757 0.32430726 0.123215266
0.30452824 -0.03273174 0.10512237 0.18903093 0.14787865 -0.10869816 0.0035135671 -0.4397694
0.17589557 0.13264179 0.005051863 0.32974368 0.2556089 0.040417325 -0.44368002 0.2565387
-0.21791026 -0.06914741 0.0044077933 0.15428802 0.010084987 -0.03145036 -0.30573153 0.13948289
0.040448844 0.27228093 -0.3916799 -0.2571323 0.41100243 -0.22837466 0.110343456 0.114367604
-0.37785333 0.013531923 -0.19569364 -0.01067482 0.26464197 0.038937036 -0.37427968 -0.089307085
0.3403961 -0.26008973 -0.09363442 0.4327523 -0.35535765 0.46642947 0.4331506 0.17169529
0.040253002 0.31589565 0.39008194 0.08511865 -0.121102385 -0.08968225 -0.24683256 0.0041174614
0.34901872 0.43827677 0.4414536 0.4378583 -0.32064998 0.36618382 -0.38791817 -0.030378
0.19518988 0.107244425 -0.09816447 0.23166001 0.2700041 0.032317154 0.42496482 -0.12535441
0.41573587 0.21191688 0.12310105 0.42799777 -0.019268412 0.35645115 -0.12774624 0.26334327
0.08772626 0.08982638 0.06734053 0.32525545 -0.040340666 0.15916774 -0.22395766 0.27070186
-0.43008292 0.13720933 0.35476434 -0.19198158 -0.25897348 -0.22958004 -0.24599567 0.1561963
-0.21869002 0.16416363 -0.24877474 0.29049715 0.21088684 -0.34414482 -0.42033023 -0.35301295
-0.06576753 -0.26830238 -0.17317805 0.3888257 0.04743634 -0.103294075 -0.07172018 -0.38303548
-0.37823743 -0.04987347 0.2538095 0.02150166 -0.20857063 -0.31949413 0.36632195 -0.42879698
-0.047048967 0.060239304 0.15670498 0.0587237 -0.048203498 0.5683261 0.17410767 0.21320827
0.054131173 0.17497593 -0.37104818 0.24411151 -0.015665859 0.14517479 0.18560208 -0.02299514
-0.38431674 0.31018463 0.1385246 0.19242062 0.33340898 0.24689768 0.17403674 -0.12582204
-0.44157627 0.41645193 0.40571025 -0.31492135 -0.3698429 0.42620596 -0.18739459 0.3967362
0.1645192 -0.046664312 -0.40695637 0.15864661 -0.08476937 0.43247324 0.20897684 0.035888374
0.33189934 0.29962924 -0.43271214 0.34785318 0.026901197 0.4156498 0.3187781 -0.21173693
0.4484872 0.27671218 0.04955585 -0.29396462 -0.42316076 -0.1943058 0.12068194 0.0065606833

fc.0.bias f4 [256]
00000000: 18d1 983d 06ef 14be 5821 5fbe 4498 a9bd
00000010: ac59 51be 20f6 a7be af6f c5bc a009 b1be
00000020: e9d9 7e3e 9067 16be 0036 cebe c3d2 f43c
00000030: 5d13 dabd c7cf cd3e 0e9e fcbd 6960 03bf
00000040: da54 91be 7b07 3a3e cadc 173d 422d b7be
00000050: 4389 a23e 9612 a93e 36e4 ab3e 96ba bfbe
00000060: 1d18 373e 11cd a63e 5b4a cd3e 0c0b c23e
00000070: a505 00be 507c 983e e5fc ab3e d7be c03e
00000080: f6bc 8d3e 9548 bdbd b6b0 e0be 047f ac3c
00000090: 9c29 3d3d 5a6f 0e3e e21f bb3d 3ec8 cabe
000000a0: cbab c6be db51 8abe 66b2 9ebd 4e37 883d
000000b0: 75c5 8fbe 84f0 cabe 1d0d 863e ac13 51bd
000000c0: f9da 21bc d14e 95bd ae3e a23e dfd3 c9be
000000d0: 6933 20be 6525 503e 7cc1 27be b69a 5dbe
000000e0: 89b4 b83e 0624 63be a07f 8bbe 683e bebe
000000f0: 6a32 debe cee6 413e 6073 13be b3ae ad3e
00000100: 1913 903e b9c6 e3be d2dd 843d ef6c 883e
00000110: 211f f13e 3508 61be 7b7a 593e e797 dbbe
00000120: 8789 e6bd fe5e cebe 17ba 203e 21f0 ab3e
00000130: 7cb0 ddbe 3e7e bd3e a013 863e 3173 5ebe
00000140: 35e6 a53e 47bf bb3c 00a8 283d 4d5f 81be
00000150: 3682 d53e 9e55 dabe 0dd6 2d3e 1501 713e
00000160: 3bf3 c13e 2804 5fbe 10e3 263d e67e e33d
00000170: fe8d d23e df9b b13e 5b1d 39be 1f85 a0be
00000180: c962 c43e cba4 6d3d d35f 853c 63bb 57be
00000190: 4b41 79be 9685 2c3d d457 e53d 73f8 233e
000001a0: 79b5 9d3e 02aa e53e 1e81 ac3d 057d 4e3d
000001b0: ae60 503c 95c7 d1bc 79d3 963e 800b 273e
000001c0: c672 923e 655c c5be b059 c5be 8971 d2be
000001d0: dc41 10be 25e7 ac3d a246 a53d d272 e63b
000001e0: 070b 5c3d 6ea4 d5be 3660 c23e 6981 d1bd
000001f0: 8ff6 f33e defa 7dbe 77d6 33be 1d3b 963e
00000200: 42de 30be d290 81be ede8 ef3e 9130 9dbd
00000210: 3f2a 033e 7b02 d7bd 1c40 d53e 0eaa 4fbe
00000220: b8df de3e dc2c 173e e00b d6ba 39b7 bdbe
00000230: fc93 7e3e 89c1 a93b fae6 00bf 6e27 5e3e
00000240: 2ec5 e23e 37f4 a73e ce36 dcbe 6b99 8f3e
00000250: 32c8 df3e 779c d3be 4b83 e63e 2153 bb3e
00000260: 137f 81be 5899 8bbe 9887 003f 6cd9 dc3e
00000270: caa3 d9bd 7666 c33e f886 37be 9679 8cbe
00000280: c59c 863e 0812 14be ff92 703e 6c46 853e
00000290: 0e89 c13d 9250 c93e 7a8a 7e3e 6018 a6be
000002a0: 752b fdbd 8613 213d 76f7 0b3d 70b3 903e
000002b0: 022d 823e 3457 5b3e 8782 493d 179a 7d3e
000002c0: 59d4 d9be 8aa7 d03c 6c36 143d 450f cebe
000002d0: f036 7abe 50ad cbbe fe55 ec3d 2691 7b3e
000002e0: c517 fa3d b44d 78be 74b7 b4be 48fd b73e
000002f0: 8633 98be 9d2d fa3e db9e 9c3e d017 203e
00000300: acdb af3e 8ca1 06be 9b62 d7be cc6d b93e
00000310: 807c 86bd 6af4 093f 9e7c 4cbe 0c1f 27be
00000320: c8e0 4abe e6a3 a03e f03e b53e 8f66 e23b
00000330: bb8b 3ebe 9fca ef3d 087a 89bb f475 a63e
00000340: 3b9a d9bd 713f 03bf 22c3 66bc cfa3 eb3e
00000350: 2565 d6bd 840e f3be 9768 123f 42c6 5ebe
00000360: a166 343e 4e58 aa3e ce53 e9be bd5c 343e
00000370: 4f73 8c3e a89b dbbd b790 af3d 8941 91be
00000380: a200 833e fa60 cf3e ca31 c63d 42c9 7c3e
00000390: 3da4 01be 94de 693e 0652 253e 627a 28be
000003a0: 1ec3 c33d 74da 8f3e f8a9 683c 9f65 023f
000003b0: ec8f babe 3f17 00be 0be0 f13e 3366 e5bd
000003c0: 9e2a 8a3e 41d4 013e 9d50 bb3e 68c1 583e
000003d0: edda c43e 287e a6bd ea93 843e 39b3 c7be
000003e0: 840c 9cbe 8abb b6be 0521 f13d 1437 493d
000003f0: 6c8a fbbd a486 ebbd cadb 5fbe 85ac 873d
0.074617565 -0.14544305 -0.21790063 -0.082809955 -0.20444363 -0.32804966 -0.024101106 -0.34577656
0.24887814 -0.14687943 -0.40275574 0.029885655 -0.106482245 0.40197584 -0.12334834 -0.51318985
-0.2838505 0.18166916 0.037075795 -0.35776716 0.31745347 0.33021992 0.3357255 -0.3744704
0.17880292 0.32578328 0.4009579 0.37899053 -0.12502153 0.29782343 0.3359138 0.376456
0.27683228 -0.092423595 -0.4388482 0.02105666 0.04618226 0.13909665 0.091369405 -0.39605898
-0.38802943 -0.27015576 -0.077488706 0.066511735 -0.28080335 -0.39636624 0.2618188 -0.05104415
-0.009878867 -0.07290424 0.31688446 -0.39419457 -0.15644611 0.20326765 -0.16382402 -0.21641049
0.36075237 -0.2218171 -0.27245808 -0.37156987 -0.43397838 0.18935701 -0.14399481 0.33922347
0.2813957 -0.4448755 0.06487621 0.2664561 0.47094062 -0.21975787 0.21238129 -0.4288933
-0.112567 -0.40306848 0.15695988 0.3358164 -0.4329871 0.37010378 0.26186848 -0.2172363
0.32402197 0.022918357 0.041175842 -0.2526802 0.41700906 -0.42643446 0.16976185 0.23535569
0.37880883 -0.21778929 0.040743887 0.11108188 0.41123956 0.34689233 -0.18077604 -0.31351563
0.38356617 0.058018487 0.016281044 -0.21067576 -0.24341314 0.042119585 0.111983925 0.16012745
0.30802515 0.44856268 0.08423065 0.050412197 0.012718363 -0.025607863 0.29458216 0.1631298
0.2860319 -0.38547054 -0.3854499 -0.41102245 -0.14087623 0.08442525 0.08070113 0.0070327306
0.053721454 -0.41727012 0.37964028 -0.10229761 0.47649047 -0.2480273 -0.1756228 0.29341975
-0.17272285 -0.25305802 0.46857396 -0.07675279 0.12809084 -0.1049852 0.41650474 -0.20279714
0.4353006 0.14763206 -0.0016330443 -0.3705385 0.24861139 0.005180542 -0.5035244 0.21694729
0.4429106 0.3280351 -0.43010563 0.28046736 0.43707424 -0.4133031 0.45022044 0.3658686
-0.25292262 -0.2726543 0.502069 0.4313463 -0.106269434 0.3816411 -0.1792258 -0.27436513
0.2629148 -0.14460003 0.23493575 0.2603029 0.09449969 0.39319283 0.24857512 -0.32440472
-0.123618044 0.03932526 0.034171544 0.282619 0.25424963 0.21419984 0.049196746 0.24765812
-0.4254482 0.025470514 0.036184713 -0.40246025 -0.2443502 -0.39780664 0.11539839 0.24567088
0.12211565 -0.24248391 -0.35296214 0.35935426 -0.2972681 0.48862925 0.30589947 0.15634084
0.34347284 -0.13147563 -0.42067418 0.3621658 -0.06566715 0.5388857 -0.19969413 -0.16320437
-0.1981231 0.31375045 0.3539958 0.0069091986 -0.1860799 0.11708569 -0.0041954555 0.32511866
-0.1062512 -0.5126868 -0.014084609 0.46023414 -0.104685105 -0.47472012 0.5719084 -0.21755317
0.17617275 0.33270496 -0.4557175 0.17613502 0.27431723 -0.107230484 0.08572524 -0.28370312
0.2558642 0.40503675 0.09677465 0.24686149 -0.12660308 0.22838813 0.1614457 -0.16452935
0.095587 0.28096354 0.01420068 0.5093631 -0.3643793 -0.12508868 0.47241244 -0.112011336
0.2698564 0.12678625 0.3658494 0.21167529 0.38448277 -0.08129531 0.258941 -0.39003924
-0.304783 -0.35689956 0.11773876 0.049124792 -0.12282261 -0.1150029 -0.21861187 0.06624702

fc.2.weight f4 [256, 256]
00000000: 3c6d d6bc 5000 1d3d 009f b13a f678 25bd
00000010: 3237 72bd 3615 13bd 7aa2 17bd 42e7 1d3d
00000020: 24a1 90bc 4027 a23b 18bf 6a3c 2863 b73c
00000030: 20be f4bb d869 493d 00bd 133b c043 563c
00000040: 8007 8b3b 70ac febb b8d2 0fbd c8b0 54bd
00000050: e84f fe3c c0b5 3fbb 062d 09bd 4076 d3ba
00000060: 5ea3 64bd 007d eabc e0ad 32bc a0fb d7bb
00000070: da26 003d d6c9 5fbd 40c9 0dbc f61e 2a3d
00000080: e644 243d 381a 5d3d 58bc b33c 7047 b0bb
00000090: e40b fabc 8c9b 39bd f0e7 323c b0b9 70bd
000000a0: 0094 8a3c 149e 3e3d 0076 62bb 546c 76bd
000000b0: 3c8e 1cbd f900 4b3d 2ca1 79bd 3090 80bb
000000c0: f485 d5bc e0ab 603a 2cf6 5dbd 0818 793d
000000d0: 2419 7ebd 44f5 3d3d a04b 75bc 0cf8 e4bc
000000e0: 3c59 cb3c d071 88bc eae4 09bd f05a d8bb
000000f0: 429b 5e3d b014 983b 90d0 8f3c b037 febc
00000100: 66bf 343d 80fb 25bd 6cc1 46bd c0da 51bb
00000110: 4070 94ba c0ad 073c 4edf 553d 7403 cdbc
00000120: c2f6 3ebd a035 4339 e0be 543c e637 7c3d
00000130: 665b 6c3d 744e 8bbc 542e 54bd 68a8 073d
00000140: 70ed 313d 0831 41bc b82c 4d3d 50fe fa3b
00000150: 0079 723c d2f2 febc ecdf c0bc 4a00 42bd
00000160: f47b 7cbd 500f c13c ec19 f2bc c8cd 15bc
00000170: 2c6e bb3c 6c35 853c 84f4 95bc f00e 083d
00000180: 8e0f 623d 1862 09bc e0f6 d0bc 7cd6 12bd
00000190: 3896 78bd 4009 d1bb 8cf7 99bc a079 29bd
000001a0: 5a2d 03bd b808 4d3d 4a75 5dbd 5212 2cbd
000001b0: fea1 06bd 008a 16bb c435 e43c 8c7f 773d
000001c0: 786b 343c 1b25 adbb c096 58bd a808 183c
000001d0: 5eb8 0abd cea0 313d 8032 1ebb 1c19 ccbc
000001e0: 1c7e 9abc b858 923c 129e 63bd f935 bcbc
000001f0: b06f 6abc d41b 7d3d b650 253d 58ac 873c
00000200: d8db 9d3c 583d 02bc 9247 033d d4e5 bfbc
00000210: 7aa9 31bd 0fd6 2c3d 6c4c babc f0f6 b33c
00000220: 4002 25bc 3aee 303d ae5e 68bd 7ae0 553d
00000230: 60b5 b4bb 205f 343d 10cd 58bd 9a5b 37bd
00000240: 61b8 0eba ca55 3e3d 42e5 293d 0a28 bcbc
00000250: 2c9c 4abd 7080 d0bb 7058 06bd 9243 68bd
00000260: c601 62bd 72e2 6bbd 5cf3 1abd 48e6 55bc
00000270: d26b 233d 003d 5dbc 00ca 04bc 90a4 bebb
00000280: 3a78 463d f82e 4ebd 4060 733d c079 ed3a
00000290: 1471 6f3d 80ed ed3c 4015 20bc a03f 89ba
000002a0: 3e22 16bd c861 683d 7474 b43c 8495 aabc
000002b0: c4fb 2dbd b6c3 33bd 72e6 23bd 0893 793c
000002c0: 8647 513d 2808 233c b29f 2f3d 20df 43bc
000002d0: beeb 00bd 5eed 6cbd ac9c 1a3d eca8 16bd
000002e0: d0b1 92bb 0678 793d 8060 6b3b 8cff 9cbc
000002f0: 80e2 dc3b 94de abbc 8878 4e3c 80b0 cdbc
00000300: 62f1 1c3d b4d6 85bc 4027 95ba b876 043c
00000310: d4e6 a9bc a8c8 38bc 6082 9abb b0e5 10bd
00000320: 1a51 73bd d6ed 69bd b0d2 b0bb ee71 24bd
00000330: f01b c1bb d02c 8e3c 9806 363c 46d9 313d
00000340: 0666 62bd 8074 073d ac32 c3bc 2c98 0a3d
00000350: 68d2 db3c 78dd 883c 9031 7dbc fe7f 103d
00000360: 5db8 68bd 20ad 033c a8b3 d93c 3e88 69bd
00000370: 1837 063c 0693 383d 428d 093d 4894 343c
00000380: d0f2 dabc 38c2 e9bc 0883 7cbd c027 5cbc
00000390: 62d8 213d 6601 5dbd e2d6 7b3d 48fe d13c
000003a0: 87f0 e8bc 14d0 2a3d bc1e 6b3d c003 14bc
000003b0: 5c9a 783d 92ba 2a3d e8ef 213d b01a 4dbc
000003c0: 88c3 493c b6bd 223d acb7 a83c 90bd 023c
000003d0: 261b 20bd be74 0fbd a263 2b3d 1e2f 24bd
000003e0: 80e0 4dbd 8e1d 543d 282a ba3c e0a6 143b
000003f0: 96c2 163d a890 1e3d 2c08 73bd 7056 0b3c
-0.026175134 0.038330376 0.0013551414 -0.04039856 -0.05913467 -0.0359089 -0.037020184 0.038550623
-0.017654963 0.0049485266 0.014327787 0.022386149 -0.0074689537 0.049173206 0.0022543073 0.013077676
0.0042428374 -0.007772021 -0.035113066 -0.051926404 0.031043962 -0.0029252619 -0.033490203 -0.0016133264
-0.05581986 -0.028624058 -0.010905713 -0.0065912753 0.03128705 -0.054635845 -0.008653939 0.041533433
0.04010477 0.053980082 0.021940395 -0.0053796098 -0.030523248 -0.045314357 0.010919556 -0.058770835
0.016916275 0.046537474 -0.0034555197 -0.060161904 -0.038221583 0.049561474 -0.06094472 -0.0039234385
-0.02606485 0.0008570533 -0.054189846 0.060813934 -0.062035695 0.04637648 -0.014971644 -0.02795031
0.024822824 -0.016655833 -0.033665575 -0.0066026375 0.054347284 0.004641138 0.017555505 -0.031032413
0.044127844 -0.040523052 -0.048524305 -0.0032021254 -0.0011324957 0.008281171 0.052214913 -0.02502606
-0.046622045 0.00018616626 0.012984961 0.061576746 0.05770435 -0.017005183 -0.051801994 0.03311959
0.04343933 -0.011791475 0.050091475 0.007659711 0.014799356 -0.031121645 -0.023544274 -0.047363557
-0.06164165 0.023566872 -0.029553376 -0.0091433 0.022879682 0.016260825 -0.01830507 0.03321737
0.055190615 -0.008385204 -0.025508344 -0.03584908 -0.060690135 -0.0063792765 -0.018794797 -0.041375756
-0.032025672 0.050057143 -0.054066934 -0.04200966 -0.03286933 -0.0022970438 0.027857669 0.060424373
0.011011951 -0.0052839643 -0.05287814 0.009279408 -0.033867233 0.043366246 -0.0024138987 -0.024914317
-0.018858962 0.01786457 -0.05557067 -0.022974955 -0.014308855 0.061794117 0.040360175 0.016561672
0.019269869 -0.007949196 0.032050677 -0.02342502 -0.043374516 0.04219633 -0.022741519 0.021968335
-0.010071337 0.04319594 -0.05673092 0.05221603 -0.0055147856 0.04403603 -0.052929938 -0.044765092
-0.0005444345 0.046468534 0.041478403 -0.02296831 -0.049465343 -0.006362967 -0.032799184 -0.056705065
-0.055177473 -0.057589002 -0.03782974 -0.013055392 0.039897747 -0.013503313 -0.008104801 -0.005817957
0.0484545 -0.05033776 0.059417963 0.0018117949 0.05845745 0.029043913 -0.009770691 -0.0010471232
-0.03665375 0.056733876 0.022028185 -0.020823248 -0.04247643 -0.043887816 -0.04001469 0.015232809
0.0510936 0.009950675 0.042876907 -0.011955053 -0.03147482 -0.05784356 0.03774707 -0.03678219
-0.0044767633 0.06090548 0.0035915673 -0.019164823 0.006740868 -0.020980157 0.012601979 -0.025108576
0.038316138 -0.01633773 -0.0011379495 0.008084945 -0.02073995 -0.011278309 -0.004715249 -0.035375297
-0.059403516 -0.057111584 -0.0053962097 -0.040147714 -0.005893223 0.017355353 0.0111099705 0.0434201
-0.05527308 0.033070087 -0.023827873 0.03383653 0.026833728 0.016707167 -0.015453711 0.035278313
-0.056816448 0.008036882 0.026574925 -0.057014696 0.008191846 0.045062087 0.03358198 0.011021681
-0.02672711 -0.028534994 -0.0616484 -0.0134372115 0.039513 -0.05395641 0.061484225 0.025633946
-0.028435005 0.041702345 0.057402357 -0.009034097 0.060694084 0.041681834 0.039535433 -0.01251857
0.012314685 0.039731704 0.020595394 0.007979766 -0.03908839 -0.035023443 0.041843064 -0.040083997
-0.050262928 0.051785998 0.02272518 0.0022682473 0.036806665 0.038712174 -0.059333965 0.008504495

fc.2.bias f4 [256]
00000000: b8fd b4bc 6f26 043e 7b65 7d3c 24b5 693c
00000010: e457 65bd 9da6 86bd c078 06bb f42f e9bb
00000020: 3a80 b9bc 0f7d 3cbc ae63 9abd 07b0 6f3d
00000030: 80a0 32bd e317 4cbc e3fc 9f3d 6fad 84bc
00000040: 9441 31bd 65f8 6f3b 5b16 863d ba1b 63bd
00000050: d038 273c 87b5 aa3d a505 17bc 6355 013d
00000060: de7c fc3b 6bd2 5cbd cfd1 103d 2c2d b5bc
00000070: 1cb9 cbbd 763b d23b e324 9cbd 1cd4 f93d
00000080: ef46 6cbd 807c 39bc 011c e7bc d96f a0bd
00000090: 4051 043c b7a3 953c 4d0c ee3d 8e09 c03d
000000a0: b875 0d3d 8d54 753d 25a4 82bc e839 e03d
000000b0: 75dd 4e3d 096b a0bd 3fa0 2c3d c9b7 643d
000000c0: 15c3 033d 2b24 99bc 6a83 d53c 1720 eabc
000000d0: 895a 2c3c da1a 80bd 5847 1b3c 5011 42bd
000000e0: 6407 4abd 68a6 b43d 328e 2dbc 8aff 973d
000000f0: c065 ca3d a675 00bd 74de f8bb ddbc 133d
00000100: dc5a 813d 6f0d 353b 7c32 7e3c 850d a8bd
00000110: 386a f7bc 830f 51bd c021 4fbb 97b0 813d
00000120: 50ce 6b3d ddf9 99bb bf96 c83c 1bb8 c2bc
00000130: b9be a7bd 4023 e83c 1422 00bd 583c ae3c
00000140: b6fb ed3d 848a 32bd 5d50 48bd d590 99bd
00000150: d624 373d a377 c83d 1e5a 2cbd 9a50 94bd
00000160: 1d96 95bd 1786 b1bd ab49 bd3d 4e05 b3bd
00000170: 5f4e c03c 0453 f93d 1c43 38bd d017 d7bd
00000180: a4a0 63bd b49f fa3c 5c98 1a3d c313 cfbd
00000190: d72c 61bc 5472 4fbd 3243 2cbd 2c33 c7bb
000001a0: cf16 02bd a36e 72bd 5be5 efbd b012 5ebd
000001b0: c404 d23d 7974 cc3d 46f8 e73d 4a88 d13c
000001c0: 2fe6 b13d db2b 57bd 7852 493d 8c41 63bd
000001d0: e409 f83c 8630 f3bd 0ebd 37bd 646e 5d3d
000001e0: 96ed 50bd aff7 113d edae 84bd 0c22 7cbd
000001f0: 2e69 39bc 2ad7 603d 6768 e33d 8394 52bd
00000200: d087 33bd 0062 ec39 6723 59bd bf26 5bbd
00000210: a2a8 51bc 8523 3cbd 07e1 a3bd 8208 773d
00000220: c7e6 6f3d b950 98bd dc78 aebc db1f 60bd
00000230: 82a4 d9bd 15d8 70bd 66bd 8a3d 1218 0e3d
00000240: b1aa b8bd e249 61bd fdcf 463d dd9e 32bd
00000250: 959a c63d 148d 1f3d 8881 e7bd 6390 23bd
00000260: b844 b2bd 22f7 fdbd 4ce6 273d 9159 283e
00000270: 1da5 773d 1b71 b93c dd82 1c3b 27d7 f0bc
00000280: c63a 2cbd 1c5e 70bd 526e 41bd 6cc7 56bd
00000290: 5ceb 913c 270d 3c3d b616 2a3c 65a7 143e
000002a0: a65b 0ebd fa6b ebbd 505d 76bd 415d ad3d
000002b0: e7a6 65bd 9837 f93c 3a9f c63d ce90 45bd
000002c0: d979 28bd cb49 3bbd 5a2e afbd 9cac e1bb
000002d0: 1bb3 1f3e f039 073d 2a7d f23d 5796 22bd
000002e0: b363 d03d 784f f7bc de3e 89bc 031a cd3d
000002f0: 078d 95bd 5566 323d 7aa7 2fbd a9c9 04bd
00000300: 713d f33c 8c1c e23d 682e 8dbd c691 4cbd
00000310: 8a58 b43d 24da cfbc e958 5f39 fbda 81bd
00000320: 8ca0 913c c394 f53d 11b0 b83d 94ae 143d
00000330: b928 603c 0182 71bd d48e 44bd 800f 7ebc
00000340: 61c8 803c b5aa cbbd 44a4 82bc aea4 733d
00000350: dc36 4cbd 4df5 f93d d10e 74bd 9c9c a5bd
00000360: a7c0 a1bd 80fd 24bd 524c debc 43d6 81bd
00000370: afc2 0dbd f565 ad3d 767c d3ba aa0e 50bd
00000380: 93c0 79bd 0b10 8a3d cf09 74bd d007 eb3b
00000390: 70e0 893c 44ed fa3c 7c05 913c b57c 713c
000003a0: 1342 f83d ea21 22bd 7544 a73c 289e e43d
000003b0: 98cb 533d 7083 48bd e25e e93d 4343 913c
000003c0: ad65 b03a b16b 173c 20ba ab3d 8e1f 8b3c
000003d0: e95e 39bd 4c13 8f3c e63e 883d c01f 583b
000003e0: 4d7c 933c 4241 933b d535 8bbd 7a95 4d3d
000003f0: c7a0 fb3d 6618 cabd 2f5c 9dbd 818b 093e
-0.022093639 0.12905286 0.015466089 0.014264379 -0.055992022 -0.06574748 -0.002051875 -0.007116312
-0.022644151 -0.011504426 -0.07538544 0.058517482 -0.043610096 -0.012456867 0.07811906 -0.01619598
-0.04327543 0.003661656 0.06547233 -0.055446364 0.010206416 0.08335405 -0.009217654 0.03157557
0.007705315 -0.053911608 0.03535634 -0.022116266 -0.09947416 0.0064157797 -0.07624223 0.1219866
-0.057684835 -0.011321187 -0.028211595 -0.07833833 0.008076012 0.018266542 0.1162344 0.093768224
0.034536093 0.059895087 -0.01594741 0.10948545 0.050504167 -0.07832915 0.04214501 0.055839334
0.032168467 -0.018694004 0.02606364 -0.028579755 0.010519632 -0.062551215 0.009477459 -0.04737979
-0.049323454 0.08820802 -0.010592984 0.07421787 0.098826885 -0.0313622 -0.007594878 0.036068786
0.06316158 0.0027626415 0.015514966 -0.08205704 -0.030202016 -0.051040184 -0.003160581 0.0633251
0.0575698 -0.0046989755 0.024485944 -0.023769429 -0.08190674 0.028337121 -0.0312825 0.021269009
0.11620276 -0.04358913 -0.048904765 -0.07498328 0.044712864 0.09788444 -0.04207813 -0.07241936
-0.073040225 -0.08668154 0.09242567 -0.08741246 0.02347487 0.12174037 -0.044985875 -0.10502589
-0.05557312 0.03059373 0.037742957 -0.10111191 -0.013743601 -0.05064614 -0.04205627 -0.006079098
-0.031760033 -0.059187543 -0.11713668 -0.05421704 0.10254815 0.09983153 0.11326651 0.025577683
0.08686482 -0.05253206 0.049150914 -0.055482432 0.030278154 -0.118744895 -0.04485803 0.054060355
-0.05100783 0.0356366 -0.06478677 -0.061555907 -0.011316581 0.054892696 0.111038975 -0.051411163
-0.043830693 0.00045086443 -0.053012278 -0.053503748 -0.012796553 -0.04593231 -0.08001905 0.060310848
0.058569696 -0.074372716 -0.021297865 -0.05471788 -0.106270805 -0.058799822 0.06774406 0.034690924
-0.09016932 -0.0550021 0.048538197 -0.043608535 0.09697453 0.038952902 -0.11304003 -0.03993262
-0.08704513 -0.124006525 0.040991113 0.16440417 0.0604602 0.02263694 0.0023881712 -0.029399468
-0.04204824 -0.0586835 -0.04722435 -0.052436277 0.017812423 0.04591098 0.010381391 0.14516981
-0.03475537 -0.11495204 -0.060147583 0.084650524 -0.056067374 0.030422017 0.09698339 -0.0482338
-0.041131828 -0.04572467 -0.08553763 -0.0068870317 0.15595667 0.033014238 0.118402794 -0.039694156
0.10175266 -0.03018926 -0.01675361 0.10014727 -0.073022895 0.043554623 -0.042884327 -0.03241888
0.029692383 0.11040601 -0.06893617 -0.049943708 0.0880595 -0.025372572 0.00021300059 -0.06340595
0.01777675 0.11991265 0.09017957 0.036299303 0.013681584 -0.058961872 -0.047987774 -0.015506625
0.015720548 -0.09944669 -0.015947469 0.059483223 -0.049857005 0.122049905 -0.059584443 -0.080865115
-0.07898074 -0.04028082 -0.027136002 -0.06339695 -0.034609493 0.084667124 -0.0016135115 -0.050795235
-0.06097467 0.06741341 -0.059579667 0.007172562 0.016830653 0.030630715 0.01770281 0.014739205
0.12121978 -0.039583124 0.020418385 0.111629784 0.051707834 -0.048953474 0.113950506 0.017732268
0.0013458036 0.009241984 0.0838511 0.01698282 -0.04525653 0.017465256 0.06652622 0.003297791
0.018003607 0.0044938633 -0.06797377 0.05019138 0.12286525 -0.09867935 -0.07683598 0.13432123

fc.4.weight f4 [1, 256]
00000000: 80ac 51bc 03b0 893d c7be aebb 19cd 6f3c
00000010: 6003 64ba 5663 2dbd f445 f03c 601b 2c3c
00000020: 165a 373d 7499 65bb 79c6 55bc 765b 1b3d
00000030: cca2 983c f8f7 abbc 1921 993d 4ee1 50bd
00000040: 5831 28bd 493f ed3c 1cfa 0c3d 5257 54bd
00000050: 3ef0 743d 7ef4 243d 4d77 ca3b 0b13 c53c
00000060: 8c7e d73b 50b3 72bc 422d e63c a471 4ebb
00000070: 723e 57bd a970 8ebc 073e d8bc b4f5 dd3c
00000080: 2458 4cbd 9132 52bd 8fb5 a9bc 360a b2bb
00000090: 7049 763d 6f4c 993c c49f e53c adf7 0a3d
000000a0: 3348 acbc 2d9e 173d 603a 81bc 996b 4c3c
000000b0: 0e2d 103d bdbd bbbc 7f13 51bd 404b 6b3d
000000c0: 0c91 f53c 7a8a a2b7 1bd6 2dbd d0f2 67bd
000000d0: b0f5 6c3d 82c6 9fbc 20cf 2d3c 8cd6 32bd
000000e0: 0c9b 3fbd 658c 9b3a 0408 39bc 17f6 913b
000000f0: e3a8 633d ae8f ca3b f9c5 18bc e658 44bd
00000100: 8b6e 2c3b 94e5 083d e513 21bd b308 1fbc
00000110: 68a5 81bc 5868 02bd 3080 793c 5672 2339
00000120: 0cd4 f63c 4810 603d 3f0c 6e3d cb70 f8bc
00000130: 5ac5 67bd a8e0 28bc dcc8 2f3d 584b 663d
00000140: 5bc3 c63c 5f0d 06bd 6475 4ebd 559f ebbc
00000150: 2b2a 53bd 3b2a 4c3c 609d a2b8 8a5f 13bd
00000160: 738f b13a 481d 3dbd c287 583d bb5d d1bc
00000170: 4e46 233d e9e5 353d 8360 0c3d 432c 1cbd
00000180: b40b 06bd 6808 4fbd 01cd c83c 8aaf 4ebd
00000190: 7d91 62bd 2073 ae3c c3d4 45bd b634 3dbb
000001a0: d48c 613d 6a91 e1bc 7c43 23bd de76 8cbb
000001b0: 378c 493d 5541 a93b 5a33 303d 0583 48bd
000001c0: 3146 563b 3e9b 37bd fc86 723d 58b8 563c
000001d0: 0ab0 023d a8f4 16bd ecd6 953c e05a 0cbd
000001e0: 85be 9cbc 83df c53c dd8a febc 941c edbc
000001f0: a940 7339 e28d 0c3d b3d1 143d d67c 40bd
00000200: 6e1c 2fbd c032 123b 5d93 e8bc 7c11 32bd
00000210: 9140 d53c 4c11 d53c b877 f2bc d3e5 a83c
00000220: 3bb3 a3bb 5a34 5bbc cc2d 6fbd d401 ab39
00000230: 94f0 03bd 1a80 c3bb fe72 173c 151e 11bc
00000240: efd6 2cbd e407 11bd d920 47bd d77f 98bb
00000250: 9884 113c 32b2 ce3c 2737 c9bb bfae 9bbb
00000260: 05dc debb 5c0a 05bd f864 613d 800c 4f3d
00000270: 003e 793d af90 4f3c 22ef 513d edb8 053d
00000280: 6686 393d 5063 96bc 8c13 67bd 3612 6abd
00000290: 088d 243c 8f4b 683d 81d2 72bd ead6 873d
000002a0: f85f 2bbd d7f1 b2bc 9048 6e3c e6b9 b73c
000002b0: 9f97 763d 79c7 77bd 76d8 c43c a16b 773d
000002c0: 2f77 36bc 2c9d eeba 02ed 67bd 378a cfbc
000002d0: d660 873d 8bbe 743d a676 543d 0a62 f7bc
000002e0: c420 153c 40b6 7a3c c56d 69bc 0788 163c
000002f0: b5e6 89bc 2e06 563d 755c 78bc 6b5f ffbc
00000300: fcf3 43bc c55b 203d 8d7f 17bd ed7a 08bb
00000310: cba7 683d 30ad 0dbd a8af efbc 34d3 75bd
00000320: a074 683c 3daa ab3c ac97 583d 5504 f3bc
00000330: 1efa 8bbb 86cf 53bd 8c9c a63c eae4 7e3d
00000340: 12d6 1b3d 680d 2ebb f04c f73b f6e0 573d
00000350: 3274 ccbc c921 803d 3faa 1bbd 4f7f 13bc
00000360: 97e8 19bc 9852 96bc 884f 31bc 2581 62bd
00000370: 4c87 e9bc 7917 9b3b b153 203d efe0 0cbd
00000380: 6124 75bd 4c8f 7b3c 4472 30bc 8803 c33c
00000390: 6041 e43b 1c58 57bd 18b9 64bc 19c7 803d
000003a0: ee0e 923c 78d9 1b3c 209a 0fbb d4a6 4d3d
000003b0: 972b 8a3d 1cab b4bc 57eb 253c a3da a9bb
000003c0: 922c ab3c 8328 f23a 59d9 c73c 6566 143c
000003d0: cc1d 55bd ec28 2d3d 7b15 043d 70a7 eabc
000003e0: d987 173c d7e4 e4bc a94d 34bb 6ed2 483a
000003f0: bbae 343d 5369 fdbc 066d 16bd f026 753d
-0.012797475 0.06723025 -0.005332801 0.014636301 -0.00086980127 -0.042331062 0.029330231 0.010504574
0.044763647 -0.0035034092 -0.013047808 0.03792902 0.018632315 -0.020992264 0.07477016 -0.050996117
-0.041062683 0.02896084 0.03441821 -0.051841088 0.059799425 0.04027223 0.0061787725 0.024056932
0.006576365 -0.014813259 0.028097752 -0.003150084 -0.052549787 -0.017387705 -0.026396764 0.0270947
-0.049888745 -0.051317755 -0.020716457 -0.005433346 0.06012863 0.018713204 0.028030284 0.03392761
-0.021030521 0.037016083 -0.015774906 0.012476825 0.035199217 -0.022917623 -0.051043984 0.05744481
0.02997639 -1.9376388e-05 -0.042440515 -0.05662805 0.057851493 -0.019503836 0.0106084645 -0.04366164
-0.046778724 0.0011867402 -0.011293415 0.004454385 0.055580985 0.0061816787 -0.009324544 -0.047936343
0.0026311006 0.033422068 -0.039325614 -0.009706664 -0.015825942 -0.03183779 0.015228316 0.00015587485
0.030130409 0.054703027 0.058117148 -0.030327221 -0.056584693 -0.0103074685 0.042916164 0.056224197
0.024263075 -0.032727595 -0.05040492 -0.028762499 -0.051553886 0.01246124 -7.754075e-05 -0.035979785
0.001354678 -0.046170503 0.052863844 -0.02555739 0.03986197 0.044408713 0.03427173 -0.03812815
-0.032726005 -0.050545126 0.024511816 -0.050460376 -0.05531453 0.02129513 -0.04829861 -0.002887053
0.055065945 -0.02753516 -0.03985928 -0.004286631 0.049205985 0.005165259 0.043017723 -0.048953075
0.0032695646 -0.044825785 0.059210762 0.013105474 0.031906165 -0.036854416 0.01829096 -0.034266353
-0.019133816 0.02415443 -0.031072075 -0.028944291 0.00023198374 0.034314997 0.036332797 -0.046994053
-0.042751722 0.0022308081 -0.02839058 -0.043473706 0.026031764 0.026009224 -0.029598102 0.020617401
-0.004995731 -0.013379181 -0.058393285 0.00032617024 -0.032211855 -0.0059661986 0.009243725 -0.00885727
-0.042197164 -0.035407916 -0.04861531 -0.0046539116 0.0088817105 0.025231455 -0.006140608 -0.004751056
-0.0068011307 -0.032480583 0.055027932 0.05054903 0.060850143 0.012668773 0.051253445 0.032647062
0.045294188 -0.018357903 -0.056415126 -0.057146274 0.01004339 0.056712683 -0.059282783 0.066327885
-0.04183957 -0.021843834 0.014543667 0.02242751 0.06020319 -0.060492966 0.024028998 0.060405377
-0.011136814 -0.00182048 -0.056622513 -0.02533446 0.06610267 0.05975203 0.051870964 -0.030198116
0.00910205 0.015302241 -0.0142473625 0.009187705 -0.016833642 0.052251987 -0.015158762 -0.031173429
-0.011960026 0.03915002 -0.036986876 -0.0020825223 0.056800645 -0.034588993 -0.029258564 -0.060015872
0.014187962 0.0209552 0.05287902 -0.029665152 -0.0042717597 -0.05171158 0.02033832 0.06223003
0.03804595 -0.0026558284 0.0075470135 0.052704774 -0.02495775 0.06256444 -0.038004156 -0.009002521
-0.009393833 -0.01834993 -0.010822184 -0.055298943 -0.028506897 0.004733023 0.039142314 -0.0343942
-0.059849147 0.015353989 -0.010769431 0.023805395 0.006965801 -0.052574262 -0.013960145 0.06287975
0.017829385 0.009512298 -0.0021911934 0.050207928 0.06746595 -0.022054248 0.01012691 -0.005183534
0.020895276 0.0018475208 0.024395632 0.009057616 -0.05203037 0.042275354 0.032247048 -0.028644294
0.009248697 -0.02794115 -0.002751211 0.0007660751 0.04411195 -0.030934012 -0.036725067 0.059851587
